GIRT/diagnosis/irt2pl-math1-random-split-theta/theta.npy (npy, 16964 bytes, 1 tensors)

array f4 [4209, 1]
0.1008987 -0.074352734 -0.07846184 0.50784755 -3.0970964 -0.6735244 -0.8101669 1.2344506
1.1828934 -0.4675698 -1.5009751 -0.52226865 -0.07599884 0.31551751 -0.6483698 -0.7333884
-0.5865964 0.372619 0.083266914 -0.9888068 -1.303703 0.6063668 1.5298429 0.02571611
-0.14636554 -1.7608817 -2.208661 -0.109393395 0.19359998 -2.1905146 1.0886788 -1.1336532
0.2563645 0.5100408 0.47303402 1.2903302 0.41526505 0.11117592 -0.60955256 -1.1686436
0.48090786 -1.124603 -1.7923709 1.1922365 0.35615775 -1.8575203 1.0301285 -0.11205044
-0.087202914 -2.9856853 1.1466216 -0.25761765 0.4137592 -0.18427964 0.80276656 -2.0776422
0.7979433 -1.4283185 1.8782551 1.1681126 0.056119967 0.1452079 0.7676983 -1.0978647
-0.8749806 1.4388796 -0.86585224 -0.94422954 -0.7778484 -0.4061912 0.08777418 0.70249027
-0.058002368 -0.57415724 -0.16847241 2.1208048 1.2272092 1.0674127 -1.0918009 0.83717936
1.0097158 -0.51854277 0.5785505 -1.8829343 1.9563445 0.37584943 -0.8183832 1.5676697
-0.3706183 -1.0926157 0.01382093 0.14599684 0.035039373 0.7586096 -1.7627411 0.3430096
-0.008672416 -0.123394325 -0.79373294 1.2716184 -0.4026799 0.31936422 2.2431114 0.31525582
-1.2482895 0.32493833 -0.34372252 1.2373385 1.7979907 0.6684564 1.002241 1.1052703
1.0936087 -1.02854 -1.1599009 0.3011961 -1.9746271 0.77850837 -0.04807198 -1.0878681
-1.2127358 2.089121 -0.5290128 -0.55806494 -0.09904449 -0.57037866 1.0018156 0.58612883
0.16326356 -0.7324657 0.042944267 1.0543921 0.24652922 0.4762602 -0.9230837 -1.5959022
1.147423 -1.3003366 0.18909174 -0.010624007 0.53294086 -1.9926935 -0.9291766 0.21768738
-0.4812166 -0.541911 1.76401 -1.1489856 -0.30931434 -0.7081641 -1.0097802 -0.72456473
1.4690611 0.11563099 -1.0946548 -1.1082926 -0.0679996 -0.6751668 -1.6744217 -1.780279
-1.4650527 -0.988573 1.3701758 0.8634546 1.751974 -1.071103 0.6568649 -0.06851822
-0.41783068 0.85769755 1.5603968 0.23557802 -1.5320662 0.4435595 -1.0474551 0.9510909
-0.33079657 0.16089408 -0.15766256 0.475726 -1.2637494 -1.2600746 -1.9862292 0.3142303
-0.70586836 0.07091556 -1.2296178 -2.22186 0.9254856 -0.4874137 -2.4951828 -0.98003024
-0.8615322 1.626176 -1.6278466 0.07180093 0.015757132 0.8123111 -1.4473615 -1.3076406
0.2689421 1.8862089 1.5079337 -0.46017954 0.4583035 0.5261105 1.2779523 0.20182893
-2.059666 0.7886307 -0.503991 0.5147906 0.24526878 1.017244 1.6768768 1.2514336
0.8270474 0.5966598 -0.17330728 2.0645545 -0.122511856 -0.51666516 -1.1857991 -1.610422
0.1946221 0.44705376 -0.9237782 -0.77934486 0.1868107 1.1401497 -1.4461839 -0.50195587
1.9636106 0.933032 -0.42786777 0.030294994 1.0893009 -0.034786753 -0.026121655 1.2404557
-0.17256288 -1.0660479 0.42583483 1.8890693 1.2938336 0.026779015 0.30664927 2.1188605
-1.9198687 0.64383435 2.192439 1.7322013 0.42136458 1.3739386 -0.05370683 0.7818383
00000000: faa3 ce3d 3f46 98bd 9ab0 a0bd 4c02 023f
00000010: d436 46c0 186c 2cbf 1967 4fbf 7a02 9e3f
00000020: 0d69 973f 4f65 efbe f41f c0bf 66b3 05bf
00000030: 48a5 9bbd 838b a13e 90fb 25bf 58bf 3bbf
00000040: 2f2b 16bf ebc7 be3e d887 aa3d 7122 7dbf
00000050: bddf a6bf db3a 1b3f e4d1 c33f 97aa d23c
00000060: d9e0 15be 9264 e1bf b45a 0dc0 a509 e0bd
00000070: 133f 463e 6431 0cc0 d459 8b3f 8c1b 91bf
00000080: 3542 833e 0992 023f 8431 f23e 8a29 a53f
00000090: 9f9d d43e 33b0 e33d a30b 1cbf 1d96 95bf
000000a0: 8e39 f63e fef2 8fbf 696c e5bf 359b 983f
000000b0: 4f5a b63e 3ac3 edbf 40db 833f b37a e5bd
000000c0: 7197 b2bd 7815 3fc0 7fc4 923f 76e6 83be
000000d0: 3fd8 d33e cdb3 3cbe 1c82 4d3f 17f8 04c0
000000e0: 0346 4c3f 24d3 b6bf aa6a f03f b784 953f
000000f0: 0dde 653d 61b1 143e e087 443f d586 8cbf
00000100: bbfe 5fbf 352d b83f 7ea8 5dbf 07b9 71bf
00000110: 1321 47bf 4bf8 cfbe f3c2 b33d 67d6 333f
00000120: e493 6dbd f8fb 12bf 0884 2cbe 44bb 0740
00000130: 3115 9d3f fba0 883f 22c0 8bbf 6351 563f
00000140: 5e3e 813f 38bf 04bf e31b 143f fe03 f1bf
00000150: 7f69 fa3f 566f c03e 9081 51bf 67a9 c83f
00000160: afc1 bdbe d5da 8bbf 2f71 623c 3280 153e
00000170: 7285 0f3d 3d34 423f 80a1 e1bf f49e af3e
00000180: c016 0ebc 2ab6 fcbd 1532 4bbf 64c4 a23f
00000190: 0f2c cebe b583 a33e 238f 0f40 3669 a13e
000001a0: f3c7 9fbf 515e a63e 66fc afbe 1c61 9e3f
000001b0: 8f24 e63f f51f 2b3f 6f49 803f 7f79 8d3f
000001c0: 5ffb 8b3f 33a7 83bf a277 94bf 6036 9a3e
000001d0: 95c0 fcbf 534c 473f 20e7 44bd 433f 8bbf
000001e0: ed3a 9bbf 29b4 0540 626d 07bf 58dd 0ebf
000001f0: d6d7 cabd 5604 12bf 7e3b 803f 8a0c 163f
00000200: 902e 273e df82 3bbf 54e6 2f3d 52f6 863f
00000210: 2872 7c3e 60d8 f33e 374f 6cbf 8646 ccbf
00000220: c2de 923f 6e71 a6bf 44a1 413e 5110 2ebc
00000230: d06e 083f 9510 ffbf 85de 6dbf 71e9 5e3e
00000240: 0662 f6be aeba 0abf 14cb e13f f611 93bf
00000250: 735e 9ebe 3e4a 35bf 7a40 81bf 137d 39bf
00000260: 320a bc3f f1cf ec3d a61d 8cbf 88dc 8dbf
00000270: 6043 8bbd bbd7 2cbf 7353 d6bf 2fe0 e3bf
00000280: d986 bbbf 1f13 7dbf ec61 af3f 5c0b 5d3f
00000290: af40 e03f e719 89bf 4c28 283f 4853 8cbd
000002a0: e7ed d5be 1192 5b3f 15bb c73f 5d3b 713e
000002b0: bf1a c4bf 3b1a e33e 0213 86bf b17a 733f
000002c0: 2b5e a9be 6bc1 243e 4b72 21be 5c92 f33e
000002d0: 8ac2 a1bf 204a a1bf c23c febf cbe2 a03e
000002e0: cab3 34bf 2d3c 913d 1e64 9dbf f432 0ec0
000002f0: a0ec 6c3f 4a8e f9be 13b1 1fc0 43e3 7abf
00000300: 608d 5cbf 8926 d03f 475d d0bf 5e0c 933d
00000310: 1a15 813c 9ff3 4f3f 2443 b9bf c460 a7bf
00000320: c7b2 893e 4b6f f13f f903 c13f a79c ebbe
00000330: c2a6 ea3e 2daf 063f f193 a33f 3eac 4e3e
00000340: 91d1 03c0 b4e3 493f 8e05 01bf 51c9 033f
00000350: bd27 7b3e 0d35 823f e6a3 d63f fa2e a03f
00000360: 61b9 533f b2be 183f 7777 31be a921 0440
00000370: 7fe7 fabd 2b44 04bf 44c8 97bf 4f22 cebf
00000380: 044b 473e 3be4 e43e ba7c 6cbf 2583 47bf
00000390: 4e4b 3f3e 6df0 913f 8e1c b9bf 2e80 00bf
000003a0: 9857 fb3f 2fdb 6e3f 7c11 dbbe 352d f83c
000003b0: 366e 8b3f 8e7c 0ebd 15fd d5bc 41c7 9e3f
000003c0: 53b4 30be 4274 88bf 0607 da3e 06cd f13f
000003d0: 579c a53f aa5f db3c 2201 9d3e 699b 0740
000003e0: 42be f5bf 54d2 243f ec50 0c40 c6b8 dd3f
000003f0: 19bd d73e 38dd af3f b1fb 5bbd 8e26 483f
