GIRT/checkpoint/girt2pl-math1-random-split/checkpoint-epoch-5.pt (torch, 19652 bytes, 3 tensors)

proxy_a_raw.weight f4 [20, 1]
0	0x3e914bf9	0.28378275
1	0x3c8ce7c2	0.017200354
2	0x3e7410a8	0.23834479
3	0xbf37a4e9	-0.7173601
4	0x3e1cffcc	0.15331954
5	0xbdc6e652	-0.09711899
6	0x3b42448e	0.0029642913
7	0x3e49ab83	0.19694333
8	0x3e80bb1d	0.25142756
9	0xbe43c235	-0.19117053
10	0xbd357e5a	-0.04430995
11	0xbeb86721	-0.3601618
12	0xbcbff296	-0.023431104
13	0x3d0c8ac0	0.03431201
14	0xbe477e91	-0.19481875
15	0xbe2254d1	-0.15852667
16	0xbeb1b668	-0.34709477
17	0xbe84d3d7	-0.2594287
18	0xbe17ae0c	-0.14812487
19	0xbef1558c	-0.4713558

proxy_b_raw.weight f4 [20, 1]
0	0xbf209134	-0.6272156
1	0xbe9817a8	-0.29705548
2	0xbe56468f	-0.20925353
3	0xbdca70b8	-0.09884781
4	0xbe10410f	-0.14087318
5	0x3e3f3fa7	0.18676625
6	0x3dcc56c1	0.099774845
7	0x3d9bd137	0.07608264
8	0xbf1a643e	-0.6030921
9	0xbf3748ea	-0.71595633
10	0xbe88d0ef	-0.26721904
11	0x3ea51eeb	0.3225015
12	0xbe1fcdb1	-0.15605809
13	0xbf0688b0	-0.5255232
14	0xbe12ac22	-0.14323476
15	0x3ec0db26	0.37667197
16	0x3ebaa698	0.36455226
17	0xbd303ed5	-0.04302867
18	0x3d9a0e3e	0.07522248
19	0xbec484c7	-0.3838255

proxy_theta_raw.weight f4 [4209, 1]
0	0xbd0ba4bd	-0.034092654
1	0x3c767590	0.0150426775
2	0x3c5fafe8	0.013652779
3	0x3c76991e	0.015051154
4	0xbd8e0689	-0.0693484
5	0xbd3cb417	-0.046070185
6	0x3ccb1c46	0.024793755
7	0xbc2b9eda	-0.010474885
8	0xbbb5b122	-0.0055447975
9	0x38837911	6.269117e-05
10	0xbcfbaaf8	-0.030721173
11	0xbcae6313	-0.021287477
12	0xbd91f49c	-0.07126734
13	0xbb3c6927	-0.00287492
14	0xbdb1f342	-0.08688976
15	0xbc951a4c	-0.018201016
16	0x3d84c636	0.06483118
17	0xbd2b3a0f	-0.041803416
18	0xbd051107	-0.03248694
19	0x3d40b2fd	0.047045697
20	0xbcd4b2f1	-0.025964232
21	0xbd26ad43	-0.04069258
22	0xbcd7b59b	-0.026331713
23	0xbda77f6c	-0.08178601
24	0xbd4c7240	-0.049913645
25	0xbdc7fdfe	-0.09765242
26	0xbd32bbd6	-0.043636166
27	0xbdb80876	-0.08985989
28	0xbbbabbac	-0.0056986418
29	0xbcfddfb1	-0.030990453
30	0xbc0122a8	-0.007881798
31	0xbd954280	-0.072880745
32	0xbc5abffe	-0.013351439
33	0xbd4bf679	-0.0497956
34	0x3d09b141	0.033616308
35	0xbb6082d1	-0.003425766
36	0xbd543667	-0.051809695
37	0xbcf6b993	-0.030117786
38	0x3ca7a9e8	0.02046676
39	0xbd2df676	-0.04247137
40	0xbbd3a3d0	-0.006458737
41	0xbd23439f	-0.03985941
42	0x3bff19d8	0.0077850632
43	0x3c720d91	0.014773742
44	0xbd4a48c5	-0.049385805
45	0xbda30e8c	-0.07961759
46	0xbb92c673	-0.0044792234
47	0x3c85b039	0.016319381
48	0xbb794da5	-0.0038040665
49	0x3d593d72	0.053037114
50	0x3b7f6dcd	0.0038975358
51	0xbd86c389	-0.06580264
52	0xbd4eca76	-0.05048605
53	0xbc8afa1a	-0.01696496
54	0xbc4d52c1	-0.012531937
55	0xbd2c8f9f	-0.042129155
56	0x3d13e613	0.036108088
57	0x3902f0ce	0.00012487473
58	0xbdc4a471	-0.09601677
59	0xbc446997	-0.011988065
60	0x3d8b0351	0.06787742
61	0xbd912031	-0.07086218
62	0xbd0626aa	-0.032751717
63	0xbd1af535	-0.037831504
64	0x3cd4a18e	0.025955942
65	0xba6c8822	-0.0009022971
66	0xbb37c0bc	-0.0028038463
67	0xbb3d5eee	-0.0028895694
68	0x3d56efcc	0.052474782
69	0xbc5403f4	-0.012940396
70	0xbc2e4117	-0.010635636
71	0x3c99a148	0.018753663
72	0x3bebbd55	0.007194201
73	0xbce4007f	-0.027832268
74	0xbdbb7fd3	-0.0915524
75	0xbc918529	-0.017763691
76	0xbd09708a	-0.03355459
77	0xbd60f818	-0.0549241
78	0xbd59162a	-0.052999653
79	0x3d3d513d	0.046220053
80	0xbd96aa1f	-0.07356667
81	0xbd92ee98	-0.071744144
82	0x3cfa4b74	0.030553557
83	0x3cdecbaf	0.027196733
84	0xbcddbf17	-0.027068658
85	0xbd32f872	-0.043693967
86	0xbcbad797	-0.02280788
87	0xbbcaa789	-0.0061845225
88	0xbd388124	-0.045045033
89	0xbd2fb708	-0.04289916
90	0x3d27d9e5	0.040979285
91	0xbdc51c24	-0.09624508
92	0xbd7fc7e2	-0.062446482
93	0xbd3d71ab	-0.04625098
94	0xbded2f5b	-0.11581298
95	0xbd025839	-0.031822417
96	0xbc2d788f	-0.010587825
97	0xbc9f6da4	-0.01946146
98	0xbd7e10ff	-0.062027927
99	0xbc157dea	-0.0091242585
100	0xbd8a2a68	-0.067463696
101	0xbca5e0fd	-0.020248884
102	0xbbdcc163	-0.0067369207
103	0xbd260dde	-0.04054057
104	0x3c82e2c9	0.01597728
105	0xbce8919a	-0.02838974
106	0x3bb94e3c	0.005655078
107	0xbb5d70af	-0.0033789088
108	0xbbc71562	-0.006075547
109	0xbc12fb0e	-0.008970989
110	0xbd46af36	-0.048506938
111	0x3caca32b	0.021073898
112	0xbcf9a3c0	-0.03047359
113	0x3c812ef6	0.015769463
114	0x3c9646c0	0.018344283
115	0xbcd4e72c	-0.025989138
116	0xbd80b5ed	-0.062846996
117	0x3d2e21ee	0.042512827
118	0xbcfefd10	-0.031126529
119	0xbb0ec91e	-0.0021787356
120	0xbd8fce94	-0.070218235
121	0xbd28cce8	-0.04121104
122	0x3bf04cb2	0.0073333615
123	0xbd1495ca	-0.036275662
124	0x3c6f48a3	0.01460472
125	0xbce9733b	-0.028497329
126	0xbc7fbd7a	-0.01560914
127	0xbafb7a34	-0.00191862
128	0xbcf0e215	-0.02940468
129	0xbcb19741	-0.021678569
130	0xbd76c138	-0.06024286
131	0xbd6e66cc	-0.058203503
132	0xbd880cc4	-0.0664306
133	0x3c681165	0.014164303
134	0xbd145679	-0.03621528
135	0xbd7be47f	-0.061497208
136	0xbb08acde	-0.002085499
137	0xbcb39616	-0.021922152
138	0x3a844b7d	0.0010093298
139	0xbb48cf54	-0.0030641155
140	0xbbdb5c17	-0.0066943276
141	0xbcac69ee	-0.021046605
142	0xbd51cca6	-0.05122056
143	0xbcad043d	-0.021120185
144	0xbc2b30a8	-0.010448612
145	0xbd842601	-0.06452561
146	0x3c9c39af	0.019070474
147	0xbadcd7e7	-0.0016849012
148	0xbcb0d978	-0.021588072
149	0xbd561f5c	-0.052276
150	0x3d4a1f8b	0.049346488
151	0xbdad81a4	-0.084719926
152	0x3d5641c4	0.052308813
153	0xbd00248b	-0.03128485
154	0xb9c8e052	-0.00038314104
155	0xbdf011cd	-0.11722145
156	0x3db3d8bd	0.08781574
157	0x3d0b269f	0.03397238
158	0xbcd1e905	-0.025623808
159	0xbc9f9dbe	-0.019484397
160	0x3bf75665	0.007548141
161	0xbd51d381	-0.051227096
162	0xbc998e63	-0.018744653
163	0xbd48883b	-0.048958044
164	0x3d4ec5cc	0.050481603
165	0xbcedecfd	-0.029043669
166	0xbd446fe4	-0.04795827
167	0xbb423f04	-0.002963961
168	0xbceb51e9	-0.028725581
169	0xbc54cf2e	-0.012988849
170	0x3d50128c	0.050798938
171	0xbd487f0d	-0.04894929
172	0xba960f6d	-0.0011448689
173	0x3bb57c83	0.0055385246
174	0xbd28eab3	-0.04123945
175	0xbd54ea59	-0.051981304
176	0x39ae31ab	0.00033224872
177	0x3d4ca99d	0.049966443
178	0xbc17c939	-0.009264284
179	0x3d4e34b2	0.050343223
180	0x3cb6bd79	0.022307144
181	0x3c00efd8	0.007869683
182	0xbd2a40ba	-0.041565634
183	0x3d31203d	0.043243635
184	0xbbb0e510	-0.0053984
185	0xbc95fa58	-0.01830785
186	0xbc7f42ef	-0.015579923
187	0xbd000462	-0.03125418
188	0xbd20f590	-0.039296687
189	0xbd168750	-0.036750138
190	0xbd4cce4b	-0.050001424
191	0xbd033e60	-0.032041907
192	0xbd102ac0	-0.03519702
193	0xbb009809	-0.001962187
194	0xbd370b04	-0.04468824
195	0x3bf69776	0.00752538
196	0xbd53ce42	-0.051710375
197	0xbd6acf56	-0.057326637
198	0x3bc4499e	0.005990221
199	0xbcde4cd3	-0.027136242
200	0x3cc2eed1	0.023795517
201	0xbd3b3592	-0.045705386
202	0x39ad8205	0.00033094003
203	0xbccdfffe	-0.02514648
204	0xbbef40f7	-0.0073014456
205	0x3c602218	0.013680004
206	0xbc5b4c26	-0.013384854
207	0x3cf94831	0.030429931
208	0xbcec9d7b	-0.028883686
209	0x3c9533a4	0.0182131
210	0x3ca58371	0.020204278
211	0xbda6aed8	-0.081388175
212	0xbc76ab32	-0.015055465
213	0x3935ec9d	0.0001734965
214	0xbc9f3552	-0.019434605
215	0x3c381056	0.011234364
216	0xbd57a414	-0.05264671
217	0xbceaca28	-0.028660849
218	0xbd085653	-0.03328545
219	0xbd3a8270	-0.04553455
220	0xbd55b9ef	-0.052179273
221	0x3d5cecdc	0.053936824
222	0x3c1d435b	0.009598578
223	0xbd464c2a	-0.04841248
224	0xbc9420ea	-0.0180821
225	0xbd8d6517	-0.06904047
226	0xb9b47c31	-0.00034424805
227	0xbd387d42	-0.04504133
228	0x3b1ac579	0.0023616238
229	0xbaa3f513	-0.0012508951
230	0x3b0bbbf4	0.0021321746
231	0xbc85c9dc	-0.016331606
232	0x3ca7b1a6	0.020470452
233	0xbc23addf	-0.009990185
234	0x3c6c990a	0.014440784
235	0xbc28b561	-0.01029715
236	0xbd7aaba7	-0.061198857
237	0x3dd6a373	0.10480394
238	0xbd62d7be	-0.05538153
239	0xbd5fc128	-0.054627568
240	0x3c6a383d	0.014295635
241	0x3bf4b04b	0.007467305
242	0x3d8baf58	0.068205535
243	0xbca34a4f	-0.019932894
244	0xba91499c	-0.0011084559
245	0x3c4e84d0	0.012604907
246	0xbd1712d7	-0.0368832
247	0xbd840071	-0.06445397
248	0xbd444fc2	-0.047927625
249	0xbc53d408	-0.01292897
250	0xbb28391c	-0.0025668805
251	0xbdad7390	-0.084693074
252	0xbc96126e	-0.018319335
253	0x3c7c8921	0.015413553
254	0xbcac1977	-0.021008236
255	0xbaf98ee4	-0.0019039777
