GIRT/checkpoint/girt2pl-math1-random-split/checkpoint-epoch-6.pt (torch, 19652 bytes, 3 tensors)

proxy_a_raw.weight f4 [20, 1]
0.2701478 0.0057337573 0.2270372 -0.7293297 0.14907452 -0.10853253 -0.006097175 0.18520303
0.23981322 -0.20810042 -0.06497602 -0.37252757 -0.031175274 0.016289327 -0.20600002 -0.17931558
-0.35870075 -0.27947116 -0.1614723 -0.48038253
00000000: d050 8a3e 3ee2 bb3b 717c 683e 5ab5 3abf
00000010: fea6 183e 4e46 debd d0ca c7bb dda5 3d3e
00000020: 9991 753e 4718 55be 2612 85bd efbb bebe
00000030: 4a63 ffbc 3271 853c abf1 52be 819e 37be
00000040: a0a7 b7be d816 8fbe ff58 25be b3f4 f5be

proxy_b_raw.weight f4 [20, 1]
-0.6237661 -0.29415607 -0.20600267 -0.09610856 -0.13748747 0.189748 0.10298308 0.079177275
-0.59943795 -0.71242535 -0.26314297 0.32522094 -0.1525487 -0.52204704 -0.14025266 0.37974292
0.3677952 -0.039332718 0.07839863 -0.38043007
00000000: 23af 1fbf a09b 96be 5df2 52be 91d4 c4bd
00000010: 84c9 0cbe 4d4d 423e cbe8 d23d b227 a23d
00000020: c474 19bf 8261 36bf adba 86be 5c83 a63e
00000030: ba35 1cbe e0a4 05bf 659e 0fbe aa6d c23e
00000040: a74f bc3e 581b 21bd 768f a03d bbc7 c2be

proxy_theta_raw.weight f4 [4209, 1]
-0.04246548 0.016045688 0.014777644 0.012967558 -0.08105062 -0.054071177 0.03259922 -0.018807605
-0.011860843 -0.0025571482 -0.040741567 -0.021166991 -0.08673649 -0.0026458036 -0.09857273 -0.026881706
0.06294769 -0.050753456 -0.042724486 0.056645025 -0.025932807 -0.04640261 -0.02890686 -0.09488494
-0.05562554 -0.11109503 -0.053612236 -0.09778786 -0.005415394 -0.041288618 -0.013575522 -0.084880084
-0.01735149 -0.052961707 0.039492276 -0.0056434395 -0.062233366 -0.034331743 0.020620085 -0.049056526
-0.008597089 -0.04822851 0.013106812 0.009890508 -0.057945315 -0.09378333 -0.006162397 0.018320085
-0.0048022363 0.055007823 0.0047505274 -0.07279518 -0.058126774 -0.020603836 -0.014084355 -0.047881193
0.042759977 0.0006123372 -0.103608645 -0.017723298 0.076443166 -0.07721116 -0.03430064 -0.0440298
0.03093224 -0.0035749918 -0.0013609459 -0.00084642536 0.06188486 -0.013321719 -0.00913331 0.020381128
0.0037078585 -0.029931461 -0.10609041 -0.022698568 -0.041788407 -0.06508412 -0.06540515 0.046452176
-0.080157384 -0.08139695 0.03644204 0.027347025 -0.032056212 -0.052334685 -0.032515742 -0.0056747277
-0.053570095 -0.054015305 0.05174352 -0.10941656 -0.079859115 -0.046101004 -0.13167778 -0.041004777
-0.016844254 -0.025709532 -0.07122013 -0.017769309 -0.073112786 -0.026695289 -0.0008183132 -0.041840434
0.016801609 -0.0380524 0.010322567 -0.005808766 -0.004252148 -0.013072325 -0.054315332 0.027381128
-0.038213696 0.0153815625 0.021929806 -0.033996336 -0.076644674 0.05521536 -0.038643252 -0.0061915005
-0.07909478 -0.04710709 0.010064027 -0.041371547 0.00946815 -0.024037816 -0.016412487 -0.005675754
-0.03163951 -0.025255991 -0.070083804 -0.065218225 -0.07630959 0.009668099 -0.037367195 -0.0664876
-0.01083844 -0.023553766 -0.00404731 -0.0010032876 -0.012479939 -0.02481841 -0.05488383 -0.025887284
-0.0096378075 -0.07132173 0.022463046 0.0023209364 -0.026008843 -0.057698753 0.050535057 -0.09684081
0.053860456 -0.039043732 0.00027737053 -0.1290073 0.09979079 0.04390607 -0.025610099 -0.026922064
0.012995163 -0.059295 -0.01952138 -0.054428574 0.05578949 -0.03931119 -0.053553216 -0.0011265128
-0.031918712 -0.02265026 0.061226353 -0.054149114 -0.00038606106 0.0027310892 -0.048786648 -0.05763659
-0.0047290768 0.06073053 -0.01790906 0.059350602 0.020419082 0.0054271934 -0.05001281 0.045495465
-0.00472443 -0.021177199 -0.01622481 -0.039753743 -0.048253674 -0.043866687 -0.05546943 -0.04157132
-0.03956152 -0.006326143 -0.054334924 0.00637766 -0.05804314 -0.06280089 0.007414717 -0.041441496
0.025822215 -0.052984446 -0.0017798048 -0.03203329 -0.0129424995 0.014799629 -0.018950569 0.033492986
-0.0340878 0.01693522 0.01959638 -0.09578981 -0.015209954 -0.0033497238 -0.020196209 0.008929732
-0.06062508 -0.03460891 -0.033047903 -0.056085423 -0.058290917 0.05660134 0.009377628 -0.062463686
-0.022425195 -0.07881821 -0.0033112476 -0.046578493 0.0066966442 -0.003749701 0.0051229056 -0.018855823
0.01841918 -0.017859941 0.015892737 -0.012139931 -0.06795313 0.11857367 -0.061788354 -0.06453726
0.022283709 0.00418453 0.073212765 -0.027727192 -0.0026818798 0.016396735 -0.044602 -0.073338665
-0.056872915 -0.015829941 -0.004766409 -0.09632655 -0.015892243 0.02157451 -0.021051003 -0.0010796788
00000000: 48f0 2dbd 3f72 833c ee1d 723c e175 543c
00000010: defd a5bd bd79 5dbd c286 053d 6812 9abc
00000020: fb53 42bc d495 27bb a1e0 26bd 6666 adbc
00000030: e7a2 b1bd 3865 2dbb 80e0 c9bd 0637 dcbc
00000040: b8ea 803d dbe2 4fbd dfff 2ebd 9d04 683d
00000050: 0a71 d4bc aa10 3ebd 14ce ecbc 0953 c2bd
00000060: 9bd7 63bd cb85 e3bd 8198 5bbd 0045 c8bd
00000070: 9e73 b1bb 411e 29bd de6b 5ebc 9cd5 adbd
00000080: b624 8ebc 60ee 58bd a7c2 213d 9aec b8bb
00000090: 6ae8 7ebd 719f 0cbd 74eb a83c 7fef 48bd
000000a0: ceda 0cbc 428b 45bd f4bd 563c cc0b 223c
000000b0: 1158 6dbd 7911 c0bd efed c9bb 0114 963c
000000c0: 145c 9dbb e24f 613d 50aa 9b3b a415 95bd
000000d0: 5716 6ebd 60c9 a8bc 11c2 66bc 121f 44bd
000000e0: 1625 2f3d 4185 203a c530 d4bd 7330 91bc
000000f0: 3c8e 9c3d e220 9ebd d47e 0cbd 9758 34bd
00000100: 9c65 fd3c 694a 6abb c461 b2ba a5e2 5dba
00000110: fb7a 7d3d 5743 5abc e1a3 15bc 53f6 a63c
00000120: 8bff 723b d332 f5bc ee45 d9bd 59f2 b9bc
00000130: 522a 2bbd d34a 85bd 23f3 85bd a344 3e3d
00000140: 8e29 a4bd 72b3 a6bd 4044 153d de06 e03c
00000150: 604d 03bd e55c 56bd 3a2f 05bd 11f3 b9bb
00000160: 516c 5bbd 273f 5dbd 03f1 533d ca15 e0bd
00000170: 2d8d a3bd 68d4 3cbd 8ad6 06be a0f4 27bd
00000180: f6fc 89bc cc9c d2bc dcdb 91bd f190 91bc
00000190: 28bc 95bd 14b0 dabc 1284 56ba e060 2bbd
000001a0: 87a3 893c d5dc 1bbd fc1f 293c 7657 bebb
000001b0: 9a55 8bbb 4e2d 56bc c179 5ebd 634e e03c
000001c0: f785 1cbd f302 7c3c 23a6 b33c be3f 0bbd
000001d0: e2f7 9cbd 8029 623d 6348 1ebd 12e2 cabb
000001e0: 72fc a1bd 5df3 40bd 97e3 243c 3675 29bd
000001f0: 4d20 1b3c f4ea c4bc 7b73 86bc adfb b9bb
00000200: 6e98 01bd a7e5 cebc 1988 8fbd 2291 85bd
00000210: 3448 9cbd f266 1e3c 580e 19bd a72a 88bd
00000220: b693 31bc d4f3 c0bc 4c9f 84bb bf80 83ba
00000230: a878 4cbc fa4f cbbc decd 60bd 9211 d4bc
00000240: e5e7 1dbc 2111 92bd 6c04 b83c da1a 183b
00000250: 7f10 d5bc 8755 6cbd d9fd 4e3d 7954 c6bd
00000260: c89c 5c3d 52ec 1fbd 0b6c 9139 7d1a 04be
00000270: 1d5f cc3d dad6 333d 45cc d1bc a98b dcbc
00000280: aae9 543c 50df 72bd 4deb 9fbc 7ff0 5ebd
00000290: 8583 643d c504 21bd 9e5a 5bbd 7fa7 93ba
000002a0: 32bd 02bd 0a8d b9bc 7cc8 7a3d 76cb 5dbd
000002b0: 3d68 cab9 13fc 323b 82d4 47bd 5814 6cbd
000002c0: 5ff6 9abb 94c0 783d 05b6 92bc 9e19 733d
000002d0: eb45 a73c 99d6 b13b 3bda 4cbd 7459 3a3d
000002e0: 64cf 9abb ce7b adbc e5e9 84bc d2d4 22bd
000002f0: a5a5 45bd 8ead 33bd ea33 63bd b046 2abd
00000300: 430b 22bd 894b cfbb 4c8e 5ebd b1fb d03b
00000310: a5be 6dbd c19d 80bd 28f7 f23b 8fbe 29bd
00000320: 1c89 d33c 3806 59bd 5748 e9ba 5735 03bd
00000330: c70c 54bc 257a 723c 393e 9bbc f12f 093d
00000340: a69f 0bbd bbbb 8a3c 9688 a03c 732d c4bd
00000350: 2c33 79bc 0a87 5bbb 8572 a5bc 034e 123c
00000360: 0152 78bd 13c2 0dbd 3d5d 07bd d4b9 65bd
00000370: 75c2 6ebd cfd6 673d 9fa4 193c ecd9 7fbd
00000380: 0bb5 b7bc 716b a1bd 8401 59bb 17c9 3ebd
00000390: 866f db3b 8bbd 75bb 0cde a73b 8777 9abc
000003a0: d2e3 963c 034f 92bc 7c31 823c 90e6 46bc
000003b0: 032b 8bbd c1d6 f23d c915 7dbd 1c2c 84bd
000003c0: 538c b63c 621e 893b 93f0 953d 2324 e3bc
000003d0: 7ac2 2fbb 7252 863c 96b0 36bd 9532 96bd
000003e0: 93f3 68bd cbad 81bc 892f 9cbb db46 c5bd
000003f0: 7330 82bc 07bd b03c 2773 acbc 0284 8dba
