GIRT/checkpoint/girt2pl-math1-random-split/checkpoint-epoch-4.pt (torch, 19652 bytes, 3 tensors)

proxy_a_raw.weight f4 [20, 1]
0	0x3e9850ba	0.2974909
1	0x3ce9875d	0.028506929
2	0x3e7f90b2	0.2495754
3	0xbf3496c5	-0.70542556
4	0x3e215675	0.15755637
5	0xbdaf9e88	-0.08575159
6	0x3c3f7c23	0.011687311
7	0x3e55ed76	0.20891365
8	0x3e86d2eb	0.26332793
9	0xbe321f21	-0.17394687
10	0xbcbfd60b	-0.023417493
11	0xbeb1f603	-0.34758005
12	0xbc7ff2d9	-0.015621864
13	0x3d565fd8	0.052337497
14	0xbe3c14a7	-0.18367253
15	0xbe0d10bc	-0.13775915
16	0xbeabf479	-0.33584955
17	0xbe757be5	-0.23973043
18	0xbe09ad7c	-0.13445085
19	0xbeec939b	-0.46206364

proxy_b_raw.weight f4 [20, 1]
0	0xbf2178a8	-0.6307473
1	0xbe999caa	-0.30002338
2	0xbe59bfb3	-0.21264534
3	0xbdd0560c	-0.10172662
4	0xbe13d2d1	-0.14435889
5	0x3e3c24f9	0.18373479
6	0x3dc5981a	0.09648152
7	0x3d953b43	0.07286694
8	0xbf1b5ac8	-0.60685396
9	0xbf382db0	-0.71944714
10	0xbe8af33f	-0.27138707
11	0x3ea3a562	0.31962115
12	0xbe2381fe	-0.15967557
13	0xbf077329	-0.52910095
14	0xbe15c7ef	-0.1462705
15	0x3ebf3d6d	0.37351552
16	0x3eb8ec2e	0.3611769
17	0xbd3f79b2	-0.046746917
18	0x3d934199	0.07190246
19	0xbec64c57	-0.38730118

proxy_theta_raw.weight f4 [4209, 1]
0	0xbcd1e797	-0.025623126
1	0x3c66d5ed	0.01408909
2	0x3c4d6704	0.012536768
3	0x3c8d0080	0.017212152
4	0xbd6b6f8b	-0.057479423
5	0xbd1b9139	-0.037980292
6	0x3c8c8fa5	0.017158339
7	0xbb061c47	-0.0020463632
8	0x3a7aa4bc	0.00095612905
9	0x3b322b8c	0.00271866
10	0xbca933c0	-0.02065456
11	0xbcae89c0	-0.021305919
12	0xbd63e265	-0.05563583
13	0xbb4639e0	-0.0030246899
14	0xbd99c9d6	-0.075092
15	0xbc1a2eb4	-0.009410549
16	0x3d88c640	0.06678438
17	0xbd05d0c2	-0.03266979
18	0xbcb4bbab	-0.022062143
19	0x3d1a3a19	0.037653062
20	0xbcd47d1b	-0.025938561
21	0xbd0e8c28	-0.034801632
22	0xbcc1ee26	-0.023673128
23	0xbd8c5e29	-0.06853897
24	0xbd3402cc	-0.04394798
25	0xbdac285c	-0.084061354
26	0xbd096691	-0.03354508
27	0xbda79b2d	-0.08183894
28	0xbbc0a13b	-0.005878595
29	0xbca82d49	-0.020529406
30	0xbb0488af	-0.0020223071
31	0xbd78a0d5	-0.060700256
32	0xbc16cc48	-0.009203978
33	0xbd3e9ac5	-0.04653432
34	0x3ce3fdd7	0.027831001
35	0xba86d70e	-0.001028748
36	0xbd29333b	-0.041308623
37	0xbcd3881d	-0.02582174
38	0x3ca69e72	0.020339224
39	0xbd12c2ac	-0.035830185
40	0xbb8af54f	-0.004240669
41	0xbd004cc7	-0.03132322
42	0x3b267229	0.0025397635
43	0x3ca2ffef	0.01989743
44	0xbd26b22b	-0.040697258
45	0xbd85add3	-0.06527295
46	0xbb32c5ec	-0.0027278615
47	0x3c6b12f4	0.0143477805
48	0xbb368304	-0.0027849087
49	0x3d517a74	0.05114217
50	0x3b4f00bb	0.0031586129
51	0xbd707c6f	-0.05871242
52	0xbd2ef431	-0.042713348
53	0xbc584b98	-0.013201617
54	0xbc32a2fe	-0.010903118
55	0xbd149b4f	-0.036280926
56	0x3cf1702a	0.02947243
57	0xb9a9c6d2	-0.00032382325
58	0xbdb4e839	-0.088333555
59	0xbbc61128	-0.0060445257
60	0x3d72ef0b	0.05931
61	0xbd8405bd	-0.06446407
62	0xbcff3392	-0.03115252
63	0xbd015099	-0.031571005
64	0x3cad6624	0.021166869
65	0x3af3f8bf	0.0018613561
66	0xbb88cfa7	-0.0041751447
67	0xbb9b8dda	-0.0047471346
68	0x3d2f8857	0.042854633
69	0xbc4cdd47	-0.0125039285
70	0xbc449c75	-0.012000193
71	0x3c8d4ee4	0.017249532
72	0x3c3184d2	0.0108348895
73	0xbcd1dcfa	-0.025618065
74	0xbd9d784f	-0.07688963
75	0xbc4f781d	-0.012662915
76	0xbcce72a9	-0.025201159
77	0xbd36ccf1	-0.04462904
78	0xbd25e0ef	-0.040497717
79	0x3d3ccb2b	0.046092194
80	0xbd88c57f	-0.066782944
81	0xbd7dcee8	-0.0619649
82	0x3cca3e31	0.024687858
83	0x3cddf806	0.027095806
84	0xbcb41d42	-0.021986607
85	0xbd0ef492	-0.03490121
86	0xbc532735	-0.012887766
87	0xbbdaed90	-0.0066811517
88	0xbd14f9bb	-0.036370974
89	0xbd00dff5	-0.031463582
90	0x3cf83e9b	0.03030329
91	0xbda9ef36	-0.08297579
92	0xbd37ee8b	-0.044905227
93	0xbd3dacbc	-0.04630731
94	0xbdcc4e65	-0.0997589
95	0xbcb84e9d	-0.022498423
96	0xbb89e6fd	-0.004208444
97	0xbc57b5e7	-0.0131659275
98	0xbd57e2d6	-0.052706562
99	0xb9b1b9bb	-0.0003389845
100	0xbd7c55b9	-0.06160519
101	0xbc5f2514	-0.01361968
102	0xbc4dbad8	-0.012556754
103	0xbd2016e8	-0.039084345
104	0x3c7ace63	0.0153079955
105	0xbc98b1e8	-0.01863952
106	0x3a7c740d	0.000963033
107	0xba5db5af	-0.0008457554
108	0xbc0162b7	-0.007897071
109	0xbb9c7233	-0.004774356
110	0xbd2e4b72	-0.04255242
111	0x3c7207ee	0.014772398
112	0xbcb8b4ed	-0.02254721
113	0x3c8531bf	0.016259072
114	0x3c7170da	0.014736379
115	0xbc931ffb	-0.017959585
116	0xbd48584a	-0.048912324
117	0x3cf23912	0.029568229
118	0xbcbeee7c	-0.023307078
119	0x3af9f0af	0.0019068922
120	0xbd7a4ec6	-0.06111028
121	0xbd1049cd	-0.035226632
122	0x3b97a57f	0.004627883
123	0xbcfe866f	-0.031069962
124	0x3ca295dc	0.01984685
125	0xbd0699ca	-0.03286151
126	0xbc71c3e8	-0.01475618
127	0x3b00ea3d	0.0019670867
128	0xbcdd5422	-0.027017657
129	0xbc93956e	-0.01801559
130	0xbd4e628c	-0.05038695
131	0xbd515ff3	-0.051116895
132	0xbd67158e	-0.05641704
133	0x3c9a021c	0.018799834
134	0xbd0f64c1	-0.035008196
135	0xbd6735d2	-0.05644781
136	0x3bde1c52	0.0067782784
137	0xbca61fb0	-0.020278782
138	0x3bcc1a53	0.006228724
139	0xbba551aa	-0.0050451355
140	0xba54ce89	-0.00081179343
141	0xbc8d2256	-0.017228287
142	0xbd428808	-0.04749301
143	0xbc84f2ce	-0.01622906
144	0xbc36cf93	-0.011157888
145	0xbd6bb98c	-0.05755
146	0x3c817d9b	0.015806964
147	0xbbb9e2aa	-0.0056727724
148	0xbc8ba368	-0.017045692
149	0xbd3f6f7d	-0.046737183
150	0x3d45b1d2	0.048265286
151	0xbd9455d4	-0.07242933
152	0x3d4fb433	0.05070896
153	0xbcbf0480	-0.023317575
154	0xba832186	-0.0010004498
155	0xbdd7a7eb	-0.10530075
156	0x3d9bb2a5	0.07602433
157	0x3cc4cac1	0.024022462
158	0xbcd1e17e	-0.025620218
159	0xbc430028	-0.011901893
160	0x3b0f788e	0.0021891925
161	0xbd3030cb	-0.043015283
162	0xbc9322af	-0.017960874
163	0xbd31b66e	-0.04338687
164	0x3d3928a0	0.04520476
165	0xbc98da85	-0.018658886
166	0xbd2d04b0	-0.0422408
167	0xbb9bc996	-0.0047542555
168	0xbcd0211e	-0.025406417
169	0xbb531c13	-0.0032212778
170	0x3d26112b	0.040543716
171	0xbd32ea3e	-0.043680422
172	0xbaf1c459	-0.0018445357
173	0x3c0b7d76	0.008513799
174	0xbd09e344	-0.033664003
175	0xbd3d8605	-0.04627039
176	0x3bb452ee	0.00550305
177	0x3d20ef2b	0.03929059
178	0xb9d867a4	-0.0004127595
179	0x3d2953a2	0.041339524
180	0x3cc734d9	0.024317192
181	0x3c2b8755	0.010469277
182	0xbd06ae9a	-0.032881357
183	0x3d285d00	0.041104317
184	0xbbc538bb	-0.0060187257
185	0xbc7bd1c2	-0.015369834
186	0xbc74fde4	-0.01495311
187	0xbcb9416f	-0.022614209
188	0xbcf746a0	-0.030185044
189	0xbcf12ebb	-0.029441228
190	0xbd35c1df	-0.044374343
191	0xbcb67df3	-0.022276854
192	0xbcfba30b	-0.030717393
193	0x3b209c03	0.0024507053
194	0xbd0f310f	-0.034958895
195	0x3c0ed78a	0.008718381
196	0xbd397a99	-0.045282934
197	0xbd53e4d4	-0.0517319
198	0x3b96ff49	0.004608069
199	0xbc4e519a	-0.0125926975
200	0x3cb1f802	0.021724705
201	0xbd1cd71a	-0.038291074
202	0x3b2880f5	0.002571163
203	0xbc94b391	-0.01815203
204	0xbac03dcf	-0.0014666858
205	0x3c4e7538	0.012601189
206	0xbbfc614e	-0.0077020293
207	0x3ce0ac20	0.027425826
208	0xbcc1d18d	-0.023659492
209	0x3ca040bf	0.019562123
210	0x3cab5476	0.020914298
211	0xbd890ab8	-0.066914976
212	0xbc72c2f4	-0.014816988
213	0x3b792f79	0.003802268
214	0xbc9857a9	-0.018596487
215	0x3c5fd817	0.01366236
216	0xbd367c08	-0.04455188
217	0xbcb8dadc	-0.022565298
218	0xbd08ed86	-0.033429645
219	0xbd0ea260	-0.03482282
220	0xbd3c07f3	-0.04590602
221	0x3d5210ce	0.051285557
222	0x3c22fea5	0.009948407
223	0xbd0c07ce	-0.03418713
224	0xbc5ebfde	-0.013595549
225	0xbd72436c	-0.05914633
226	0x3b389075	0.0028162275
227	0xbd31fb5a	-0.0434526
228	0xbb02be22	-0.0019949754
229	0x3ab3eb3b	0.001372672
230	0xba45d100	-0.0007546097
231	0xbc60f93f	-0.0137313
232	0x3cb8b9c4	0.022549517
233	0xbb08eb7a	-0.0020892308
234	0x3c572101	0.013130427
235	0xbc08c7cd	-0.0083484175
236	0xbd5e504b	-0.054275792
237	0x3dbafeab	0.09130605
238	0xbd47e73f	-0.048804518
239	0xbd36a00c	-0.044586226
240	0x3bd1aabe	0.006398528
241	0x3c31702d	0.010829967
242	0x3d81a30e	0.06329928
243	0xbc45bd07	-0.012068993
244	0x3a19adf7	0.00058624096
245	0x3c11ec29	0.008906403
246	0xbced65ee	-0.028979268
247	0xbd62c18b	-0.05536036
248	0xbd1f720c	-0.038927123
249	0xbc230cdc	-0.009951796
250	0xb98b7148	-0.00026596547
251	0xbd954be3	-0.07289865
252	0xbca90326	-0.020631384
253	0x3c1586db	0.00912639
254	0xbcab56de	-0.020915445
255	0xbb28a3f8	-0.0025732499
