GIRT/checkpoint/girt2pl-math1-random-split/checkpoint-epoch-7.pt (torch, 19652 bytes, 3 tensors)

proxy_a_raw.weight f4 [20, 1]
0.2563785 -0.0056230496 0.215808 -0.7410836 0.14480996 -0.119894914 -0.014842237 0.17331453
0.22804706 -0.22498812 -0.08602968 -0.38473833 -0.0389989 -0.0016610565 -0.21723752 -0.19977722
-0.36987957 -0.29952157 -0.17487067 -0.4895481
00000000: 0b44 833e 8f41 b8bb c6fc 5c3e a8b7 3dbf
00000010: 1049 143e 778b f5bd db2c 73bc 5d79 313e
00000020: 2b85 693e 4963 66be 5430 b0bd 6cfc c4be
00000030: 50bd 1fbd cfb7 d9ba 8373 5ebe 6692 4cbe
00000040: db60 bdbe e45a 99be 4c11 33be 0ca6 fabe

proxy_b_raw.weight f4 [20, 1]
-0.6203753 -0.2912905 -0.20279011 -0.093369 -0.13418682 0.19265376 0.10616028 0.08226164
-0.59589994 -0.7090393 -0.2590888 0.32792765 -0.14912105 -0.5186951 -0.13728021 0.38278568
0.37100524 -0.035706956 0.08155294 -0.37710145
00000000: ead0 1ebf 0724 95be 36a8 4fbe 3f38 bfbd
00000010: 4568 09be 0747 453e 906a d93d ca78 a83d
00000020: e68c 18bf 9983 35bf 4aa7 84be 22e6 a73e
00000030: 30b3 18be 34c9 04bf 2f93 0cbe 7cfc c33e
00000040: 66f4 bd3e 7541 12bd 3a05 a73d 7113 c1be

proxy_theta_raw.weight f4 [4209, 1]
-0.05063843 0.017050704 0.01591575 0.010918373 -0.09273122 -0.061980613 0.040312838 -0.027021335
-0.018160086 -0.0050795986 -0.050723966 -0.021058489 -0.102089934 -0.0023968085 -0.11007243 -0.03553477
0.061096888 -0.059655745 -0.05283083 0.066239335 -0.0259033 -0.05205856 -0.03141608 -0.107894324
-0.061291516 -0.12443646 -0.06339321 -0.105694704 -0.005156062 -0.05147582 -0.019195179 -0.09673144
-0.02131554 -0.056065217 0.045293115 -0.00784041 -0.07250995 -0.03847138 0.020805446 -0.055622734
-0.010714559 -0.056431413 0.018387983 0.0049893884 -0.06633361 -0.10775527 -0.007798137 0.020359034
-0.0057857633 0.056968912 0.005583751 -0.07970466 -0.06573496 -0.024257693 -0.015612887 -0.053604472
0.0493634 0.0011394045 -0.11105188 -0.02338821 0.08494102 -0.08345182 -0.035817143 -0.050132684
0.035806812 -0.006238897 0.000100293095 0.001164188 0.07123626 -0.013697004 -0.007654604 0.021990556
0.00021384694 -0.032026988 -0.120469935 -0.027700463 -0.049909916 -0.075116925 -0.07773213 0.046702582
-0.08671634 -0.090846635 0.04222461 0.027542511 -0.0368973 -0.060905915 -0.042117283 -0.0051462683
-0.061943866 -0.065104395 0.062390372 -0.12244589 -0.09715444 -0.045944154 -0.14733015 -0.050084475
-0.023051249 -0.03188618 -0.08037647 -0.02631035 -0.078720085 -0.033177614 0.005022257 -0.043140735
0.017566787 -0.047504406 0.014966132 -0.008231874 -0.0024200429 -0.017039128 -0.06013321 0.033623837
-0.0458973 0.014979085 0.025523303 -0.041855898 -0.09024939 0.06774367 -0.04615253 -0.010164462
-0.08782316 -0.052882574 0.012779585 -0.046346992 0.004361269 -0.019649422 -0.017173674 -0.009358838
-0.0338646 -0.028773578 -0.079763524 -0.07214167 -0.08613043 0.005214923 -0.038498823 -0.07145123
-0.01936365 -0.025092844 -0.009118368 0.0010389325 -0.01813069 -0.02852037 -0.05851985 -0.030590298
-0.0088078715 -0.078094184 0.025736548 0.0062645082 -0.030374808 -0.06312889 0.05170862 -0.108870566
0.05545757 -0.046707675 0.0009663428 -0.14064074 0.111564726 0.053798106 -0.025548156 -0.034324627
0.018374378 -0.06720867 -0.020246249 -0.059839748 0.06104537 -0.049415205 -0.059084896 0.00070186774
-0.035088032 -0.03225716 0.07149993 -0.05927715 0.00038998126 -8.310567e-05 -0.056247085 -0.06309498
-0.009710659 0.07137742 -0.026476217 0.068210065 0.018539479 0.0030289455 -0.058511294 0.04769605
-0.0040273382 -0.023936678 -0.016811699 -0.048127014 -0.057242222 -0.05091921 -0.060940035 -0.051013675
-0.04392685 -0.01059179 -0.06390506 0.0052746832 -0.064335436 -0.0682427 0.008869528 -0.05556845
0.027834108 -0.060094833 -0.0038949584 -0.038835824 -0.01852752 0.015950607 -0.024463646 0.036524568
-0.039178796 0.015663356 0.019025544 -0.10998261 -0.01534492 -0.0067745997 -0.020968236 0.0066608354
-0.0685273 -0.040490605 -0.032804362 -0.06648405 -0.064259574 0.059257045 0.009146977 -0.076421656
-0.02673752 -0.088453345 -0.0063247 -0.04808734 0.011013845 -0.006213619 0.008061768 -0.021279525
0.016462963 -0.025689928 0.017317213 -0.013896848 -0.074660756 0.13203648 -0.068102375 -0.07442742
0.030168666 0.00091404177 0.0781597 -0.03537819 -0.0042360686 0.020076532 -0.05225397 -0.082068354
-0.06568757 -0.018699097 -0.00691458 -0.1078456 -0.013478962 0.027778707 -0.021053147 -0.0003145502
00000000: 3e6a 4fbd ebad 8b3c bf61 823c fae2 323c
00000010: dee9 bdbd 62df 7dbd 131f 253d d95b ddbc
00000020: 76c4 94bc c372 a6bb efc3 4fbd da82 acbc
00000030: 8714 d1bd c613 1dbb a76d e1bd e88c 11bd
00000040: bb40 7a3d 9559 74bd 2465 58bd 7da8 873d
00000050: 2833 d4bc 5b3b 55bd 26ae 00bd b3f7 dcbd
00000060: d00c 7bbd 8bd8 febd 4dd4 81bd 7776 d8bd
00000070: 2ff4 a8bb 4fd8 52bd 353f 9dbc 221b c6bd
00000080: ed9d aebc a4a4 65bd 4685 393d 1075 00bc
00000090: 1980 94bd 2a94 1dbd 2f70 aa3c aad4 63bd
000000a0: 1e8c 2fbc a024 67bd 65a2 963c 067e a33b
000000b0: ead9 87bd ccae dcbd 8487 ffbb fdc7 a63c
000000c0: 8096 bdbb 3c58 693d e6f7 b63b 323c a3bd
000000d0: 0da0 86bd 12b8 c6bc 32cd 7fbc 5d90 5bbd
000000e0: 4731 4a3d 1258 953a 2b6f e3bd a298 bfbc
000000f0: 8ff5 ad3d cae8 aabd ffb4 12bd ee57 4dbd
00000100: 2aaa 123d a96f ccbb 7254 d238 ab97 983a
00000110: 51e4 913d 6669 60bc 79d3 fabb 8a25 b43c
00000120: 1a3c 6039 bb2e 03bd f1b8 f6bd 15ec e2bc
00000130: 576e 4cbd e7d6 99bd 0632 9fbd 354b 3f3d
00000140: 5698 b1bd cd0d babd b6f3 2c3d d5a0 e13c
00000150: a021 17bd 7b78 79bd 2c83 2cbd 07a2 a8bb
00000160: dab8 7dbd 7455 85bd 0c8d 7f3d e9c4 fabd
00000170: e8f8 c6bd f02f 3cbd b7dd 16be 6125 4dbd
00000180: f9d5 bcbc 159b 02bd 6b9c a4bd ce88 d7bc
00000190: ff37 a1bd 40e5 07bd bf91 a43b 57b4 30bd
000001a0: 39e8 8f3c fb93 42bd 8234 753c fbde 06bc
000001b0: 9599 1ebb a495 8bbc 3e4e 76bd 26b9 093d
000001c0: cffe 3bbd d66a 753c 3f16 d13c 1771 2bbd
000001d0: acd4 b8bd 31bd 8a3d 6f0a 3dbd d888 26bc
000001e0: a1dc b3bd 669b 58bd 7761 513c 58d6 3dbd
000001f0: fae8 8e3b d3f7 a0bc ceaf 8cbc d055 19bc
00000200: 9bb5 0abd 91b6 ebbc 0f5b a3bd 03bf 93bd
00000210: 2765 b0bd f2e1 aa3b f1b0 1dbd 0655 92bd
00000220: 84a0 9ebc 828f cdbc 3565 15bc ca2c 883a
00000230: d086 94bc 8da3 e9bc 83b2 6fbd 8198 fabc
00000240: e44e 10bc d8ef 9fbd 74d5 d23c 8146 cd3b
00000250: 97d4 f8bc b849 81bd 6bcc 533d 88f7 debd
00000260: 7a27 633d 8c50 3fbd 2b52 7d3a 2004 10be
00000270: 0c7c e43d 675b 5c3d 5e4a d1bc fb97 0cbd
00000280: dd85 963c b3a4 89bd 76db a5bc 861a 75bd
00000290: b60a 7a3d 9967 4abd 0103 72bd 8cfd 373a
000002a0: 78b8 0fbd 1520 04bd 8e6e 923d 99cc 72bd
000002b0: 6676 cc39 0449 aeb8 5863 66bd f137 81bd
000002c0: 7519 1fbc 532e 923d a7e4 d8bc b8b1 8b3d
000002d0: 1be0 973c 4681 463b 8aa9 6fbd ef5c 433d
000002e0: c3f7 83bb da16 c4bc b0b8 89bc d520 45bd
000002f0: d276 6abd a990 50bd 429c 79bd b7f3 50bd
00000300: a4ec 33bd 3089 2dbc a8e0 82bd 40d7 ac3b
00000310: 4cc2 83bd d4c2 8bbd 7f51 113c be9b 63bd
00000320: 5b04 e43c 0026 76bd 8f42 7fbb 5012 1fbd
00000330: 07c7 97bc d9aa 823c fc67 c8bc c99a 153d
00000340: f279 20bd 7050 803c 75db 9b3c 903e e1bd
00000350: 4269 7bbc 76fd ddbb 94c5 abbc 2343 da3b
00000360: 0b58 8cbd 7ad9 25bd de5d 06bd ca28 88bd
00000370: 869a 83bd 84b7 723d 34dd 153c f582 9cbd
00000380: a508 dbbc 0727 b5bd 6e3f cfbb 3bf7 44bd
00000390: 6a73 343c 9d9b cbbb 8115 043c 6652 aebc
000003a0: 56dd 863c af73 d2bc d4dc 8d3c 9baf 63bc
000003b0: bde7 98bd 9234 073e 4279 8bbd 676d 98bd
000003c0: 4724 f73c 4e9c 6f3a 3112 a03d b9e8 10bd
000003d0: b8ce 8abb 8a77 a43c 4208 56bd 7413 a8bd
000003e0: 3487 86bd d92e 99bc b393 e2bb 27de dcbd
000003f0: ddd6 5cbc 2c90 e33c a677 acbc 37ea a4b9
