GIRT/checkpoint/girt2pl-math1-random-split/checkpoint-epoch-2.pt (torch, 19652 bytes, 3 tensors)

proxy_a_raw.weight f4 [20, 1]
000000 c3 6d a6 3e d4 0c 53 3d 64 6e 8b 3e 99 71 2e bf
       0.32505617 0.051525906 0.2723266 -0.68142086
000010 5b c9 29 3e a4 6a 80 bd 40 06 f0 3c 11 29 6e 3e
       0.16580717 -0.0627034 0.029299855 0.23257853
000020 da ee 92 3e 4c 63 0f be 21 b9 95 3c 85 68 a5 be
       0.28697854 -0.14002723 0.018276753 -0.32306305
000030 62 65 a0 b9 99 0f b5 3d bc cb 24 be 23 4c c4 bd
       -0.00030593114 0.08840866 -0.16093343 -0.095848344
000040 4f 1a a0 be b6 84 4c be ed c3 da bd 2c 09 e3 be
       -0.31270072 -0.199725 -0.10681901 -0.44342935

proxy_b_raw.weight f4 [20, 1]
000000 8e 57 23 bf 8f c1 9c be c1 d5 60 be f9 94 dc bd
       -0.6380547 -0.30616423 -0.2195654 -0.10770602
000010 bd 14 1b be 95 b8 35 3e 38 b1 b7 3d 03 b6 87 3d
       -0.1514463 0.17746194 0.08969349 0.06626513
000020 f5 49 1d bf bb 04 3a bf 77 4b 8f be 7c a3 a0 3e
       -0.61440974 -0.7266347 -0.27987263 0.3137473
000030 d5 18 2b be 1b 56 09 bf a7 5a 1c be 60 eb bb 3e
       -0.16708691 -0.5364701 -0.15268956 0.36703014
000040 06 66 b5 3e 04 c2 5e bd 27 5c 85 3d c9 f1 c9 be
       0.354294 -0.054384246 0.06511717 -0.3944228

proxy_theta_raw.weight f4 [4209, 1]
000000 95 6c 0e bc a0 d3 4b 3c b3 78 2d 3c 8b 49 b2 3c
       -0.00869288 0.012440592 0.010587859 0.021763584
000010 8c 79 09 bd 64 2d b0 bc f8 e6 01 3b fa 47 74 3c
       -0.03356318 -0.021506019 0.0019821506 0.014909739
000020 64 4b 65 3c 5e 34 07 3c 97 59 c9 b9 d3 bb ad bc
       0.013995025 0.008252231 -0.00038404457 -0.021207726
000030 90 57 c8 bc b5 e4 4c bb 06 5f 53 bd f8 be 09 3c
       -0.024455816 -0.003126425 -0.051604293 0.008407347
000040 ad 3b 91 3d 4b 53 69 bc a7 30 9a ba ad b1 99 3c
       0.070914604 -0.01424105 -0.0011763767 0.01876148
000050 92 21 d2 bc d2 1a bb bc 4e af 94 bc 32 a5 2b bd
       -0.025650773 -0.022839937 -0.018149998 -0.04190559
000060 8a 07 03 bd a5 78 68 bd ef 95 58 bc 4b 84 86 bd
       -0.03198961 -0.05675568 -0.013219341 -0.06568202
000070 a9 f1 c6 bb 6e 54 7d 39 25 2d 20 3c 78 6d 14 bd
       -0.0060712886 0.00024159413 0.009776388 -0.03623721
000080 90 cc 37 ba d4 09 23 bd f6 51 86 3c ec a9 7c 3b
       -0.0007011378 -0.039804295 0.016396504 0.003855343
000090 28 1d a6 bc 95 f8 8a bc b2 b2 a6 3c 91 8d b7 bc
       -0.020277575 -0.016964236 0.02034888 -0.022406371
0000a0 bd 73 df 39 7d 1f 6a bc 9a f6 fc bb 7d 1f f7 3c
       0.00042620106 -0.014289734 -0.007719827 0.030166382
0000b0 20 2a bf bc 0d f3 16 bd 20 a1 7e 3a 77 87 2f 3c
       -0.023335516 -0.036852885 0.00097133406 0.01071345
0000c0 67 50 e1 b9 e8 f1 42 3d 4b 4b f3 3a f2 a7 35 bd
       -0.0004297525 0.04759398 0.0018561868 -0.04434962
0000d0 87 bc dc bc 2a 9d b3 bb 5a a1 f2 bb 2b 68 c7 bc
       -0.026945366 -0.005481382 -0.0074044885 -0.024341663
0000e0 44 dd 87 3c 2e 37 7e ba ab 71 95 bd 35 1b c1 3b
       0.016585 -0.00096975535 -0.07297071 0.005893136
0000f0 83 aa 2d 3d f5 e9 52 bd 0c 20 e3 bc 3a 56 9a bc
       0.04239894 -0.05149265 -0.027725242 -0.018839944
000100 a1 95 3e 3c ef eb f8 3b 54 aa dc bb 93 14 09 bc
       0.011632354 0.007596485 -0.006734172 -0.008366722
000110 01 47 c4 3c 22 c4 3a bc 81 f4 6e bc 56 0e 6c 3c
       0.023959639 -0.011399301 -0.014584661 0.014407715
000120 5c a7 95 3c a9 46 ac bc 00 86 43 bd d7 24 17 bb
       0.01826828 -0.021029787 -0.047735214 -0.002306273
000130 61 e5 09 bc 8e c2 c5 bc 0f ef 7c bc f8 4f 3c 3d
       -0.008416505 -0.024140622 -0.015437855 0.0459747
000140 85 c0 59 bd 6b 42 2e bd 7a ea 58 3c 02 0f de 3c
       -0.053162117 -0.04254381 0.013239497 0.027106766
000150 35 7a 3f bc 07 53 8d bc 9f 45 eb 3b 8b 72 f2 bb
       -0.011686851 -0.017251505 0.0071799303 -0.0073989085
000160 b9 21 9c bc 61 10 10 bc 8b 2e 14 3c 94 52 66 bd
       -0.019059049 -0.008792968 0.0090443 -0.056231096
000170 07 42 24 bc a7 6b 3d bd c5 c2 8a bd c9 70 7e bb
       -0.010025508 -0.046245243 -0.067754306 -0.003882455
000180 d9 60 0e 3c e1 60 56 b9 c3 77 0a bd 7d 94 8f 3c
       0.0086900825 -0.0002044472 -0.03380562 0.01752686
000190 ec 3b 4c bd 21 94 21 b9 a0 bd c4 bc c4 b2 13 bd
       -0.049861833 -0.00015409339 -0.024016201 -0.036059156
0001a0 9c ab 66 3c cf aa 45 3a a6 bb 04 bc 84 cb 8f 3b
       0.014079001 0.0007540406 -0.0081013795 0.0043882746
0001b0 45 99 38 bc 24 0f 78 3b 1c ce f9 bc 3d be 13 3b
       -0.011267011 0.0037850821 -0.030493788 0.002254381
0001c0 af 1a d8 bb 72 b5 8e 3c e4 5b 01 3c 1b 20 d5 ba
       -0.006594978 0.017420504 0.007895444 -0.0016260179
0001d0 0a d3 ab bc 92 ac 88 3b 84 96 fa bb af ab 28 3c
       -0.020974655 0.0041709626 -0.0076473374 0.010294839
0001e0 03 48 30 bd 73 40 bd bc c9 be fc b9 29 74 a8 bc
       -0.043037426 -0.02310202 -0.00048207332 -0.020563202
0001f0 15 12 f9 3c 85 94 29 bd b8 68 52 bc 99 8e 21 3c
       0.03040413 -0.041401405 -0.01284235 0.009860658
000200 cc 4f b5 bc 67 4b 2b bc 1a fe f9 bc ca 79 16 bd
       -0.022132777 -0.010454989 -0.030516673 -0.03673724
000210 b0 24 14 bd dd 4e e6 3c f9 8b 04 bd e2 07 3d bd
       -0.0361678 0.028113777 -0.03236005 -0.046150096
000220 9d 57 c8 3c f4 12 89 bc 55 0d 8a 3c 98 2b 10 bc
       0.02445584 -0.01673267 0.01685206 -0.008799456
000230 62 06 36 3c 69 8c 18 bc 0d 18 23 bd 09 00 ce bb
       0.01110992 -0.00931082 -0.03981786 -0.0062866253
000240 04 0f 4b bc 67 2d 32 bd 35 3a 18 3c 7b 5d 5a bc
       -0.012393717 -0.04350033 0.009291221 -0.013327952
000250 d0 41 fe bb 7b 87 11 bd 10 a6 3d 3d 26 0a 44 bd
       -0.0077593103 -0.035529595 0.046300948 -0.04786124
000260 8a f8 43 3d ed e4 ee bb f7 4f 00 bb 86 b1 a6 bd
       0.047844447 -0.0072904737 -0.0019578913 -0.08139329
000270 d8 d9 56 3d 11 6e 8a 3b 16 9e cf bc 65 80 62 3b
       0.052453846 0.0042245467 -0.025343936 0.0034561392
000280 c5 26 09 bc ec e3 d9 bc 3f e9 83 bc 68 cd 03 bd
       -0.00837106 -0.02659794 -0.016102431 -0.032178313
000290 4e 8b 0e 3d 6e 24 22 3b d0 4d fb bc e8 53 04 bc
       0.03480082 0.0024740952 -0.030676752 -0.008076645
0002a0 c1 02 98 bc ae 4d 88 3c c8 a7 a4 3c 48 f9 06 bd
       -0.018556 0.016638603 0.020099536 -0.032952577
0002b0 4b 18 43 bb 95 65 70 3c a5 64 96 bc 3c 50 0e bd
       -0.0029769118 0.014672657 -0.018358538 -0.034744486
0002c0 54 28 83 3c 94 b7 93 3c ed 24 8d 3c 78 8d c0 3c
       0.01601044 0.018031873 0.017229522 0.023504958
0002d0 16 7d e9 3c a7 05 81 3c 81 5b 7f bc db 35 17 3d
       0.028502028 0.015749766 -0.015585781 0.036916595
0002e0 48 c9 e6 bb 7f de 17 bc 5b fc 5a bc a7 0b af bb
       -0.0070430376 -0.009269356 -0.01336583 -0.0053419652
0002f0 a9 b3 3f bc fd 07 72 bc 65 4b 07 bd fb e9 29 bb
       -0.011700549 -0.014772412 -0.033030886 -0.0025926817
000300 0c 65 b0 bc 61 01 3d 3c 97 de 7b bc 01 09 3a 3c
       -0.021532558 0.011535973 -0.015372894 0.011354686
000310 b9 43 04 bd 57 4d 25 bd a4 5c 09 3b d3 58 85 3c
       -0.032291148 -0.04035696 0.002095976 0.016277706
000320 fc e1 92 3c 20 18 c0 bc 92 8b ed 3b b7 f8 86 bb
       0.017930023 -0.023449004 0.007249304 -0.0041190046
000330 75 65 28 3c c0 8d 2e 3c 5f 3e 7f 3b bb b3 b1 3c
       0.0102780955 0.010653913 0.0038947088 0.021692147
000340 cb b6 54 bc d7 56 b8 3c 34 5a b8 3c f0 e0 1b bd
       -0.012983034 0.022502346 0.02250395 -0.038056314
000350 da bb 67 bc 34 80 39 3c 6a 78 88 bc c1 a0 98 3c
       -0.014143908 0.01132207 -0.01665898 0.018631341
000360 c3 15 e6 bc 17 a1 27 bc e3 7e 09 bd f9 a5 5c bc
       -0.028086549 -0.010231278 -0.033568274 -0.013467305
000370 f4 3b 08 bd 73 bc 3d 3d e1 0d 31 3c aa 53 be bb
       -0.0332603 0.046322297 0.010806532 -0.0058083134
000380 73 ef 91 bb d3 c7 20 bd c2 89 17 3c 12 03 24 bd
       -0.0044535934 -0.039253067 0.009249153 -0.04004199
000390 61 92 2b bc 7e 1b df 3b 8f a0 d4 bb 43 43 08 bc
       -0.010471911 0.0068086972 -0.0064888666 -0.008316818
0003a0 35 48 dc 3c 87 cf 65 3c e8 19 2e 3c 90 a1 8d bb
       0.0268899 0.014026529 0.010626294 -0.0043222383
0003b0 bc 6b 25 bd a4 c6 83 3d c3 ba 11 bd 12 a3 c5 bc
       -0.040385947 0.06434372 -0.0355785 -0.02412561
0003c0 2e e7 15 bc 24 ba 91 3c d6 a7 5b 3d 03 0f 78 3b
       -0.009149356 0.017788954 0.053626858 0.0037850745
0003d0 81 42 87 3b 4f b6 d9 3a e2 56 56 bc 30 c7 17 bd
       0.004127801 0.0016610118 -0.013082238 -0.037055194
0003e0 1b 43 ab bc 05 e4 7b bb 38 cb 94 3b 5b 7f 49 bd
       -0.020906022 -0.003843547 0.004540827 -0.04919372
0003f0 43 45 cd bc cd db 43 bb 03 a8 a7 bc a6 2e 79 bb
       -0.02505744 -0.002988565 -0.020465856 -0.003802219
