GIRT/checkpoint/girt2pl-math1-random-split/checkpoint-epoch-8.pt (torch, 19652 bytes, 3 tensors)

proxy_a_raw.weight f4 [20, 1]
00000000: 00b9 783e b2e1 8abc 20a5 513e d8b8 40bf
00000010: 06fc 0f3e 537d 06be 8a60 c2bc 13b2 253e
00000020: a26e 5d3e f7ce 77be 5a0c dbbd f235 cbbe
00000030: a5f5 3fbd 039c a0bc 0ca7 69be 7792 61be
00000040: 1e22 c3be 139d a3be cec0 40be 084d ffbe
0.24289322 -0.016953323 0.20473146 -0.7528205 0.14060983 -0.13133745 -0.023727674 0.16181211
0.21624234 -0.24200045 -0.10695715 -0.39689595 -0.046865124 -0.019605642 -0.2281763 -0.22028528
-0.38111967 -0.31955776 -0.18823549 -0.49863458

proxy_b_raw.weight f4 [20, 1]
00000000: 4df9 1dbf ebc0 93be dd79 4cbe fade b9bd
00000010: 5632 06be c02c 483e 25b5 df3d 326d ae3d
00000020: baa6 17bf 3aa9 34bf 4299 82be bc3c a93e
00000030: bc3c 15be f9f1 03bf e2a6 09be 4e80 c53e
00000040: 938c bf3e 54af 03bd 8b1a ad3d 8766 bfbe
-0.6170853 -0.28858122 -0.19968362 -0.090757325 -0.13105139 0.19548321 0.109232225 0.08516921
-0.5923878 -0.7057072 -0.2550755 0.3305415 -0.1457395 -0.51541096 -0.13442567 0.3857445
0.37411937 -0.032149628 0.08452328 -0.3738291

proxy_theta_raw.weight f4 [4209, 1]
00000000: 5d91 70bd 1cad 943c a9ef 8c3c 4dc5 123c
00000010: eacc d5bd e4cb 8ebd 71fc 443d 79cf 0fbd
00000020: 2f18 c7bc 7dea f5bb 6a0d 78bd 41be aabc
00000030: 0171 f0bd 0bda 07bb ecca f8bd 5d56 34bd
00000040: 2f0d 733d 462b 8cbd ecda 80bd 4263 9b3d
00000050: 57dc d2bc de3d 6cbd 5d97 0abd 7064 f7bd
00000060: f1f8 88bd 9df5 0cbe e8f9 95bd f759 e8bd
00000070: 3da8 9bbb 6a61 7cbd 1d5b cabc d91a debd
00000080: 7223 cebc 28e5 71bd 1bac 513d 25db 22bc
00000090: 8962 a9bd 2e01 2ebd 97fb ac3c 361b 7ebd
000000a0: d3a9 50bc 8b11 84bd 853e c23c 9df9 7539
000000b0: b6f4 98bd 951c f9bd 93c1 19bc 47e0 b73c
000000c0: f3e0 d9bb 2cb1 713d 8182 d53b 8c27 b1bd
000000d0: 0e10 96bd 0e90 e3bc b957 8bbc 06c2 72bd
000000e0: fb62 653d b925 e53a 6f7c f2bd f34b edbc
000000f0: 3886 bf3d 6f7a b7bd fe6c 18bd a5e3 65bd
00000100: 4725 273d eb2f 10bc 3ee0 db3a 8b23 563b
00000110: 034d a53d c108 65bc 605b c8bb 98ea c13c
00000120: e8cd 4dbb 062b 0bbd 93e9 09be 8750 05bd
00000130: 9e11 6dbd 8f2b aebd 7868 b8bd 088b 403d
00000140: b7c5 bebd fb47 cdbd 1a62 453d f0fd e33c
00000150: 9d14 2bbd 171b 8ebd 4887 53bd 1107 93bb
00000160: d50d 90bd eec8 9bbd 48de 953d 5b95 0abe
00000170: 3625 eabd 8457 3bbd 98e4 26be accb 71bd
00000180: 932b eebc 047b 1bbd 4b20 b7bd 09aa 0ebd
00000190: 6977 acbd 98a1 21bd bd95 333c cfc1 35bd
000001a0: 961c 973c 4212 69bd 3481 a13c c85b 2dbc
000001b0: 0b02 f3b9 9a99 abbc fad0 86bd 750a 243d
000001c0: ced6 5abd 69c7 703c fa42 ef3c 2839 4bbd
000001d0: a5c7 d4bd e0a6 a43d a82f 5bbd e05a 66bc
000001e0: b37e c5bd 99cd 6fbd 182d 7f3c a2c7 51bd
000001f0: a615 0dba e09a 77bc dff6 91bc aaad 53bc
00000200: b07c 13bd ddec 03bd 35ef b6bd d4c3 a1bd
00000210: 473a c4bd efb7 553a 65f4 21bd 5a31 9cbd
00000220: 7968 e3bc 42a5 d9bc 6b81 66bc 4077 4f3b
00000230: 98ce c2bc 32c0 03bd 8c23 7ebd 103e 10bd
00000240: 6644 01bc 578c adbd 5d27 ef3c d43d 283c
00000250: d7dd 0dbd 5afe 8bbd 63f9 583d fb97 f7bd
00000260: 4318 6a3d 0054 5ebd ae84 e23a a6ce 1bbe
00000270: 9ed7 fc3d c49f 823d 75b4 cfbc 165e 2abd
00000280: 9e3b c33c 83b4 99bd 9124 abbc 2974 85bd
00000290: 0419 883d c909 74bd bc1e 84bd b0ee 2b3b
000002a0: 5459 1cbd 9514 2bbd 48aa a73d 27c0 83bd
000002b0: 54c6 a13a 9bfd 35bb 0c47 82bd 3f53 8cbd
000002c0: 2afc 6ebc f845 a83d f018 0fbd 9530 9e3d
000002d0: 3e53 893c 9a55 343a 2df5 88bd f8cc 4c3d
000002e0: 8615 54bb 5d87 dabc f984 8dbc 72c7 66bd
000002f0: 197e 87bd 2afa 6cbd 06bc 87bd ee6c 77bd
00000300: 1e7e 45bd 5344 71bc 6c3b 96bd b6b1 8c3b
00000310: 5285 90bd fdab 96bd 090c 2b3c cf6c 8ebd
00000320: 9d89 f53c 5176 89bd d808 c0bb 7f2d 3abd
00000330: f1a5 c4bc 8b04 8d3c bf97 f4bc dd5c 223d
00000340: 49f9 34bd 4bbe 6d3c 65ce 973c 5440 febd
00000350: a7ea 7bbc 2d43 26bc 9436 b1bc 662a 923b
00000360: 1432 9cbd 7050 3dbd c2f6 04bd 903d 9dbd
00000370: bfd9 8fbd ea19 7e3d e379 133c c4e5 b8bd
00000380: d08b fdbc 17cf c8bd 4fe3 16bc d39b 4abd
00000390: c747 7d3c 6094 0cbc 3aa1 363c edcb c1bc
000003a0: 62e0 6d3c c3c5 08bd 3d3a 9a3c 1177 7fbc
000003b0: f272 a6bd bd22 153e 7f63 98bd 7e85 acbd
000003c0: 12f7 1b3d ad02 12bb b065 aa3d aad7 2fbd
000003d0: 53c4 babb 08c3 c33c 4d91 74bd c00e babd
000003e0: 192f 98bd 3e0f b0bc a7d0 12bc 6f20 f4bd
000003f0: ab70 34bc 985f 0b3d 85b7 abbc 2616 143a
-0.05873238 0.018148951 0.017204123 0.008958173 -0.10439475 -0.06972483 0.04809231 -0.03510997
-0.024303524 -0.00750476 -0.060559668 -0.020842673 -0.11740304 -0.002072933 -0.12148079 -0.044027675
0.059338745 -0.06844191 -0.06291756 0.07587291 -0.025739832 -0.05767619 -0.033835758 -0.12079704
-0.06688107 -0.13765569 -0.073230565 -0.113452844 -0.00475028 -0.06161634 -0.02470165 -0.108449645
-0.025163386 -0.05905643 0.051189523 -0.009939943 -0.08270747 -0.042481594 0.021116061 -0.06203767
-0.012735802 -0.064486586 0.023711452 0.00023458009 -0.0746855 -0.12163655 -0.009384531 0.022445811
-0.0066491305 0.059006855 0.0065158014 -0.08650121 -0.07327281 -0.027778652 -0.017009603 -0.059267066
0.0560026 0.0017482556 -0.1184014 -0.02896688 0.09351772 -0.08958899 -0.037213318 -0.056125302
0.040807035 -0.008800487 0.0016775203 0.0032674994 0.080713294 -0.013979138 -0.0061144084 0.023671433
-0.0031403247 -0.033976577 -0.13468008 -0.0325475 -0.05787813 -0.08504402 -0.09004301 0.04700759
-0.09315055 -0.10023495 0.04818926 0.027831048 -0.041767705 -0.06938761 -0.051642686 -0.0044869264
-0.07033888 -0.07606684 0.073177874 -0.13533537 -0.11432879 -0.04573776 -0.16298139 -0.059032127
-0.029073512 -0.037959114 -0.08941706 -0.034830127 -0.08421213 -0.03946075 0.010960993 -0.044374283
0.018446248 -0.056902178 0.01971493 -0.010580964 -0.00046350094 -0.020947266 -0.06582828 0.040049035
-0.05342751 0.014695981 0.029206742 -0.049615055 -0.10389642 0.080396414 -0.053512245 -0.014059752
-0.096433066 -0.058545683 0.015574716 -0.051215775 -0.0005381949 -0.015112609 -0.017817913 -0.012919823
-0.036007583 -0.032208312 -0.08932344 -0.078986794 -0.09581428 0.00081527134 -0.039539713 -0.076266006
-0.027759777 -0.026568059 -0.014068942 0.0031656772 -0.023780152 -0.032165714 -0.06204562 -0.035215437
-0.007889843 -0.08474033 0.029193575 0.010268647 -0.03463539 -0.06835623 0.05297221 -0.12089535
0.057152044 -0.054279327 0.0017281973 -0.15215549 0.12345813 0.06378129 -0.025354603 -0.041593634
0.023832139 -0.07505133 -0.02089146 -0.065162964 0.06645396 -0.059579644 -0.064511746 0.0026234798
-0.038171127 -0.041767675 0.081867754 -0.064331345 0.0012342432 -0.002776957 -0.06361207 -0.068518154
-0.014586488 0.082164705 -0.03493589 0.0772411 0.016763326 0.00068792107 -0.066873886 0.05000016
-0.0032361462 -0.026675874 -0.01727532 -0.05634255 -0.06615848 -0.057855763 -0.066276595 -0.060406618
-0.048215978 -0.014725762 -0.073355526 0.0042936457 -0.07056679 -0.07357023 0.010439881 -0.06954347
0.029972846 -0.0671202 -0.0058604293 -0.045453545 -0.024004908 0.01721408 -0.029857514 0.039639343
-0.04418305 0.014510701 0.018531034 -0.12414613 -0.01537577 -0.010147852 -0.02163247 0.0044606207
-0.07626739 -0.04621929 -0.03246189 -0.07677758 -0.07023954 0.062036432 0.009001228 -0.09028199
-0.030950457 -0.09805124 -0.009209468 -0.04946501 0.015459008 -0.008580297 0.011146838 -0.02365681
0.014518829 -0.033391725 0.018826598 -0.0155923525 -0.08127393 0.14564033 -0.074408524 -0.08423899
0.03807742 -0.0022279427 0.083201766 -0.042930283 -0.005699673 0.02389671 -0.059708882 -0.090848446
-0.07430858 -0.021491643 -0.008960879 -0.11920249 -0.01101319 0.034026712 -0.020961532 0.00056490523
