GIRT/checkpoint/girt2pl-math1-random-split/model_state.pt (torch, 19589 bytes, 3 tensors)

proxy_a_raw.weight f4 [20, 1]
00000000: edf9 5c3e 4ec8 21bd 97ee 3a3e 53b6 46bf
00000010: a328 073e 94c7 1dbe 6ab4 29bd b1a3 0d3e
00000020: f5c4 453e 7481 8dbe 3619 18be 91b1 d7be
00000030: cf06 80bd a71c 62bd 1034 80be 93f0 85be
00000040: 86bd cebe 4535 b8be 24c3 5bbe d641 04bf
0.21579714 -0.039497666 0.18255077 -0.77621955 0.13199095 -0.15408164 -0.041431822 0.13831975
0.19313414 -0.27637827 -0.14853367 -0.4212766 -0.06251299 -0.055203106 -0.2503972 -0.26160106
-0.4037897 -0.3597814 -0.21461159 -0.5166296

proxy_b_raw.weight f4 [20, 1]
00000000: 5254 1cbf 140d 91be 9b39 46be c669 afbd
00000010: ab74 ffbd 56c5 4d3e e3f9 eb3d 3f44 ba3d
00000020: b7e9 15bf 64fb 32bf c539 7dbe 24c7 ab3e
00000030: 0e69 0ebe 744c 02bf 2ce6 03be ab76 c83e
00000040: 23b6 c23e 2a70 cdbc 6633 b93d 2e28 bcbe
-0.6106616 -0.2833029 -0.19357912 -0.085650966 -0.124734245 0.20094809 0.115222715 0.09095048
-0.58559746 -0.6991484 -0.24729069 0.3355037 -0.13907263 -0.5089791 -0.12880772 0.39153036
0.38029584 -0.025077898 0.090430066 -0.36749405

proxy_theta_raw.weight f4 [4209, 1]
00000000: 234d 99bd fa9a a73c 8626 a23c f544 a93b
00000010: 2260 02be d986 aebd 2929 823d f8ce 51bd
00000020: cc75 15bd b10f 49bc 9ec1 a3bd ff24 a6bc
00000030: 1d92 17be a5ba a4ba c9a2 13be 68e6 78bd
00000040: 374f 653d 1cd3 afbd c373 a9bd 1fb4 c23d
00000050: b7da cfbc 3cc8 8cbd 4bf6 1dbd 94fa 15be
00000060: 8f81 9fbd 2ce6 27be 0562 bdbd 2ecb 03be
00000070: f6fa 7cbb a839 a7bd 396d 12bd 41ef 06be
00000080: e951 06bd fff9 84bd a457 813d 3445 65bc
00000090: a2c6 d2bd 0e69 4ebd 8165 b23c 111e 99bd
000000a0: 85d9 87bc 96b3 a4bd 647e 0d3d 32ae 17bc
000000b0: a6ca babd e8c2 18be c0fc 4abc c844 db3c
000000c0: b1f1 07bc d46f 813d 266e 0b3c 0add ccbd
000000d0: fa87 b4bd 1324 0ebd b548 a1bc 4558 90bd
000000e0: 7b69 8e3d 3770 4a3b 441d 08be c934 24bd
000000f0: 18ed e23d 346c d0bd 0699 23bd 1111 8bbd
00000100: 6e54 503d e8fe 61bc fad2 9e3b 3209 f63b
00000110: c0a2 cc3d b8e5 6cbc d836 3bbb 20de de3c
00000120: 0774 1fbc bdb3 1abd 12e6 26be c496 2cbd
00000130: 6837 97bd 874d d6bd 5e22 eabd e193 433d
00000140: 5adc d8bd 05f4 f2bd b7a7 763d 4f2e e93c
00000150: 93c0 51bd 882a b0bd 4ec5 90bd 2ccb 4cbb
00000160: b9f5 b1bd 28ac c8bd 6419 c23d 9023 25be
00000170: a5ea 17be 6ef3 38bd f5c8 46be 004f 9dbd
00000180: 7391 28bd 00bc 4cbd 33f2 dbbd 01c3 53bd
00000190: 4480 c2bd 4ff4 54bd bddc bb3c a603 3fbd
000001a0: 6091 a63c ae53 9abd aed5 ef3c d3b4 76bc
000001b0: e7da 673b abb8 eabc 58e5 9dbd 345e 583d
000001c0: b852 8cbd 2e49 693c e403 163d 8184 85bd
000001d0: 9cf8 05be 30ed d83d 8b94 8bbd 715e b1bc
000001e0: a971 e8bd bfe4 8ebd ac4d ae3c 3d27 79bd
000001f0: 3b7c 28bc eefd c5bb be2e 9cbc 498d a3bc
00000200: 94a2 24bd 2f53 1fbd 168f ddbd cc08 bdbd
00000210: de88 ebbd 42ea ffbb 6fc9 29bd 45e2 afbd
00000220: 2958 36bd f7ed f0bc 2376 c3bc e4dd f83b
00000230: 50a2 0ebd a0c6 20bd 9b46 8dbd d951 35bd
00000240: 9d2b c3bb 467d c8bd e209 143d ee83 973c
00000250: 6530 30bd 7a3c a1bd 0bee 633d b5e2 13be
00000260: 0b8f 783d fcf4 8dbd e89d 5d3b 6516 33be
00000270: e7b7 163e 5083 ab3d dc84 ccbc c1c0 65bd
00000280: 95cb 0e3d 9b4f b9bd c0ea b4bc 41b9 9abd
00000290: 6c38 9e3d 0a32 a3bd dd49 9abd 356d d63b
000002a0: 91a2 34bd b719 78bd 43e9 d13d ccef 97bd
000002b0: 3af7 473b daae 03bc a401 a0bd c718 a2bd
000002c0: c17f c6bc eb80 d43d bc9d 53bd 3e75 c33d
000002d0: 7458 5a3c f48b 7cbb f2e3 aabd 0139 603d
000002e0: c4df cbba 3f21 03bd 26da 94bc c3f0 94bd
000002f0: cd75 abbd 0afd 92bd 2e52 9dbd d91d a2bd
00000300: e5c2 67bd e492 bcbc 3ea0 bcbd aa8e 1a3b
00000310: 13ab a9bd ce68 acbd 2f4d 5f3c 9a5e c7bd
00000320: 20b3 0c3d 4fe6 a5bd 0e14 1fbc 1065 70bd
00000330: d19a 0ebd be4f a23c 23da 25bd d75a 3c3d
00000340: dae0 5dbd ae67 493c 4185 903c bbd6 1bbe
00000350: dbc0 7abc fef7 89bc cd46 bbbc ba9a 5539
00000360: f7a4 bbbd ef5d 6cbd 46cd 01bd ff94 c7bd
00000370: eecb a7bd 20be 8a3d 2b18 113c 5940 f1bd
00000380: 63e8 20bd d9f2 efbd 8c55 73bc 8081 55bd
00000390: dac2 c73c 93da 58bc fdba 8d3c a325 e7bc
000003a0: 8b2e 313c 7147 47bd 67aa b33c a891 9abc
000003b0: bc21 c1bd 98c4 303e 9064 b1bd 0629 d4bd
000003c0: fcbb 5d3d 0db8 09bc 0322 bf3d bcb0 6cbd
000003d0: d484 0abc ca50 013d 47d9 98bd b0c3 ddbd
000003e0: 9d60 bbbd 0d9a dcbc 1c62 54bc 4a22 11be
000003f0: 74a1 c2bb 953c 3f3d 4336 a9bc 21ab 203b
-0.07485416 0.02045964 0.01979376 0.005165691 -0.12731984 -0.08521814 0.06355507 -0.05122277
-0.036489293 -0.0122718075 -0.07995914 -0.020281313 -0.14801832 -0.0012567831 -0.14417566 -0.060766608
0.05598375 -0.08585188 -0.08274033 0.095070116 -0.025372846 -0.06874129 -0.03856496 -0.14646369
-0.07788383 -0.16396397 -0.09247211 -0.12870476 -0.0038601733 -0.08165294 -0.035748694 -0.13177206
-0.03279296 -0.064929955 0.06315544 -0.01399355 -0.102917925 -0.050393157 0.021776916 -0.07476438
-0.016583214 -0.08042066 0.034544364 -0.00925784 -0.09120683 -0.14918101 -0.012389362 0.026766196
-0.00829737 0.06320158 0.008510148 -0.10003097 -0.08814998 -0.03470237 -0.01968799 -0.07048086
0.069537126 0.003088964 -0.13292414 -0.040089402 0.11080378 -0.10176888 -0.039940856 -0.067903645
0.05086177 -0.013793685 0.0048469277 0.0075084204 0.099919796 -0.014459066 -0.0028566625 0.027205527
-0.009732253 -0.037769068 -0.16298702 -0.04213597 -0.07383615 -0.10464006 -0.11432336 0.04774845
-0.10588904 -0.11862949 0.06021854 0.028464464 -0.051209044 -0.08601862 -0.07068883 -0.003124903
-0.08689446 -0.09798461 0.09477499 -0.16126847 -0.14835604 -0.045154028 -0.19412597 -0.07681084
-0.041154336 -0.04998398 -0.10739555 -0.051699642 -0.09497121 -0.051990803 0.022932405 -0.04663434
0.020332992 -0.07535492 0.029276695 -0.01505776 0.0035378279 -0.02865251 -0.077097595 0.052824214
-0.06851715 0.014238639 0.036624804 -0.06519414 -0.13083118 0.10592115 -0.06815442 -0.021651478
-0.11349804 -0.069772236 0.021277271 -0.060828436 -0.010283525 -0.0060422337 -0.019065257 -0.019964831
-0.04019411 -0.03889769 -0.10818307 -0.092301935 -0.11500715 -0.007809908 -0.041451868 -0.08588079
-0.04451767 -0.029410345 -0.023860043 0.007594811 -0.034822762 -0.039251924 -0.068982325 -0.04426751
-0.005956127 -0.09789519 0.036142237 0.018495526 -0.043014903 -0.07872863 0.055646937 -0.1444195
0.06068329 -0.06931493 0.0033816043 -0.17489012 0.1471859 0.08374655 -0.024965696 -0.056092028
0.03486212 -0.09048387 -0.022084594 -0.07554866 0.07725605 -0.079685286 -0.075336196 0.00654378
-0.044100348 -0.0605714 0.10249569 -0.074187845 0.0030512349 -0.008037293 -0.07812813 -0.07914882
-0.02423084 0.10376152 -0.0516641 0.095438465 0.013326753 -0.0038535567 -0.08344258 0.054741863
-0.0015554358 -0.032014128 -0.018170428 -0.07272484 -0.08372078 -0.071771696 -0.0768169 -0.07915849
-0.05658235 -0.023019262 -0.09210251 0.002358357 -0.08284583 -0.084184274 0.013629242 -0.09734841
0.034350514 -0.081005685 -0.009709371 -0.05869013 -0.034815613 0.019813415 -0.040491235 0.04598507
-0.054169513 0.012292786 0.017641665 -0.15218632 -0.015304769 -0.016841885 -0.022860909 0.00020370903
-0.09162324 -0.05770677 -0.031689905 -0.097452156 -0.081931934 0.06774545 0.00885586 -0.117798515
-0.03928412 -0.117162414 -0.014851939 -0.052125454 0.024384905 -0.013235706 0.017301077 -0.028216189
0.010814319 -0.048652116 0.02193184 -0.018868282 -0.094302624 0.17262495 -0.08661759 -0.10359387
0.054134354 -0.0084056975 0.09332659 -0.057785735 -0.00845452 0.031571187 -0.07463317 -0.1082834
-0.09149287 -0.026928926 -0.012962844 -0.14173236 -0.005939657 0.046688635 -0.020655757 0.0024516063
