GIRT/diagnosis/irt2pl-a0910-random-split-theta/theta.npy (npy, 16780 bytes, 1 tensors)

array f4 [4163, 1]
00000000: db93 74bf f3da 133f fcff 493f 3246 263f
00000010: 58b5 0d40 29a2 d73f 199f b83f 9662 babf
00000020: f1ce c7bf a794 393e 66c6 efbf 323e b33e
00000030: 69d0 2a3f bcd0 323f 4a8c c8be 6777 713e
00000040: c194 41bf 860d 11be ed68 03bf f035 923c
00000050: 8d5c 6cbf 570a bbbe d308 c53e b4d2 14be
00000060: e924 95bf ff65 903e 1aa9 993e 6dea 48bf
00000070: 827e 353f 8090 2e3d 7c27 dcbf a6b4 0f40
00000080: 7cb3 1fbf 1094 953e 0f18 b3bf 9d1d 1fbf
00000090: aac3 94bf 3feb 583e 398e 073f c64b 743d
000000a0: 26f8 f73f 3927 403f fedd 40bb 25dc 763e
000000b0: b8d0 5abf 2d71 113f b407 bd3d e86a 66bf
000000c0: e42c c8be ab5b 34bf 08c6 b9be 8c9b b6bb
000000d0: b506 e8be 80c6 1f40 1c7b 1fbf 7b23 103f
000000e0: fc4f 78bd 604f 0a3f e491 8cbf ba49 f3be
000000f0: 699d 173f 1a4e 883f 89b2 823f 67da 5a3f
00000100: 8b70 af3d 8d90 1c3f 866f 133f f311 043f
00000110: a13d 50be 0d42 5c3e 9760 983f 30ab 25c0
00000120: c1f2 2d3f 63f9 a63f ae67 cf3e 8d8a 893e
00000130: 0d93 bc3e fd4e be3f 8441 aebe 1476 10bd
00000140: 8c06 dd3f 1bbb 53bc 240c af3a a3ae c03e
00000150: 26c0 c5bf f629 6c3e 1632 20bf 401b 84be
00000160: c7a1 d83e b934 a83f 4854 a3bf 2140 c63f
00000170: 5577 4b3f 788e b13f 2a53 803e e752 fb3e
00000180: dddf a9be 796a 43bf fda0 ae3e 397f aabf
00000190: 60d6 1f3f c231 42bf 4032 a13e bc8d 85bf
000001a0: 816e 113e 3b09 1a3e c869 013f 6af1 3e3f
000001b0: 83ce bcbe c414 4f3e 7aed fe3e 2126 5abf
000001c0: 9e46 a43f da26 40bf 0c31 d5bc a2e0 1c40
000001d0: bcdc 0cbf 022a 763e f5ea 1f3e 6bab cc3f
000001e0: 80cc 3f3c 3616 db3f b60e 173f 9379 f53e
000001f0: ea76 623f cdb2 293f 875a 94bf f2a4 3abf
00000200: 5309 54bf 9974 9abe d218 a5bf 5a45 0e40
00000210: 9cba 443f c366 c73f ecb9 c73d d0b3 3abf
00000220: cfcc 123f 1bb9 9c3e c520 10be 3aa7 da3f
00000230: 453a 0f3f 5120 edbf f70f 12bf 4089 8e3f
00000240: 0105 dbbe 0351 f33b 5a28 84bf 7b09 79bd
00000250: 2415 29bf a8c3 163d 9779 6dbe 0d6c adbe
00000260: fa19 ee3d 2084 08bf a9f8 24bc bb02 f03e
00000270: 11c5 33bf 94b7 a33f 1a19 703f 0298 2d3f
00000280: bd1d f13f d371 613f db8e 643f 8ec2 2abf
00000290: 0d82 343f 215d 8c3f 5a95 253f ba8e bcbf
000002a0: 052b 9c3f bd78 4d3d bc70 843f 38fb 3f3f
000002b0: ab5a 3abf 93db d7be b9a1 d4be 5428 af3f
000002c0: fc90 833f 70ec f7be 6358 0f3f 718a 02bf
000002d0: 8e5e 4cbe 1719 d3be 96c3 c8be 5626 323f
000002e0: ca40 ecbf 85dc d5bf 7d0c 87be 4368 fa3f
000002f0: 4347 06c0 a0e8 793f 56c5 cebf 7f0d b3bf
00000300: cc94 993e 4080 12bd a3e9 213d 2168 de3e
00000310: c5a1 0fbf 8c86 273f a785 ecbd c78f 533f
00000320: d6cd a6bd 882c 84bf 119c 763f 8329 5d40
00000330: aaae 35bd 8b2e 05be 8678 2c3d 0870 b6bf
00000340: d2b5 95be 9c58 9f3e 9b84 443f b033 c03e
00000350: 174a 25bf fe57 c3be 1c77 083f 0274 5dbf
00000360: f08b 6fbf 7dad 1c3e b207 1cc0 8cfb cf3f
00000370: b27e 52bf 4d18 83bf b1be 8e3f 1915 813f
00000380: d996 cbbf c160 ec3e e87a 48bf 88d5 5c3f
00000390: 65e1 18bf 797e 89bf fac8 a5be e20a f73f
000003a0: 20e1 4d3e 1637 7ebe c906 57bd f135 a93e
000003b0: becf 293f c14e 13bf ae68 cf3f 037d 5dbf
000003c0: 13bb 85be 4698 023f 1912 8bbe 64ad f8be
000003d0: 7511 3c3f cb66 abbf 25af 0c3e 80e6 363f
000003e0: 9cae 943e e496 e33e daf7 a63f e709 1e3f
000003f0: 1bd4 143e 76b0 89bf 0e4d 4a3e d9b2 3dbf
-0.9553811 0.57755965 0.78906226 0.6495086 2.2141933 1.6846362 1.4423553 -1.4561336
-1.5610029 0.18123113 -1.8732421 0.3500839 0.6672426 0.69849753 -0.39169532 0.23580705
-0.75617605 -0.14165315 -0.5133198 0.017847985 -0.9232872 -0.36531326 0.38483295 -0.14533502
-1.1651889 0.28202817 0.30011827 -0.78482705 0.7089616 0.042618275 -1.719955 2.245401
-0.62383246 0.29214525 -1.3991717 -0.6215456 -1.1622212 0.2118349 0.5295139 0.059642576
1.9372604 0.7505985 -0.0029429193 0.24107416 -0.8547473 0.5681332 0.09229985 -0.90006876
-0.3909675 -0.70452374 -0.36283898 -0.005572742 -0.45317617 2.4964905 -0.62297225 0.5630414
-0.060623154 0.54027367 -1.0982022 -0.47517186 0.59224564 1.0648835 1.0210735 0.85489506
0.08566388 0.61158067 0.57592046 0.5158989 -0.2033601 0.21509571 1.1904477 -2.5885735
0.6794854 1.3044857 0.4050879 0.26863518 0.3683094 1.4867855 -0.3403436 -0.035268858
1.7267623 -0.012923027 0.0013355059 0.37633237 -1.5449264 0.23062882 -0.62576425 -0.2580204
0.42310926 1.314109 -1.2760096 1.548832 0.7947896 1.3871603 0.2506345 0.49086687
-0.33178607 -0.7633434 0.341072 -1.3320075 0.62436485 -0.75857174 0.3148365 -1.0433879
0.1420231 0.15042584 0.50552034 0.7458712 -0.36876306 0.20222765 0.49790555 -0.8521443
1.2834051 -0.7505928 -0.026024364 2.4512105 -0.55024314 0.24039462 0.15616973 1.5989813
0.011706471 1.7116153 0.5900682 0.47944316 0.884627 0.66288453 -1.1590127 -0.72907937
-0.8282673 -0.30167082 -1.28982 2.222983 0.76847243 1.5578235 0.09752259 -0.7293062
0.57343763 0.30609974 -0.14075 1.7082283 0.5594829 -1.8525487 -0.5705561 1.1135635
-0.42777255 0.007425429 -1.0324814 -0.060800057 -0.66047883 0.036807686 -0.23190914 -0.338715
0.116260484 -0.53326607 -0.010069051 0.46877083 -0.70222574 1.2790399 0.937883 0.6781007
1.88372 0.88064307 0.8928048 -0.66703117 0.7051094 1.0965921 0.6468102 -1.4731057
1.2200629 0.050163973 1.0346904 0.74992704 -0.727946 -0.4215971 -0.41529635 1.3684182
1.0278621 -0.48422575 0.5599424 -0.50992495 -0.19957945 -0.4123008 -0.3921172 0.69589746
-1.8457272 -1.6707922 -0.26376715 1.9563068 -2.0980995 0.9762058 -1.6153972 -1.3988494
0.29996336 -0.03576684 0.039529454 0.4343882 -0.56106216 0.6543968 -0.1154893 0.8264126
-0.08144729 -1.032609 0.9633189 3.4556587 -0.044356026 -0.13006036 0.042107128 -1.4252939
-0.2924028 0.3112229 0.7676484 0.37539434 -0.6456618 -0.3815307 0.53306746 -0.8650514
-0.935729 0.15300556 -2.4379697 1.6248641 -0.8222457 -1.0241791 1.1151944 1.0084563
-1.590541 0.46167567 -0.7831254 0.8626332 -0.59718925 -1.0741721 -0.32379895 1.9300196
0.2010541 -0.24825701 -0.052496705 0.33048967 0.66332614 -0.57542044 1.6203821 -0.8651888
-0.2611929 0.510136 -0.27162245 -0.48569787 0.7346414 -1.3390745 0.13738687 0.71445465
0.29039466 0.44451058 1.3044388 0.6173386 0.14534037 -1.0756977 0.19755957 -0.74101025
