GIRT/checkpoint/girt2pl-assist0910-user-split/checkpoint-epoch-17.pt (torch, 153997 bytes, 3 tensors)

proxy_a_raw.weight f4 [17671, 1]
-0.25027943 0.0751114 -0.45411578 0.8323406 -0.1901438 0.18728071 0.11557112 -0.29831105
0.3676216 0.23839709 0.3897272 0.23141752 0.1441156 0.58541125 0.18658623 0.4390057
0.11103564 0.930727 -0.07314217 0.07277032 0.2491989 -0.24864694 -0.17278415 0.033206746
-0.16871311 -0.15613009 0.21061948 0.303815 0.26158398 0.20630558 0.31564972 0.42459476
0.07629674 0.2516972 0.19554928 -0.008593244 0.08840598 0.18756172 0.34391353 -0.28895652
0.37640887 0.24407321 0.2996242 -0.17226239 0.482479 0.2370445 0.20085132 0.114843704
0.24774054 0.19497737 0.36252046 0.15345606 0.3486747 0.18469502 0.26125896 -0.20081103
0.19833894 0.17262298 -0.25872856 0.21215108 0.695905 0.18752342 0.16517943 0.3453804
-0.23205632 0.25458437 0.27202106 0.5471274 -0.15221153 0.3373046 0.3463461 0.3703307
0.40567648 0.32170552 0.28819215 0.36741057 0.14625445 0.19979145 0.10888501 -0.22453746
0.69628525 0.42886883 0.2959706 0.30480725 0.24246573 0.25095427 0.82167673 0.20001538
0.6486246 0.7305962 -0.16415113 0.4382489 0.2727317 -0.37203354 0.33431342 0.223228
0.25669053 0.40238446 0.18095234 0.33203712 0.37455675 0.16212858 0.30195296 0.2653699
0.27202353 0.2952555 0.36829096 -0.060074344 0.69550735 0.45026395 0.5048901 0.037714574
0.27184206 -0.1679048 -0.025997939 0.56054425 0.08603943 -0.08676992 -0.084797986 0.22002031
0.28759348 0.2849036 0.127561 0.22730088 0.1812956 0.2820151 0.09295993 0.14442384
0.60192585 -0.20850207 -0.21996632 0.45095038 0.63031477 0.18246865 0.13932475 -0.0018555468
0.28024858 0.4574519 0.17504938 0.036256723 0.0116923535 -0.3825424 -0.188814 0.06352496
0.2930952 0.15776868 0.24545999 0.28976095 0.2096297 0.27471995 -0.16063298 -0.13760178
0.059086602 0.17505226 -0.21911894 0.34492317 0.38546836 0.13631421 0.17917958 0.1592753
0.33574915 0.24317703 0.66351455 0.25676814 -0.39373964 0.41276273 0.30976838 0.24271813
0.6981109 0.18691665 0.27889463 0.49683574 -0.2701242 0.24761762 -0.21207449 0.25406528
0.21262549 -0.038133226 0.5624145 -0.04608536 0.1953646 0.14696918 0.21748205 0.21158603
0.2577498 0.2562435 0.5278016 0.20277563 0.19636208 0.20514624 0.23764016 0.045761727
0.3853222 0.1566618 0.24198598 0.23345198 0.3638668 0.3394038 -0.07602027 -0.3513443
-0.29892948 -0.34241864 -0.16148333 0.14188564 0.14569663 0.27240798 0.20076919 0.34185797
-0.18744107 0.22211549 0.07008566 0.59809726 -0.025016164 0.46858546 -0.19905184 0.42541617
0.00045034479 0.34925935 0.22327322 0.3352327 0.3913024 0.6501058 0.49506775 -0.24055728
-0.14856017 0.23680699 0.16041777 0.71548444 0.2669473 0.35275742 0.5375907 0.6194559
0.41175878 0.20427328 0.22373337 -0.20762783 0.31655544 0.14219402 0.41951886 0.21287343
-0.12614217 0.2178279 -0.2608729 0.2987322 0.2474049 -0.13085724 0.13716334 0.78080946
0.40147027 0.2834401 0.19538896 -0.27853215 0.87767506 0.09290727 0.29302722 0.4171712
00000000: a024 80be 01d4 993d dd81 e8be 4614 553f
00000010: 0eb5 42be 84c6 3f3e 8db0 ec3d 3abc 98be
00000020: e638 bc3e 5e1e 743e 538a c73e b7f8 6c3e
00000030: 0a93 133e 83dd 153f 7610 3f3e 5bc5 e03e
00000040: a766 e33d 2044 6e3f 90cb 95bd 9b08 953d
00000050: ff2d 7f3e 4e9d 7ebe 54ee 30be cc03 083d
00000060: 21c3 2cbe 91e0 1fbe a2ac 573e a48d 9b3e
00000070: 56ee 853e c541 533e d79c a13e 7c64 d93e
00000080: 7741 9c3d 75de 803e 123e 483e adca 0cbc
00000090: 320e b53d 2e10 403e 6f15 b03e 1cf2 93be
000000a0: aab8 c03e 54ee 793e 5868 993e 8d65 30be
000000b0: 7d07 f73e cbbb 723e f8ab 4d3e 2d33 eb3d
000000c0: b2af 7d3e 26a8 473e 489c b93e 9623 1d3e
000000d0: 7e85 b23e b120 3d3e bcc3 853e 68a1 4dbe
000000e0: 5d19 4b3e 14c4 303e 1278 84be 223e 593e
000000f0: d526 323f 2406 403e cc24 293e b3d5 b03e
00000100: 2ca0 6dbe e258 823e 5846 8b3e 8b10 0c3f
00000110: 57dd 1bbe 30b3 ac3e 4754 b13e fc9b bd3e
00000120: d4b4 cf3e 96b6 a43e ec8d 933e 3d1d bc3e
00000130: bac3 153e 2196 4c3e 1bff de3d 26ed 65be
00000140: c03f 323f b294 db3e 7589 973e b20f 9c3e
00000150: f048 783e 147d 803e 6859 523f d5d0 4c3e
00000160: 430c 263f 5a08 3b3f 3c17 28be 2962 e03e
00000170: 7da3 8b3e 2e7b bebe 212b ab3e e195 643e
00000180: f16c 833e 5605 ce3e 924b 393e c500 aa3e
00000190: e7c5 bf3e 0905 263e 9499 9a3e 90de 873e
000001a0: ab46 8b3e bb2b 973e a290 bc3e 8410 76bd
000001b0: c50c 323f ff88 e63e 7a40 013f 997a 1a3d
000001c0: e22e 8b3e 3cef 2bbe a1f9 d4bc d47f 0f3f
000001d0: 7135 b03d 6eb4 b1bd 91aa adbd 014d 613e
000001e0: 743f 933e e2de 913e 5a9f 023e 90c1 683e
000001f0: 8ea5 393e 4864 903e c761 be3d d8e3 133e
00000200: d017 1a3f 9181 55be da3e 61be f8e2 e63e
00000210: 4f5c 213f 10d9 3a3e 26ab 0e3e d235 f3ba
00000220: be7c 8f3e 2337 ea3e 2540 333e ee81 143d
00000230: 4991 3f3c 99dc c3be 7558 41be 6019 823d
00000240: 9310 963e 1d8e 213e dd59 7b3e 8c5b 943e
00000250: 2ba9 563e 18a8 8c3e f97c 24be 7be7 0cbe
00000260: cb04 723d e640 333e b760 60be c599 b03e
00000270: 1c5c c53e f495 0b3e da7a 373e 1019 233e
00000280: 50e7 ab3e 6603 793e 17dc 293f 1d77 833e
00000290: 3e98 c9be a355 d33e f699 9e3e 1a8b 783e
000002a0: 65b7 323f 1467 3f3e 47cb 8e3e 4161 fe3e
000002b0: b84d 8abe 798f 7d3e 0e2a 59be d814 823e
000002c0: 7fba 593e 9631 1cbd 66fa 0f3f 01c4 3cbd
000002d0: a80d 483e 177f 163e 9db3 5e3e 02aa 583e
000002e0: c8f7 833e 5932 833e 011e 073f 6aa4 4f3e
000002f0: 2413 493e db11 523e f157 733e a670 3b3d
00000300: f448 c53e f36b 203e 2ccb 773e 090e 6f3e
00000310: c04c ba3e 56c6 ad3e 84b0 9bbd 66e3 b3be
00000320: 490d 99be 7f51 afbe e35b 25be 784a 113e
00000330: 7f31 153e 0f79 8b3e 7096 4d3e 0208 af3e
00000340: 8df0 3fbe 3e72 633e 1289 8f3d e71c 193f
00000350: b3ee ccbc 6fea ef3e 3fd4 4bbe 26d0 d93e
00000360: 411c ec39 1fd2 b23e bca1 643e 9fa3 ab3e
00000370: ca58 c83e 556d 263f 8579 fd3e a654 76be
00000380: 2820 18be 887d 723e 8e44 243e fd29 373f
00000390: 51ad 883e 9f9c b43e 8b9f 093f a994 1e3f
000003a0: 0cd2 d23e 042d 513e 5c1a 653e 649c 54be
000003b0: 8e13 a23e 4f9b 113e 2dcb d63e 7efb 593e
000003c0: 6a2b 01be 470e 5f3e 2291 85be 6df3 983e
000003d0: b657 7d3e 71ff 05be 8c74 0c3e 21e3 473f
000003e0: 838d cd3e 101f 913e 0b14 483e c49b 8ebe
000003f0: 50af 603f 2b46 be3d aa07 963e 7797 d53e

proxy_b_raw.weight f4 [17671, 1]
-0.32982197 -0.32888883 -0.2633984 -0.31983262 -0.30546278 -0.24615881 -0.19688685 -0.10894141
-0.2709583 -0.26694623 -0.3171159 -0.24296543 -0.23507501 -0.5253718 -0.17564233 -0.44713026
-0.24101272 -0.7749987 -0.27682927 -0.3142552 -0.35940748 -0.0465828 -0.36695752 -0.32307947
-0.39448038 -0.1498894 -0.3224067 -0.20344798 -0.32243755 -0.33149344 -0.29319957 -0.2926851
-0.18704754 -0.32184985 -0.12263027 -0.33918378 -0.09047023 -0.28327563 -0.20958999 -0.24476741
-0.25857016 -0.28629562 -0.36168116 -0.12603866 -0.1865115 -0.23217687 -0.22561496 -0.29489934
-0.1386788 -0.14399494 -0.2566578 -0.20670468 -0.26035678 -0.18245128 -0.40544704 -0.3967398
-0.20487371 -0.21472684 -0.24743141 -0.23207556 -0.58204705 -0.21186848 -0.26133937 -0.27861774
-0.23392464 -0.29642746 -0.34423178 -0.32001042 -0.09913674 -0.2670326 -0.35743883 -0.32731166
-0.23190324 -0.37121773 -0.25094795 -0.2930224 -0.2166958 -0.21681324 -0.36688024 -0.27610347
-0.59056276 -0.3901997 -0.19815493 -0.27461123 -0.3145424 -0.2323791 -0.7034721 -0.29648346
-0.5144823 -0.64389586 -0.17562161 -0.4482859 -0.18852882 -0.36936954 -0.27234402 -0.33813685
-0.3389877 -0.30624694 -0.29732865 -0.51508534 -0.16647473 -0.11804498 -0.37724227 -0.33687118
-0.20819403 -0.276121 -0.32897243 -0.24518906 -0.61777097 -0.33699226 -0.46787292 -0.33699557
-0.17179841 -0.255841 -0.22529337 -0.5140528 -0.26843095 -0.23537962 -0.32221588 -0.27546865
-0.26712427 -0.14322886 -0.2693582 -0.30915403 -0.3091505 -0.40668297 -0.07511432 -0.28232366
-0.56137913 -0.23217778 -0.27568933 -0.40679163 -0.54726356 -0.0984 -0.22025 -0.27938485
-0.26167288 -0.31686056 -0.18213494 -0.21168359 -0.32686865 -0.2512966 -0.41497624 -0.23258923
-0.43240577 -0.22025087 -0.22159354 -0.30023515 -0.22317438 -0.27215502 -0.26408267 -0.2476023
-0.1513608 -0.16348538 -0.33646712 -0.37257457 -0.30718005 -0.40720874 -0.14124963 -0.23208322
-0.25652704 -0.25931004 -0.62597114 -0.2406142 -0.3368693 -0.2009183 -0.2583311 -0.24640647
-0.5840942 -0.22880387 -0.12193333 -0.40893367 -0.2468182 -0.22680724 -0.32511473 -0.39011234
-0.17701764 -0.20302497 -0.37363353 -0.31058213 -0.22249562 -0.13932386 -0.112225704 -0.30917865
-0.26779747 -0.30760834 -0.23540415 -0.26951286 -0.18747315 -0.27561602 -0.34750813 -0.16543102
-0.32624254 -0.20575437 -0.30674157 -0.29659888 -0.26651677 -0.32908615 -0.3691789 -0.22111079
-0.3533862 -0.26283506 -0.25335875 -0.31635323 -0.22019982 -0.2829696 -0.14378825 -0.3273457
-0.2748304 -0.27104583 -0.30117273 -0.4254016 -0.25088966 -0.4127781 -0.26001313 -0.41271242
-0.22103755 -0.37514728 -0.21097863 -0.37228468 -0.3844616 -0.5810451 -0.44045505 -0.09051051
-0.27969003 -0.30552515 -0.0060077035 -0.65415037 -0.29189035 -0.3724994 -0.4860336 -0.31006092
-0.30540475 -0.21803199 -0.32482025 -0.2278324 -0.16328023 -0.24159022 -0.33051968 -0.20986246
-0.33626297 -0.3057907 -0.40541238 -0.23098274 -0.27032804 -0.14607649 -0.36739707 -0.66759986
-0.2566092 -0.42996898 -0.27467358 -0.031168586 -0.72599727 -0.22251001 -0.25015986 -0.30983698
00000000: 6dde a8be 1e64 a8be 28dc 86be 1ac1 a3be
00000010: 9e65 9cbe 0e11 7cbe b59c 49be ad1c dfbd
00000020: 0cbb 8abe 2dad 88be 045d a2be eecb 78be
00000030: 81b7 70be c47e 06bf 95db 33be 42ee e4be
00000040: 0acc 76be 5166 46bf 91bc 8dbe 0fe6 a0be
00000050: 4204 b8be 9bcd 3ebd dbe1 bbbe ac6a a5be
00000060: 55f9 c9be 9b7c 19be 7e12 a5be ab54 50be
00000070: 8916 a5be 82b9 a9be 411e 96be d2da 95be
00000080: 6489 3fbe 81c9 a4be 9425 fbbd 7fa9 adbe
00000090: 7548 b9bd 8109 91be c29e 56be 4fa4 7abe
000000a0: 4f63 84be 5795 92be 462e b9be 4710 01be
000000b0: dffc 3ebe c6bf 6dbe 9c07 67be 0cfd 96be
000000c0: d101 0ebe 6973 13be a768 83be 64aa 53be
000000d0: 7c4d 85be 82d4 3abe c196 cfbe 7b21 cbbe
000000e0: 6aca 51be 5ae1 5bbe a95e 7dbe 37a5 6dbe
000000f0: 0901 15bf 0df4 58be 46ce 85be fca6 8ebe
00000100: f189 6fbe 57c5 97be 263f b0be 68d8 a3be
00000110: 3408 cbbd 7fb8 88be 3902 b7be 6595 a7be
00000120: 0b78 6dbe 4010 bebe 407c 80be 0807 96be
00000130: 81e5 5dbe 4a04 5ebe bad7 bbbe 6f5d 8dbe
00000140: 1f2f 17bf 41c8 c7be 20e9 4abe d899 8cbe
00000150: b40b a1be c9f4 6dbe bf16 34bf aecc 97be
00000160: 1db5 03bf 5cd6 24bf 27d6 33be bb85 e5be
00000170: b30d 41be 011e bdbe ad70 8bbe 4620 adbe
00000180: cc8f adbe 66cc 9cbe 763b 98be a2dc 03bf
00000190: 5a78 2abe 91c1 f1bd e625 c1be 617a acbe
000001a0: d130 55be bb5f 8dbe 136f a8be d712 7bbe
000001b0: 3d26 1ebf 408a acbe 0a8d efbe af8a acbe
000001c0: eceb 2fbe 97fd 82be 4eb3 66be f798 03bf
000001d0: c86f 89be 5b07 71be 7bf9 a4be 3a0a 8dbe
000001e0: 83c4 88be 96aa 12be 51e9 89be 7049 9ebe
000001f0: f948 9ebe c038 d0be 89d5 99bd ba8c 90be
00000200: 8bb6 0fbf 03c0 6dbe 2727 8dbe fe46 d0be
00000210: 7719 0cbf f085 c9bd 3789 61be 880b 8fbe
00000220: fdf9 85be 8c3b a2be 9581 3abe 95c3 58be
00000230: 545b a7be f3a9 80be c477 d4be df2b 6ebe
00000240: 4a64 ddbe 7289 61be 6be9 62be 6cb8 99be
00000250: d387 64be e757 8bbe d835 87be 758b 7dbe
00000260: 53fe 1abe b668 27be 6b45 acbe 18c2 bebe
00000270: b446 9dbe aa7d d0be bea3 10be 39a7 6dbe
00000280: 8357 83be 49c4 84be a53f 20bf 9263 76be
00000290: 227a acbe 87bd 4dbe f943 84be fa51 7cbe
000002a0: 3387 15bf 904b 6abe 2fb8 f9bd c15f d1be
000002b0: e9bd 7cbe 2840 68be 7075 a6be cebc c7be
000002c0: 1d44 35be c7e5 4fbe e54c bfbe 9f04 9fbe
000002d0: e4d5 63be eaaa 0ebe 97d6 e5bd aa4c 9ebe
000002e0: c01c 89be d77e 9dbe c90d 71be 97fd 89be
000002f0: f6f8 3fbe 8b1d 8dbe 96ec b1be c066 29be
00000300: 4309 a7be 46b1 52be 3b0d 9dbe cfdb 97be
00000310: e374 88be fb7d a8be 0405 bdbe de6a 62be
00000320: 09ef b4be 5192 86be 3db8 81be 0df9 a1be
00000330: 107c 61be 64e1 90be 3a3d 13be db99 a7be
00000340: 92b6 8cbe 85c6 8abe 5033 9abe 3dce d9be
00000350: 9c74 80be a757 d3be 7120 85be 0b4f d3be
00000360: ab57 62be 4e13 c0be c80a 58be 199c bebe
00000370: 27d8 c4be 5fbf 14bf 5383 e1be 935d b9bd
00000380: 8833 8fbe cb6d 9cbe 45dc c4bb 6676 27bf
00000390: a772 95be 3eb8 bebe 65d9 f8be 4ec0 9ebe
000003a0: 035e 9cbe c743 5fbe d74e a6be e64c 69be
000003b0: ef32 27be 6d63 77be e039 a9be 2fe6 56be
000003c0: a92a acbe 9990 9cbe 3692 cfbe bd86 6cbe
000003d0: 7068 8abe 1395 15be 781b bcbe d3e7 2abf
000003e0: 4862 83be e524 dcbe 04a2 8cbe 4355 ffbc
000003f0: f5da 39bf aad9 63be f414 80be f4a2 9ebe

proxy_theta_raw.weight f4 [2493, 1]
2.1379654 1.3173056 1.5003428 1.7029985 1.2383983 2.0629401 2.3063688 2.0655873
2.2729106 2.2284808 0.99248683 1.1778727 1.7641867 0.71179414 0.60981315 0.7668891
0.5119217 0.7275953 0.6185105 0.894895 0.91270155 0.8751519 0.7218211 0.95185477
1.1866025 1.3666526 1.7741901 1.8309119 1.239565 1.1270899 1.0790163 1.9819868
2.0072215 2.5878804 1.9181033 2.0659523 1.6555297 1.9282684 1.9557917 1.74388
1.7905129 2.0149784 1.7591156 1.906081 1.8376977 2.0133605 1.9896988 1.8367554
1.7850916 1.7944334 2.1736515 1.6361699 1.7941692 1.9379255 2.0290382 2.1466615
2.1514251 1.9733421 1.8199558 1.9956815 1.9616456 1.2575251 2.0254574 1.9170576
1.9879256 2.0349836 2.0056388 1.8185596 2.0374491 1.966268 1.4661856 1.9598674
2.117263 1.8968982 1.9493985 2.1125376 2.0144129 1.9206928 1.7312939 1.7818873
1.8166127 2.0009797 1.9194995 1.8921295 1.9637004 1.8229617 2.003883 2.013252
1.8616265 1.9718432 1.8917733 1.7093521 1.6455511 1.7889746 1.8334022 1.9853584
1.526961 1.0555626 1.034675 1.1351068 1.6369156 1.2710932 0.99200577 0.85075593
0.90796715 1.1579616 1.3260753 1.1424328 1.2032176 1.1683301 1.2397953 1.4233451
1.1562445 1.173525 1.228543 1.2232144 1.4091117 1.1516595 0.92853045 1.5294898
1.3316432 1.3682781 1.33436 1.277006 1.0764774 0.81306815 0.99400187 0.6354166
0.47383782 0.65483767 0.664092 0.92993796 1.0139729 1.0982705 1.1534569 0.84891915
0.8481495 0.61447465 1.3180773 1.2258389 0.79510766 0.664586 2.3043542 0.716196
0.72955847 0.81943625 0.8729743 0.59725606 0.80337197 1.4772918 1.1659454 0.5131968
0.79803383 1.3433315 0.6409163 0.6685948 1.1444445 1.3742388 0.6582871 0.9885844
1.0659666 0.77911323 0.69485164 0.74806875 0.7536968 0.7405817 0.7930136 0.7090329
0.833798 0.9572854 0.9875589 1.3495752 0.9997628 0.8532905 1.1619855 0.86473936
0.6351519 0.8035918 1.0271348 0.9590856 0.97045296 1.225287 1.1479676 0.894446
1.1621691 1.093969 1.0021544 1.1670818 0.9508523 0.67024297 0.81390595 0.80275625
1.3283522 0.66919637 1.0556804 0.71782935 0.75910205 0.6989784 1.4511198 0.62987477
0.6021058 0.5288445 0.72464824 0.6886938 0.41548282 0.40213138 0.36164704 0.28631955
0.4106086 0.6507575 0.94016266 0.6250903 0.6653187 0.7555803 0.783647 0.7066463
0.69362086 1.7126442 1.6555297 1.9282684 1.9557917 1.7905129 2.0149784 1.906081
1.6530356 1.8376977 1.6454844 1.960871 2.0133605 1.9896988 1.7850916 1.7944334
1.7409917 1.8337586 1.596547 1.5417974 1.793989 2.094116 1.6947666 1.553356
1.7173135 1.7413207 1.7027198 1.8338783 1.6644272 1.9381866 1.7176301 1.7069595
1.9459435 1.8422576 1.6007322 1.7363669 1.587517 1.8771499 1.7323587 1.9194995
00000000: 6dd4 0840 789d a83f 3c0b c03f dbfb d93f
00000010: d683 9e3f 3607 0440 8c9b 1340 9532 0440
00000020: 5e77 1140 6e9f 0e40 9e13 7e3f 88c4 963f
00000030: dfd0 e13f 2438 363f b71c 1c3f d852 443f
00000040: 4d0d 033f b043 3a3f b456 1e3f d717 653f
00000050: cfa6 693f f409 603f 45c9 383f c1ac 733f
00000060: 97e2 973f 79ee ae3f a918 e33f 525b ea3f
00000070: 11aa 9e3f 7b44 903f 351d 8a3f beb1 fd3f
00000080: 5176 0040 d59f 2540 6984 f53f 9038 0440
00000090: 66e8 d33f 80d1 f63f 6257 fa3f 7637 df3f
000000a0: 872f e53f 68f5 0040 b32a e13f 76fa f33f
000000b0: ae39 eb3f e6da 0040 73ae fe3f cd1a eb3f
000000c0: e27d e43f feaf e53f 1b1d 0b40 046e d13f
000000d0: 56a7 e53f f10d f83f c3db 0140 e762 0940
000000e0: f3b0 0940 7996 fc3f 50f4 e83f 7e72 ff3f
000000f0: 3417 fb3f 95f6 a03f 18a1 0140 2562 f53f
00000100: 5974 fe3f 2c3d 0240 635c 0040 90c6 e83f
00000110: 9165 0240 abae fb3f f8ab bb3f efdc fa3f
00000120: 3d81 0740 8fcd f23f e485 f93f d133 0740
00000130: 24ec 0040 43d9 f53f 0a9b dd3f e214 e43f
00000140: c486 e83f 0d10 0040 29b2 f53f 4d31 f23f
00000150: 895a fb3f cf56 e93f 9e3f 0040 1fd9 0040
00000160: c749 ee3f 5c65 fc3f a125 f23f 0dcc da3f
00000170: 6ba1 d23f 1ffd e43f ecac ea3f 3920 fe3f
00000180: 7573 c33f ad1c 873f 3b70 843f 2e4b 913f
00000190: 7386 d13f 2fb3 a23f 17f4 7d3f 24cb 593f
000001a0: 8970 683f 1638 943f d6bc a93f 3d3b 923f
000001b0: 0903 9a3f d78b 953f 9db1 9e3f 2c30 b63f
000001c0: d2ff 933f 1136 963f e640 9d3f 4a92 9c3f
000001d0: c65d b43f 9469 933f 2cb4 6d3f 52c6 c33f
000001e0: 4973 aa3f bd23 af3f 4fcc aa3f ef74 a33f
000001f0: 03ca 893f 3c25 503f e876 7e3f aaaa 223f
00000200: df9a f23e 71a3 273f ef01 2a3f 6a10 6e3f
00000210: ddc9 813f 2194 8c3f 7aa4 933f c452 593f
00000220: 5320 593f 364e 1d3f c2b6 a83f 4ae8 9c3f
00000230: 2d8c 4b3f 4f22 2a3f 8a7a 1340 9f58 373f
00000240: 58c4 3a3f 93c6 513f 3e7b 5f3f c6e5 183f
00000250: c9a9 4d3f e617 bd3f b33d 953f de60 033f
00000260: f24b 4c3f 49f2 ab3f 1713 243f 0729 2b3f
00000270: 287d 923f 0fe7 af3f 8185 283f de13 7d3f
00000280: 9871 883f f773 473f cce1 313f 6f81 3f3f
00000290: 46f2 403f c396 3d3f f002 4b3f 2e83 353f
000002a0: c973 553f a810 753f a9d0 7c3f e1be ac3f
000002b0: 74f0 7f3f 3f71 5a3f f1bb 943f 8f5f 5d3f
000002c0: 5199 223f 31b8 4d3f 2779 833f a286 753f
000002d0: 9b6f 783f 34d6 9c3f 9af0 923f 6afa 643f
000002e0: f5c1 943f 2d07 8c3f 9846 803f f062 953f
000002f0: 0e6b 733f 0b95 2b3f 245c 503f 6f81 4d3f
00000300: 7207 aa3f 7450 2b3f 8920 873f aac3 373f
00000310: 8354 423f 40f0 323f 4bbe b93f 793f 213f
00000320: 9b23 1a3f 5a62 073f 8c82 393f 3d4e 303f
00000330: 2aba d43e 2ae4 cd3e cd29 b93e 7a98 923e
00000340: 4a3b d23e 0b98 263f 80ae 703f eb05 203f
00000350: 5452 2a3f b66d 413f 179d 483f c6e6 343f
00000360: 2391 313f ed37 db3f 66e8 d33f 80d1 f63f
00000370: 6257 fa3f 872f e53f 68f5 0040 76fa f33f
00000380: ac96 d33f ae39 eb3f 3c9f d23f d2fd fa3f
00000390: e6da 0040 73ae fe3f e27d e43f feaf e53f
000003a0: d1d8 de3f 9ab8 ea3f a75b cc3f 9e59 c53f
000003b0: 6ea1 e53f ff05 0640 1dee d83f 5fd4 c63f
000003c0: eed0 db3f 99e3 de3f b9f2 d93f 86bc ea3f
000003d0: f30b d53f 8016 f83f 4edb db3f a67d da3f
000003e0: ad14 f93f 19cf eb3f cbe4 cc3f 4541 de3f
000003f0: c233 cb3f 7346 f03f eebd dd3f 29b2 f53f
