GIRT/checkpoint/girt2pl-assist0910-user-split/checkpoint-epoch-5.pt (torch, 153924 bytes, 3 tensors)

proxy_a_raw.weight f4 [17671, 1]
00000000: f62a 0fbe 54d4 a23c 142b 43be 98c6 873e
00000010: 89c4 e4bd 6694 da3d 32cb e63d b686 88bd
00000020: a066 573e fe0f 823e 2013 c53e 50ab c43d
00000030: 8a51 e93d ff7e fc3e 4706 e1bc 6f7b 8e3e
00000040: ca54 893d 8d2a 1d3f dae8 23bd d37d 753d
00000050: 971f ef3d 2da9 fcbd 3182 d9bd 6577 a33d
00000060: 763d acbd bdf2 75bd 34fb 393e df9b 143e
00000070: 89a2 ef3d 1b98 da3d 02cd 4f3e ec7b 4c3e
00000080: 7225 bb3d a9d3 353e bf72 7b3e a354 8cbd
00000090: 6813 eebc e509 2e3e e727 4f3e 3008 f8bd
000000a0: 2f97 303e b167 463e 950c 233e f5fc 24be
000000b0: f6bd 0d3e 160c 1b3e 1c2d 043e 73f4 113e
000000c0: 348c 633e b503 db3d d802 493e 8294 d43d
000000d0: 036e 603e 7ed4 b63d a703 253e 29ef 1fbe
000000e0: 82eb 003e e166 d53d 606d 8ebd 5d15 353e
000000f0: 2d39 423f 5dea 133e d461 b43d 0f0a 283e
00000100: debf 30be 5269 243e 8d76 103e 09c8 963e
00000110: 643c 0bbe 7a7e 833e b102 3b3e d944 433e
00000120: ccb4 b03e 4c1b 393e 3748 243e 4b0a 5c3e
00000130: 352a 943d a9b5 963d e40b 093e 0ffd 05be
00000140: 6d67 423f 6a61 d53e 671a 043e a4bb 0d3e
00000150: 9fae b23d 6edb 073e 39c5 093f 343e 0b3e
00000160: 543e 273f ed20 d73e 89af 66bd 028e 8e3e
00000170: 21e2 873e 4064 08be 71de e23d a1e8 813e
00000180: 0bc0 ee3d c3c3 273e b542 583d 2c3f 293e
00000190: be47 293e f46c ec3d 3ce5 013e e004 123e
000001a0: eb44 a53e 04a6 3b3e 569f 4b3e 0c2f 9cbc
000001b0: 8473 ca3e 0064 813e 8ebe ae3e ba23 173e
000001c0: f46a b33e 97f9 d8bd 1012 dbbc 8bd8 a23e
000001d0: f57e b23d 2786 f3bc a94b d0bd 6d4d 1b3e
000001e0: dffc 3c3e 9161 c43d a46e 803d 8247 e03d
000001f0: 0c35 a93d 687f 3b3e 410c 163e 7d8d b93d
00000200: a1c8 9f3e dd04 babd 01be d3bd bc02 763e
00000210: c9d5 513f d5c0 1d3e fdbe ae3d 9e9f 86bd
00000220: 6821 ef3d 538c 9a3e 212e 083e 7cef 273c
00000230: 05c1 90bd e865 29be 6382 89bd 8586 1a3c
00000240: d25e 3abb dd1e 393e 2db6 f33d 14b9 e53d
00000250: 6f92 223e c413 093e 98f1 bcbd c1b4 f7bd
00000260: 268b c23b c13f 913d ab36 c3bd 4ac1 0e3e
00000270: 05bf 6b3e 126e 383d 9824 0f3e 0e3c 0c3e
00000280: 30f7 8b3e 38f4 c23d 5e4f af3e 29f5 eb3d
00000290: 14e4 24be 1b8c 123e a782 153e cde6 593e
000002a0: dcff 423f e1ea e23d 63f1 de3d 4459 ad3e
000002b0: bef0 1ebe 1bed fc3d 0afc d7bd 5bd6 ed3d
000002c0: e0fc 123e 2bca 06bc 4cc4 b63e 70dd b9bd
000002d0: 2485 053e fa88 323e 2786 613e 04cf 783e
000002e0: b108 c73d 90ca 323e ff00 2e3e badd e83d
000002f0: cf9e 423e 146f d63d 8e99 6f3e bd92 7fbd
00000300: 4960 393e 4164 f73d 1a2f 593e 989c 033e
00000310: df79 313e 68e8 6c3e 4db0 b9bd ff01 0cbe
00000320: e983 1cbe f4de dbbd 7c3b 90bd 4fc4 5f3d
00000330: dc31 443d 80ca fc3d 813e 553e 29eb 353e
00000340: 4ce7 d0bd d34b 133e dc59 063e b8b5 bf3e
00000350: 0130 63bd 00b3 6e3e 865c 02be 3d32 6c3e
00000360: 8480 4cbd dbb3 7d3e d64f e33d 0533 233e
00000370: 48a0 8b3e 6fd2 c33e 7ea9 c93e 2e04 0fbe
00000380: 6c8d d8bd e1d7 0b3e 6416 283e 7414 e83e
00000390: 5dcb 3b3e 4897 3d3e b577 023f a851 a23e
000003a0: 257c 6f3e 5328 db3d 4ed2 923c b631 e9bd
000003b0: 70cf 2d3e 2ee5 973d 7115 903e 94dd 3d3e
000003c0: 293f 26bd 5a42 083e 434f 12be 15a6 943d
000003d0: ec90 e23d 1ce6 bebd 9f23 983d aa7c eb3e
000003e0: 0af9 3e3e d701 4bbc 5960 043e cecb 14be
000003f0: c143 353f 2a20 7c3d 557e 263e d7d1 723e
-0.13981232 0.019876637 -0.19059402 0.26518703 -0.111702986 0.10672836 0.11269225 -0.06666319
0.21035242 0.25402826 0.38491154 0.09602988 0.113925055 0.4931564 -0.027468814 0.27828547
0.06705625 0.6139305 -0.040016986 0.05993445 0.11675947 -0.12336955 -0.10620535 0.07981757
-0.0841016 -0.060045946 0.18162233 0.14512585 0.11700923 0.10673543 0.20293048 0.19969147
0.091380015 0.17756523 0.24555491 -0.06852081 -0.029061988 0.16995962 0.20230065 -0.12110937
0.17245172 0.19375493 0.15922768 -0.1611212 0.13841996 0.15141329 0.12907833 0.14253406
0.22221452 0.106940664 0.19629991 0.10379888 0.21916966 0.089272484 0.16114675 -0.15618576
0.12589839 0.10420013 -0.069544554 0.1768393 0.75868493 0.14444871 0.08807722 0.16410087
-0.17260692 0.16055802 0.14107724 0.2944949 -0.13597256 0.2568243 0.18262745 0.19069232
0.34512937 0.18076819 0.16043173 0.21488301 0.07234613 0.07358868 0.13383442 -0.13084815
0.75939065 0.41675884 0.12900697 0.1384111 0.087247126 0.132673 0.5381656 0.13597947
0.6532948 0.42017308 -0.056319747 0.27842718 0.2653971 -0.13319492 0.110775836 0.25372794
0.11657723 0.16383271 0.05279799 0.16528004 0.16531274 0.11544219 0.12685102 0.14259672
0.32279143 0.18325049 0.19885 -0.019065402 0.39541256 0.25271606 0.34129757 0.14759722
0.35042536 -0.105944805 -0.026742011 0.31805834 0.087156214 -0.029727055 -0.10170681 0.15166254
0.18455838 0.09588922 0.06271103 0.10951139 0.08262071 0.1831032 0.14653112 0.0906019
0.31207755 -0.09082959 -0.10338975 0.2402448 0.81966835 0.15405591 0.08532522 -0.06573413
0.116762936 0.30185184 0.13298847 0.010249969 -0.070680656 -0.1654278 -0.067143224 0.009431486
-0.0028437865 0.1807818 0.11899982 0.112169415 0.15876172 0.13386446 -0.09225768 -0.12095023
0.005936998 0.07092238 -0.095319115 0.13940921 0.23022087 0.045026846 0.13978803 0.13694784
0.27337027 0.09519237 0.3424024 0.1152137 -0.1610263 0.14311258 0.14600621 0.2127945
0.7617166 0.11079956 0.108858846 0.33857167 -0.15521523 0.12349912 -0.105461195 0.11613151
0.14354277 -0.008226912 0.35696638 -0.09075439 0.1303907 0.17435065 0.22023831 0.2429772
0.09718455 0.17460084 0.16992567 0.11370416 0.19005893 0.10470405 0.2339842 -0.0623958
0.18103136 0.12079669 0.21209374 0.12852705 0.17331646 0.23135531 -0.0906683 -0.13672636
-0.15284695 -0.10735884 -0.07042596 0.054630574 0.047899112 0.12343311 0.20824625 0.17765488
-0.102003664 0.14384393 0.13120216 0.37443328 -0.055465702 0.2331047 -0.12730607 0.2306604
-0.04992725 0.2477564 0.11099212 0.15937431 0.27270722 0.38246486 0.39387125 -0.13966438
-0.10573849 0.1365657 0.16414791 0.45328104 0.18339296 0.1851474 0.5096391 0.31702924
0.23387201 0.107010506 0.017922547 -0.11386435 0.16973662 0.074167594 0.28141358 0.18541557
-0.040587578 0.13306561 -0.14288048 0.0725824 0.11062798 -0.09321234 0.07428669 0.4599355
0.18649688 -0.012390575 0.12927379 -0.1453087 0.7080651 0.06155411 0.1625913 0.2371286

proxy_b_raw.weight f4 [17671, 1]
00000000: d6eb 65be 5731 4bbe 0721 69be 84bd 6cbe
00000010: e951 5cbe d462 4ebe 9cec 5dbe 53ff ebbd
00000020: c317 61be 8ef7 87be e148 c3be 3f36 22be
00000030: 8f36 36be 3520 0bbf 14c8 37be ad87 bbbe
00000040: 6425 32be 51a6 2cbf 9991 4abe 743b 66be
00000050: f6dc 62be b99a 26be 26c1 6abe 8cba 6bbe
00000060: 526d 50be 2ae3 27be a640 63be 07e3 2ebe
00000070: a454 66be 1782 87be 62df 75be f3b3 80be
00000080: 1ad2 55be 3219 8ebe 4f48 78be 0181 8dbe
00000090: 27f3 27be e634 84be e858 51be 36f9 35be
000000a0: a225 3cbe 6d48 67be 56fd 55be 31a3 5bbe
000000b0: fd9c 2abe ed3e 63be 885a 2ebe 8075 7dbe
000000c0: 6256 62be 23a6 3fbe b1e9 5ebe 3c8c 39be
000000d0: 10a0 57be d29f 36be 65cd 67be 9219 8fbe
000000e0: 3628 40be c2e8 39be e079 2fbe d25f 47be
000000f0: 9a3d 3cbf 8878 6ebe 00d1 42be 527a 67be
00000100: 0a07 70be 255b 53be 08b2 77be bb9f 83be
00000110: 845d 42be 140f 87be 24df 7ebe 567e 64be
00000120: 27d3 97be 1a43 79be a13c 52be 02c6 84be
00000130: fea1 37be 7e02 5abe 3f16 8bbe 1795 38be
00000140: a76d 3dbf cde3 d9be deb2 34be d7ba 59be
00000150: 5fff 39be d9da 3cbe ee27 1abf 4181 5abe
00000160: ab68 2abf 094e 02bf 90b7 1ebe e490 bebe
00000170: 53e6 acbe 173b 58be a5cd 35be 7be9 87be
00000180: 91bb 73be ea33 40be 4549 38be eccb 7bbe
00000190: ec34 3ebe c165 38be a42d 62be 17f2 62be
000001a0: c2e6 89be 5643 75be c3de 60be d19c 30be
000001b0: 05e9 f7be bf97 56be 7383 d9be 994f 85be
000001c0: 27e9 aebe 3be5 53be c33c 32be 7b70 d0be
000001d0: 7f97 30be e58b 23be 21e8 7ebe 90fa 76be
000001e0: 43be 5dbe e24e 1ebe 597f 4cbe 6403 3bbe
000001f0: 28fa 39be 60a1 83be d66c 42be 9d55 2bbe
00000200: 3794 d0be bf5a 13be d5e4 42be 196d 7fbe
00000210: 4a0d 45bf 76e4 49be 884f 52be 5cb9 3dbe
00000220: 9324 3fbe eafa 80be b101 1cbe 451d 49be
00000230: 5c56 56be fb2a 2abe dbb1 66be 8332 1dbe
00000240: ba6a 77be 1463 6cbe 19f7 31be a147 4fbe
00000250: 8938 4bbe 71d6 2dbe e552 48be ba63 63be
00000260: f4db 2cbe 4873 10be 8835 73be 730a 55be
00000270: eb4f 7dbe 4132 74be 34e8 3abe 6e21 5ebe
00000280: 74a4 80be c16a 41be b7c0 e0be ce6d 37be
00000290: e78d 64be fca0 3cbe 6681 57be 497a 85be
000002a0: 3e6e 3cbf 6d87 35be 1410 5bbe 3e3f aabe
000002b0: 6e89 43be a0d4 24be c95c 42be 84ca 71be
000002c0: 2e04 4bbe c1aa 1ebe 23fb a9be 7e3c 6ebe
000002d0: 4c7c 58be c472 59be 698b 4cbe 7c79 9cbe
000002e0: d267 37be 2074 89be 00fa 76be 8d2e 40be
000002f0: 7f83 8abe 074b 48be f65c 91be ad1b 37be
00000300: fc19 8fbe 74ca 31be 8048 a1be 8509 43be
00000310: 61c3 39be 1e4e 93be 0b64 62be 7197 47be
00000320: a2c1 6fbe b0d0 4dbe f40f 28be 7387 79be
00000330: fdfe 26be d23f 36be ad92 6ebe 4506 8fbe
00000340: 9089 3abe 7ff4 57be 15e5 7fbe ac6e c0be
00000350: cdeb 36be 3963 77be 1030 5dbe 95fe 88be
00000360: 81f3 54be 7990 afbe 2ca2 24be e877 7abe
00000370: aada b5be 39da efbe e4b9 e7be 94b9 1bbe
00000380: d04c 3ebe 756b 63be c4cd 30be 75c2 08bf
00000390: 5136 6ebe 4c45 87be 6689 0fbf 12e8 84be
000003a0: 6301 7dbe 0bad 40be d168 81be bb29 3bbe
000003b0: 7121 2bbe 39f3 2fbe 9341 92be 642e 65be
000003c0: 7f8a 68be e34b 4abe 1199 87be 000b 31be
000003d0: 204f 3dbe 4141 32be d57b 53be db1f 09bf
000003e0: 1217 52be a9ec 83be bf3c 55be ad34 21be
000003f0: 1131 38bf 3a6a 39be 350d 59be 3255 6cbe
-0.22453246 -0.1984304 -0.22766505 -0.2311917 -0.21515621 -0.20154887 -0.2167229 -0.115233086
-0.2198172 -0.26556057 -0.3814154 -0.15841006 -0.1779425 -0.5434602 -0.17947417 -0.3662695
-0.17397076 -0.6744128 -0.19782104 -0.22483617 -0.22154602 -0.1626996 -0.22925243 -0.2302038
-0.20354202 -0.1639525 -0.2219263 -0.17078792 -0.22493225 -0.26466438 -0.24010995 -0.2513729
-0.20880929 -0.27753597 -0.24246334 -0.27637485 -0.16401349 -0.25821608 -0.20444071 -0.17770848
-0.18373731 -0.22586222 -0.20897421 -0.21448971 -0.16661449 -0.22191973 -0.17026722 -0.24751854
-0.22103265 -0.1871572 -0.21768834 -0.18119901 -0.21057153 -0.17834404 -0.22636946 -0.27949196
-0.1876534 -0.18155196 -0.17136335 -0.19470146 -0.73531497 -0.23288167 -0.1902504 -0.22605255
-0.23440185 -0.20640238 -0.24189007 -0.25707802 -0.18980986 -0.2637869 -0.24889809 -0.22313818
-0.29653284 -0.24342003 -0.2053094 -0.25932318 -0.17932889 -0.21290013 -0.2716541 -0.18025623
-0.7399544 -0.4255661 -0.17646357 -0.2126268 -0.18163823 -0.18442859 -0.6021718 -0.21338369
-0.6656596 -0.5090032 -0.15499711 -0.37219918 -0.33769473 -0.21116291 -0.17754228 -0.2654532
-0.2380202 -0.18769804 -0.179967 -0.24589509 -0.18574876 -0.18007566 -0.22087723 -0.22162662
-0.26933867 -0.23951468 -0.21959977 -0.1724732 -0.48419967 -0.20956324 -0.424831 -0.2603729
-0.34162256 -0.20692913 -0.17405991 -0.40710816 -0.17245291 -0.15971334 -0.24893238 -0.2411902
-0.2165461 -0.15459779 -0.19970454 -0.18263012 -0.18161833 -0.25709057 -0.1898683 -0.16731878
-0.4073808 -0.14390086 -0.19032605 -0.24943961 -0.769734 -0.19716057 -0.20538151 -0.1852774
-0.18666296 -0.25191432 -0.1523502 -0.19640072 -0.20931381 -0.16617958 -0.22528784 -0.153513
-0.24161807 -0.2308467 -0.17379417 -0.20242168 -0.19845785 -0.16976334 -0.19562872 -0.22206011
-0.1688078 -0.14106476 -0.2375089 -0.20804767 -0.24737518 -0.23847295 -0.18252641 -0.2169244
-0.25125468 -0.1888838 -0.4389703 -0.17912981 -0.22319756 -0.18420786 -0.21045455 -0.2606986
-0.73605716 -0.17727442 -0.21392852 -0.33251375 -0.19095394 -0.16096735 -0.18980707 -0.2361241
-0.19825813 -0.15494825 -0.33199415 -0.23265263 -0.21141165 -0.21235186 -0.19975056 -0.30561435
-0.17910698 -0.2684641 -0.24118805 -0.18767758 -0.2705345 -0.1955987 -0.28391236 -0.17881651
-0.27949512 -0.17362386 -0.31500626 -0.190466 -0.18140937 -0.28770536 -0.22108476 -0.19491364
-0.23413709 -0.20099139 -0.16412336 -0.24368076 -0.16308208 -0.17797783 -0.2329814 -0.2793447
-0.18216538 -0.21089362 -0.24989732 -0.37584436 -0.17863388 -0.24158944 -0.21600366 -0.2675673
-0.20796014 -0.3428991 -0.16077489 -0.24459803 -0.3551839 -0.46846178 -0.4525901 -0.15207511
-0.18583989 -0.2220896 -0.17265993 -0.5342172 -0.23262908 -0.26420057 -0.5606903 -0.25958306
-0.2470756 -0.1881601 -0.2527528 -0.18277638 -0.16711976 -0.17182626 -0.28565654 -0.22380978
-0.22709082 -0.19755511 -0.26483968 -0.17289352 -0.18487215 -0.17407705 -0.20652707 -0.5356423
-0.20516613 -0.25766495 -0.20823954 -0.1574275 -0.7194987 -0.18106928 -0.21196444 -0.23079374

proxy_theta_raw.weight f4 [2493, 1]
00000000: 1263 883f 00ec 263f a80c 3d3f 025b 5a3f
00000010: c014 1f3f b154 7a3f 5c31 983f c869 703f
00000020: a837 8c3f 308e 863f fa13 183f 7afa 2b3f
00000030: e69d 5d3f 638d b73e 9def a53e 8afb c33e
00000040: b3aa 983e c494 c23e 58e6 ae3e 40ee e53e
00000050: 83d8 f23e 9b1c e23e a323 b63e 4216 093f
00000060: 4d5a 163f 0270 403f 3b2f 603f 1bc4 613f
00000070: 282c 173f da8b 103f acd3 0b3f d937 773f
00000080: c890 6e3f d93d 9f3f 7840 8d3f bae5 803f
00000090: 46ef 823f 2e7a 883f bfaf 883f 44c0 663f
000000a0: 6d6e 7e3f 3132 8e3f 50da 6f3f 187c 993f
000000b0: 9327 903f b9c1 9b3f 933e 9c3f 39c7 793f
000000c0: 21c9 743f 26c4 7d3f 3102 ab3f ad60 853f
000000d0: c7b3 823f 6376 963f 9c35 8d3f 93d5 993f
000000e0: 01bb 993f 455b 8d3f 4430 733f f2f2 873f
000000f0: 2622 8a3f 6ce3 483f dfe8 933f 26c9 8c3f
00000100: 2eea 9b3f cfcf 8a3f 8b80 913f 86b7 963f
00000110: d736 9e3f f552 8a3f e0b4 533f dc66 8c3f
00000120: 13d1 9e3f 5c80 933f f126 aa3f d69d 9c3f
00000130: 7c06 943f ff4c 8f3f f09d 9d3f fe17 a73f
00000140: d870 813f 015c 8a3f 07f3 883f 4766 823f
00000150: 4b52 8d3f bc33 783f 4faa 923f 204d 903f
00000160: 8dd7 753f 7bae 8a3f 5682 843f 706c 613f
00000170: 842c 6b3f fe7b 803f 6311 833f eb77 8e3f
00000180: 7b79 653f 6190 123f 7d7d 0f3f bee6 123f
00000190: 9b8e 873f f408 053f 4e25 f13e f8f1 e93e
000001a0: 08bb c73e a281 063f 0a17 1d3f 24db 113f
000001b0: 7a59 173f 0379 0a3f b9ef 153f 39df 2b3f
000001c0: 0e8f 0b3f fa2f 0f3f d226 173f 6a60 193f
000001d0: 3cc1 263f b7a7 0b3f 416a eb3e c0e7 323f
000001e0: 0929 253f f748 263f 2708 213f bf56 1c3f
000001f0: 367f 0c3f 63b4 d83e 53ee 013f 60bc b23e
00000200: e94c 993e 5b29 b83e fb73 a33e 4c82 043f
00000210: 4601 083f 492c 083f 9dfe 0b3f bd79 eb3e
00000220: ac68 ee3e f31d b03e 2c62 273f ff91 233f
00000230: 8dc6 ba3e 7232 ba3e 66d5 8d3f c3ad b73e
00000240: d844 be3e dcc2 c93e 6962 e23e 32b0 ad3e
00000250: bfd7 d93e 7ab6 213f b744 0c3f b13b 973e
00000260: 88a3 d23e a17b 2c3f a663 b13e 7f74 bd3e
00000270: 722c 0e3f 5f2f 3d3f 4158 b13e b0f1 ea3e
00000280: ff85 fe3e 3c79 c23e c15f b33e 1573 b73e
00000290: a12e b83e 9bda be3e 721a be3e 5d77 b93e
000002a0: 7a65 ca3e 0bd2 063f 0e3a 0e3f 394a 273f
000002b0: 2481 023f cad2 e93e 0ef7 1a3f b2b2 e83e
000002c0: 6ee6 aa3e 8c3d de3e 68e3 e73e 5884 093f
000002d0: b8b0 e73e 88d6 223f 41eb 043f 3b52 dc3e
000002e0: 4676 223f 129e ff3e fdd7 e73e b1d7 0c3f
000002f0: 33bc ec3e d080 ac3e 0cc8 db3e a1c8 cb3e
00000300: 74bc 163f c98b c83e ac24 f53e 97cd b13e
00000310: 5b80 bd3e f08a ad3e ceea 323f 4a27 ad3e
00000320: b769 a73e 3811 8b3e 0e66 c23e a1e6 bc3e
00000330: 7266 863e 60e5 8c3e 83ed 833e 4cde 333e
00000340: 5216 613e 447f c53e 3b41 053f c916 c33e
00000350: f229 e13e d148 c13e 1594 bb3e 9897 b03e
00000360: 57b4 b83e 3ac2 833f 46ef 823f 2e7a 883f
00000370: bfaf 883f 6d6e 7e3f 3132 8e3f 187c 993f
00000380: a333 6a3f 9327 903f 5e3f 6a3f 6fa4 8f3f
00000390: b9c1 9b3f 933e 9c3f 21c9 743f 26c4 7d3f
000003a0: 7a16 653f a8d5 9f3f b1f7 833f f562 583f
000003b0: 4018 933f 6bdc 8d3f c7c9 7f3f 3862 5f3f
000003c0: 1639 833f e7f2 933f adbb 643f 011b 953f
000003d0: ee38 683f fd92 943f 4214 8c3f 1541 a33f
000003e0: 2a38 963f 9e27 913f 7ff0 723f 0c45 863f
000003f0: f85b 9c3f 1eab 843f ea20 a43f 07f3 883f
1.0655234 0.6520386 0.73847437 0.85295117 0.62141037 0.9778548 1.1890063 0.9391141
1.0954485 1.0512142 0.5940548 0.6717907 0.8656906 0.35850057 0.32409373 0.38277847
0.29817733 0.38004124 0.34160113 0.44908333 0.4743081 0.4416245 0.35574064 0.5354959
0.5873154 0.7517091 0.8757207 0.8818986 0.5905175 0.56463397 0.5461986 0.9656959
0.9318967 1.244075 1.1035299 1.0070107 1.022927 1.0662286 1.0678633 0.90137124
0.99387246 1.1109067 0.93692493 1.1990995 1.1262077 1.2168494 1.2206596 0.97569615
0.956194 0.99127424 1.3360044 1.0420128 1.0211114 1.1754879 1.1031985 1.2018303
1.2010194 1.1043478 0.9499552 1.0621016 1.0791671 0.7847202 1.1555442 1.0998886
1.2180841 1.0844668 1.1367353 1.1774757 1.2360486 1.0806566 0.8269787 1.096889
1.2407554 1.1523547 1.3293134 1.2235668 1.1564479 1.1195372 1.2313824 1.3054197
1.0112562 1.0809327 1.0699166 1.0187463 1.1040739 0.9695394 1.1458224 1.1273537
0.9603203 1.0834497 1.0352275 0.8805609 0.918648 1.003784 1.0239681 1.1130346
0.8963849 0.57251555 0.56050855 0.57383335 1.0590395 0.51966786 0.47098774 0.4569242
0.3900988 0.52541554 0.6136328 0.5697501 0.59120905 0.540909 0.5856891 0.67137486
0.5451516 0.5593258 0.5904361 0.5991274 0.651386 0.5455279 0.45979503 0.6988487
0.6451574 0.64955086 0.62903064 0.61069864 0.5488161 0.42325124 0.5075428 0.34909344
0.2994149 0.35969052 0.31924424 0.5176132 0.53126943 0.53192574 0.54685384 0.45991316
0.46564233 0.3439785 0.65384173 0.6389465 0.36479607 0.36366612 1.1080749 0.35874757
0.371619 0.39406478 0.44215706 0.3392349 0.42547414 0.6316906 0.5479235 0.29537728
0.4114039 0.6737614 0.34646338 0.37002942 0.5553657 0.7390041 0.34637645 0.45887518
0.49711606 0.3798312 0.35033992 0.35829988 0.35973075 0.37276158 0.3712955 0.3622388
0.39530545 0.5266425 0.55557334 0.6534763 0.509783 0.45668632 0.60533226 0.45448834
0.3337893 0.43406332 0.45290685 0.53717566 0.45252013 0.636086 0.5192147 0.43031487
0.6346172 0.49925286 0.45281973 0.5501662 0.46237335 0.33692026 0.4292606 0.39801505
0.58881307 0.39169148 0.4787954 0.34727165 0.3701199 0.33895063 0.69889534 0.33819038
0.32697842 0.27161574 0.37968487 0.36894706 0.26250035 0.2751875 0.25767145 0.17565268
0.21981171 0.38573658 0.5205266 0.3810332 0.43977314 0.37750867 0.36636415 0.34490657
0.36075088 1.0293648 1.022927 1.0662286 1.0678633 0.99387246 1.1109067 1.1990995
0.9148504 1.1262077 0.9150294 1.1222056 1.2168494 1.2206596 0.956194 0.99127424
0.8948742 1.2487078 1.0309964 0.84525996 1.1491776 1.1082891 0.9991726 0.87259245
1.0251796 1.1558503 0.8934887 1.1648866 0.9071187 1.1607357 1.0943682 1.2754236
1.173589 1.1340215 0.9489822 1.0489821 1.2215567 1.0364721 1.2822545 1.0699166
