GIRT/checkpoint/girt2pl-assist0910-user-split/checkpoint-epoch-9.pt (torch, 153924 bytes, 3 tensors)

proxy_a_raw.weight f4 [17671, 1]
-0.18342714 0.045825325 -0.29109624 0.48271975 -0.14834437 0.14229833 0.132098 -0.14065124
0.31466308 0.30001736 0.46353596 0.15345365 0.14478546 0.6093599 0.03040256 0.40326193
0.09060969 0.8456654 -0.04676144 0.073303096 0.17644061 -0.1804645 -0.14212602 0.08379846
-0.12607166 -0.09373311 0.23046847 0.23477635 0.18902609 0.1613249 0.27310586 0.31737116
0.10728824 0.24298954 0.27704412 -0.056148227 0.00949765 0.1997696 0.28738418 -0.19376932
0.28202367 0.25361168 0.23433316 -0.18064383 0.27676967 0.21567298 0.1715477 0.1586378
0.28157216 0.14770506 0.28566265 0.14167789 0.31309935 0.1426738 0.22932264 -0.18905899
0.17603794 0.1445246 -0.13021912 0.22432786 0.82701695 0.186397 0.13487694 0.25571355
-0.21798663 0.21466261 0.205281 0.45794514 -0.1589096 0.33264488 0.26573715 0.29060483
0.42537138 0.26867646 0.2436553 0.29452455 0.11145792 0.13784477 0.15545169 -0.18529786
0.82220036 0.46752825 0.20690273 0.22170773 0.151234 0.19982179 0.7464922 0.18396255
0.7485606 0.6180142 -0.09796851 0.40294132 0.31776565 -0.2271941 0.19598074 0.289718
0.1888185 0.2731822 0.10021486 0.24560486 0.26909006 0.15254004 0.20753787 0.21332194
0.36344856 0.25408196 0.29479912 -0.029825028 0.5808202 0.37577477 0.4589675 0.1490779
0.38241342 -0.14537215 -0.027974673 0.4555397 0.10669982 -0.051870596 -0.107213244 0.20323128
0.2618323 0.17378485 0.10596133 0.16685231 0.13546981 0.25093627 0.16288161 0.1238214
0.4737854 -0.14263761 -0.15105449 0.36219263 0.8087725 0.19225305 0.1253838 -0.053452488
0.19227065 0.42114443 0.16522601 0.02386989 -0.05448201 -0.25626948 -0.112358764 0.02984281
0.08091614 0.19335166 0.18403977 0.1941811 0.20237646 0.20544094 -0.12508664 -0.14128077
0.025937552 0.12066727 -0.14759411 0.2294344 0.33430228 0.085845254 0.18541126 0.16975217
0.34533605 0.16511591 0.5145066 0.18359141 -0.25914004 0.25386652 0.22507437 0.26661298
0.82776815 0.15971456 0.1912107 0.4558315 -0.20954205 0.17996266 -0.15478832 0.18448341
0.2002819 -0.008113562 0.492886 -0.0914373 0.18314545 0.19784789 0.2723022 0.2624374
0.16777048 0.23006219 0.3054887 0.17018004 0.23194464 0.15829794 0.2885609 -0.03356017
0.29729286 0.15550841 0.26679736 0.18065283 0.2734353 0.31840274 -0.101803556 -0.22475642
-0.22382955 -0.19519411 -0.10942075 0.1009117 0.09216967 0.19616194 0.2469927 0.25359246
-0.14741006 0.19129498 0.13843317 0.53005147 -0.054632153 0.36081904 -0.16820922 0.34420595
-0.035912696 0.33587503 0.16837892 0.24272257 0.3329999 0.5575752 0.48335564 -0.19086576
-0.124934286 0.1958844 0.19730674 0.6375579 0.2555291 0.27543536 0.5994379 0.47755226
0.3300738 0.15749027 0.085504875 -0.16359851 0.2525458 0.108549185 0.3610082 0.2260403
-0.074505225 0.18378872 -0.19930173 0.15315384 0.17637779 -0.121102706 0.10631137 0.66191316
0.29781726 0.067909144 0.17093104 -0.20770589 0.8748748 0.091252916 0.24059585 0.34488216
00000000: 53d4 3bbe 56b3 3b3d 910a 95be 0b27 f73e
00000010: 96e7 17be a7b6 113e b344 073e e106 10be
00000020: 851b a13e e09b 993e 9654 ed3e f422 1d3e
00000030: a442 143e 03ff 1b3f ca0e f93c 5978 ce3e
00000040: 9391 b93d 877d 583f ec88 3fbd ef1f 963d
00000050: d9ac 343e b0cb 38be 7c89 11be 879e ab3d
00000060: ee18 01be 25f7 bfbd edff 6b3e 3669 703e
00000070: 0e90 413e 5b32 253e 88d4 8b3e 797e a23e
00000080: f0b9 db3d 40d2 783e bad8 8d3e affb 65bd
00000090: 089c 1b3c 6790 4c3e 0524 933e 776b 46be
000000a0: 6865 903e 64d9 813e 08f5 6f3e b2fa 38be
000000b0: c1b4 8d3e 61d9 5c3e 33aa 2f3e f371 223e
000000c0: 3a2a 903e ff3f 173e 6042 923e 0214 113e
000000d0: 8f4e a03e 1519 123e 8ed3 6a3e ae98 41be
000000e0: 4a43 343e 42fe 133e 2958 05be 34b6 653e
000000f0: 62b7 533f dbde 3e3e 2e1d 0a3e e3ec 823e
00000100: e337 5fbe 84d0 5b3e 2f35 523e c977 ea3e
00000110: 33b9 22be 6e50 aa3e b30e 883e 28ca 943e
00000120: 47ca d93e f68f 893e c680 793e eccb 963e
00000130: 0d44 e43d 2e27 0d3e ba2e 1f3e b9be 3dbe
00000140: b97b 523f dd5f ef3e 4fde 533e 5a07 633e
00000150: 16dd 1a3e 159e 4c3e 1d1a 3f3f ae60 3c3e
00000160: aba1 3f3f 2e36 1e3f b7a3 c8bd 534e ce3e
00000170: 2eb2 a23e 92a5 68be 2daf 483e eb55 943e
00000180: a359 413e 8ade 8b3e 733d cd3d d77f 7b3e
00000190: 2cc6 893e 7533 1c3e cf84 543e 1171 5a3e
000001a0: ee15 ba3e 0817 823e e9ef 963e 9e53 f4bc
000001b0: a2b0 143f 8d65 c03e cafd ea3e e1a7 183e
000001c0: b1cb c33e 70dc 14be 242b e5bc 803c e93e
000001d0: 6f85 da3d 4376 54bd 9e92 dbbd dc1b 503e
000001e0: e20e 863e a8f4 313e 4102 d93d 55db 2a3e
000001f0: 99b8 0a3e b87a 803e 70ca 263e 1396 fd3d
00000200: 0094 f23e 980f 12be 07ae 1abe 5071 b93e
00000210: b70b 4f3f fcdd 443e 9c64 003e fff0 5abd
00000220: 99e2 443e 3ea0 d73e 0231 293e ca8a c33c
00000230: 8728 5fbd c135 83be 5a1c e6bd e978 f43c
00000240: 5cb7 a53d fafd 453e ec74 3c3e 69d7 463e
00000250: c63b 4f3e 1c5f 523e b616 00be e8ab 10be
00000260: fd7a d43c 6720 f73d e922 17be daf0 6a3e
00000270: ab29 ab3e a3cf af3d 73dc 3d3e 83d3 2d3e
00000280: e3cf b03e 2514 293e b4b6 033f 63ff 3b3e
00000290: 01ae 84be cbfa 813e e579 663e 7f81 883e
000002a0: 9de8 533f 378c 233e bdcc 433e bf62 e93e
000002b0: 3192 56be 2248 383e d480 1ebe 38e9 3c3e
000002c0: b316 4d3e bfee 04bc 8e5b fc3e 7b43 bbbd
000002d0: 7b8a 3b3e a398 4a3e 326b 8b3e 325e 863e
000002e0: 06cc 2b3e 6c95 6b3e 0469 9c3e ad43 2e3e
000002f0: e582 6d3e db18 223e 41be 933e 6476 09bd
00000300: c536 983e 993d 1f3e aa99 883e 0efd 383e
00000310: b6ff 8b3e af05 a33e 627e d0bd 8c26 66be
00000320: 9333 65be f7e0 47be fc17 e0bd cbaa ce3d
00000330: 74c3 bc3d adde 483e a8eb 7c3e dfd6 813e
00000340: aaf2 16be d5e2 433e 6dc1 0d3e 74b1 073f
00000350: f7c5 5fbd 46bd b83e 0a3f 2cbe c33b b03e
00000360: 3119 13bd d0f7 ab3e 866b 2c3e 448c 783e
00000370: f77e aa3e 40bd 0e3f 647a f73e 5072 43be
00000380: 8cdd ffbd ec95 483e c70a 4a3e ff36 233f
00000390: b6d4 823e dd05 8d3e c374 193f bb81 f43e
000003a0: 6fff a83e 2145 213e 2e1d af3d 5e86 27be
000003b0: af4d 813e 094f de3d 11d6 b83e 1c77 673e
000003c0: 3296 98bd 1c33 3c3e c115 4cbe 5cd4 1c3e
000003d0: 619c 343e b204 f8bd c7b9 d93d 2473 293f
000003e0: 817b 983e f313 8b3d 8c08 2f3e dab0 54be
000003f0: cbf7 5f3f cfe2 ba3d c25e 763e 6594 b03e

proxy_b_raw.weight f4 [17671, 1]
-0.2648597 -0.2627796 -0.27389255 -0.2770475 -0.2691086 -0.22048005 -0.23670983 -0.11639571
-0.26289138 -0.30839247 -0.4023964 -0.19273454 -0.210871 -0.59345 -0.19761826 -0.44143283
-0.20158981 -0.7824196 -0.2305985 -0.2937549 -0.27867842 -0.14306952 -0.2959511 -0.2914675
-0.2782239 -0.18092915 -0.28662106 -0.20607091 -0.28011775 -0.30215454 -0.28111076 -0.29412928
-0.2334427 -0.3368303 -0.25098497 -0.32377744 -0.1610887 -0.28523022 -0.2269918 -0.22364491
-0.23629333 -0.27904138 -0.27134374 -0.21808568 -0.19425765 -0.26240608 -0.19460563 -0.2883474
-0.23875652 -0.193267 -0.25112918 -0.2128797 -0.24537964 -0.21224287 -0.309561 -0.35661831
-0.2164962 -0.21571685 -0.21038656 -0.23145038 -0.7369472 -0.26529825 -0.22946821 -0.2656669
-0.24861602 -0.24713285 -0.28563702 -0.34305558 -0.18367882 -0.2902992 -0.30173546 -0.28663954
-0.31479213 -0.32382596 -0.24672754 -0.28101638 -0.21407303 -0.2308726 -0.33955726 -0.231654
-0.7412723 -0.4406148 -0.22199975 -0.24776393 -0.2335298 -0.21931484 -0.7082433 -0.26521796
-0.68008083 -0.62794083 -0.16818689 -0.44208404 -0.32425743 -0.292847 -0.2138712 -0.32161584
-0.2954589 -0.24904455 -0.22381014 -0.34722918 -0.21630259 -0.18988141 -0.29055882 -0.27666354
-0.28829396 -0.27896768 -0.285951 -0.21077372 -0.59501606 -0.2804808 -0.49303368 -0.3250757
-0.33714837 -0.23659006 -0.20121184 -0.49882728 -0.21988414 -0.18560214 -0.3092151 -0.28031915
-0.25695094 -0.17307664 -0.24113193 -0.23581657 -0.23906918 -0.32879266 -0.18352377 -0.21385987
-0.51886654 -0.17556229 -0.24288654 -0.33862734 -0.73438424 -0.19157994 -0.23267706 -0.22491209
-0.2302289 -0.3206692 -0.16868374 -0.22373822 -0.26347095 -0.20533846 -0.29967824 -0.1881015
-0.32222039 -0.24238542 -0.20530215 -0.25842416 -0.22305173 -0.2238703 -0.23434876 -0.24418154
-0.17769763 -0.15949744 -0.27661747 -0.26882485 -0.3138558 -0.32628727 -0.19846354 -0.24104026
-0.28268 -0.2344452 -0.56597054 -0.21542135 -0.27152225 -0.20946151 -0.23333347 -0.29339942
-0.7367207 -0.21526146 -0.21079005 -0.40130618 -0.23439962 -0.19369255 -0.2415282 -0.30091953
-0.23295718 -0.17659038 -0.3932281 -0.27820095 -0.23109941 -0.20737746 -0.21915777 -0.32831895
-0.21816616 -0.29672155 -0.26752415 -0.23371384 -0.28335395 -0.23681787 -0.34230933 -0.1887657
-0.3543033 -0.20062679 -0.33879566 -0.23716313 -0.23468713 -0.361876 -0.2884619 -0.23637702
-0.3167881 -0.22426052 -0.19915132 -0.29356748 -0.19931665 -0.23008463 -0.24390171 -0.29977733
-0.23034129 -0.24794582 -0.30199105 -0.4319208 -0.2139784 -0.33271164 -0.25314668 -0.35225832
-0.23589262 -0.40020403 -0.18610087 -0.30081585 -0.37484932 -0.57453203 -0.5034707 -0.14877023
-0.22799307 -0.2694406 -0.154777 -0.6451101 -0.2727412 -0.32666978 -0.5895579 -0.30623135
-0.2861005 -0.2050907 -0.3074656 -0.23089206 -0.1896964 -0.2027502 -0.31944934 -0.2398411
-0.29125336 -0.247798 -0.34826377 -0.20584394 -0.2280378 -0.1970373 -0.26500562 -0.64746726
-0.25919387 -0.33872256 -0.2403488 -0.13000546 -0.77295107 -0.2159809 -0.24923258 -0.2782854
00000000: b19b 87be 0c8b 86be a53b 8cbe 2bd9 8dbe
00000010: 9ac8 89be 86c5 61be 1064 72be e060 eebd
00000020: b399 86be 9ee5 9dbe e706 cebe 345c 45be
00000030: 91ee 57be 57ec 17bf 715c 4abe 7c03 e2be
00000040: 8f6d 4ebe a74c 48bf 0322 6cbe 0b67 96be
00000050: f0ae 8ebe d180 12be e786 97be 3a3b 95be
00000060: 5d73 8ebe 7e45 39be ffbf 92be 4104 53be
00000070: 986b 8fbe 00b4 9abe c0ed 8fbe 1d98 96be
00000080: 9a0b 6fbe 0575 acbe 1a81 80be 28c6 a5be
00000090: 70f4 24be b209 92be 8a70 68be 2c03 65be
000000a0: e1f6 71be 83de 8ebe 91ed 8abe da51 5fbe
000000b0: 7aeb 46be 175a 86be b346 47be 45a2 93be
000000c0: 977c 74be c9e7 45be 0194 80be 23fd 59be
000000d0: cd44 7bbe 3256 59be c87e 9ebe ad96 b6be
000000e0: 2eb1 5dbe e1e4 5cbe 936f 57be 5401 6dbe
000000f0: 92a8 3cbf 2cd5 87be b7f9 6abe 7e05 88be
00000100: 3395 7ebe 6510 7dbe 043f 92be fba4 afbe
00000110: 4d16 3cbe 19a2 94be 127d 9abe 6bc2 92be
00000120: 6f2c a1be 84cc a5be 25a6 7cbe 61e1 8fbe
00000130: f635 5bbe de69 6cbe 73da adbe b536 6dbe
00000140: 05c4 3dbf 4398 e1be e753 63be d4b5 7dbe
00000150: 7022 6fbe 1294 60be 6f4f 35bf a6ca 87be
00000160: c719 2ebf bbc0 20bf 2f39 2cbe d758 e2be
00000170: 1205 a6be 0bf0 95be 0d01 5bbe d5aa a4be
00000180: 6446 97be 8905 7fbe 7c2e 65be 06c8 b1be
00000190: 6d7e 5dbe 4670 42be 20c4 94be d8a6 8dbe
000001a0: 449b 93be dad4 8ebe 2b68 92be 11d5 57be
000001b0: f952 18bf 2e9b 8fbe e96e fcbe 5270 a6be
000001c0: b69e acbe aa44 72be 7a0a 4ebe 4a66 ffbe
000001d0: 4f29 61be 7d0e 3ebe 7151 9ebe fe85 8fbe
000001e0: 138f 83be 013b 31be 4aeb 76be e679 71be
000001f0: 8dce 74be 8357 a8be a8ed 3bbe 15fe 5abe
00000200: 70d4 04bf 9ac6 33be 40b7 78be 9060 adbe
00000210: 9b00 3cbf 882d 44be e542 6ebe 5b4f 66be
00000220: 20c1 6bbe c12e a4be 6ebb 2cbe a21b 65be
00000230: aae5 86be 3f44 52be 6d6f 99be ae9d 40be
00000240: 12fa a4be e233 78be ba3a 52be 2c50 84be
00000250: ac67 64be 423e 65be 1ff9 6fbe ba0a 7abe
00000260: 5ef6 35be 4c53 23be cea0 8dbe 69a3 89be
00000270: b5b1 a0be 200f a7be 073a 4bbe 42d3 76be
00000280: 6fbb 90be 6712 70be 72e3 10bf 6a97 5cbe
00000290: f704 8bbe 147d 56be f8ee 6ebe 7338 96be
000002a0: ba99 3cbf 806d 5cbe 59d9 57be 0178 cdbe
000002b0: 7406 70be 5757 46be 2b53 77be 2012 9abe
000002c0: 548c 6ebe 1cd4 34be 3255 c9be 5b70 8ebe
000002d0: 53a5 6cbe c25a 54be e56a 60be 6c19 a8be
000002e0: f366 5fbe e3eb 97be edf8 88be ae52 6fbe
000002f0: c513 91be 6280 72be 2b43 afbe cc4b 41be
00000300: 3e67 b5be 1c71 4dbe a076 adbe e4da 72be
00000310: d351 70be d047 b9be 47b1 93be d10c 72be
00000320: 0d32 a2be 8da4 65be 53ee 4bbe 7a4e 96be
00000330: aa19 4cbe 4e9b 6bbe 5fc1 79be 6a7c 99be
00000340: 96de 6bbe 82e5 7dbe 929e 9abe b924 ddbe
00000350: 271d 5bbe 2e59 aabe 719c 81be 345b b4be
00000360: d68d 71be 8be7 ccbe 3a91 3ebe 8904 9abe
00000370: 40ec bfbe 8814 13bf 75e3 00bf 3957 18be
00000380: 0477 69be 1ef4 89be dd7d 1ebe ef25 25bf
00000390: bca4 8bbe 4341 a7be 44ed 16bf 5bca 9cbe
000003a0: c47b 92be 4c03 52be 226c 9dbe f86e 6cbe
000003b0: c63f 42be c09d 4fbe dd8e a3be e898 75be
000003c0: 291f 95be c2be 7dbe a14f b2be c1c8 52be
000003d0: be82 69be 25c4 49be d1ae 87be 6ac0 25bf
000003e0: 0fb5 84be 0b6d adbe ff1d 76be 2720 05be
000003f0: 1fe0 45bf 192a 5dbe d336 7fbe 6d7b 8ebe

proxy_theta_raw.weight f4 [2493, 1]
1.5982847 0.9554914 1.0964724 1.2947649 0.91578424 1.4778383 1.7724937 1.4520488
1.6692451 1.6029062 0.82406783 0.9439038 1.2956547 0.51179034 0.45366466 0.56509084
0.41370273 0.54533494 0.48114747 0.6644719 0.69040424 0.64665127 0.5202726 0.73995334
0.86323667 1.0890502 1.3134575 1.3446676 0.8826218 0.8244251 0.7826491 1.4574744
1.4356979 1.8893001 1.5862402 1.5210549 1.4292418 1.5392635 1.552638 1.3123934
1.4247161 1.6046078 1.3601174 1.6719618 1.5781907 1.7176294 1.7143201 1.4081033
1.3884705 1.4373653 1.884326 1.4377679 1.4514059 1.6584557 1.5969415 1.733912
1.730788 1.588923 1.3764765 1.5375367 1.555807 1.087863 1.6551622 1.5653107
1.7089258 1.5750211 1.627961 1.6152856 1.7486123 1.565705 1.1750052 1.590682
1.7753415 1.6156737 1.8162429 1.7524861 1.6452655 1.5893923 1.6400212 1.7378058
1.4381701 1.5753678 1.5350512 1.4894699 1.5832886 1.3928989 1.6412641 1.6317778
1.408442 1.5834672 1.4975243 1.275219 1.3008113 1.4429467 1.4704448 1.604841
1.2562405 0.81661135 0.7973113 0.8228831 1.460566 0.8045716 0.67955464 0.6414879
0.58163685 0.7832818 0.9319629 0.8437835 0.869275 0.80486846 0.8647136 1.0041465
0.79704726 0.82769144 0.8735426 0.8907591 0.97992253 0.8065992 0.6583189 1.067237
0.96319157 0.97801447 0.9436577 0.9108083 0.80548996 0.6126768 0.7434087 0.48221254
0.40075743 0.51478696 0.46131718 0.70972013 0.7447472 0.7689343 0.8040205 0.65070647
0.64490867 0.47843593 0.95508444 0.9048453 0.5374243 0.50338566 1.6835853 0.51845336
0.5338633 0.5809583 0.65280795 0.4634763 0.60248744 0.9704554 0.80997276 0.3830062
0.5962388 0.99047256 0.47193715 0.49787587 0.8101907 1.0716355 0.48754936 0.67005926
0.73301405 0.5565632 0.5045028 0.5233462 0.52538943 0.5382595 0.5484254 0.51750964
0.58531505 0.74487096 0.76156336 0.9764707 0.73996663 0.6535517 0.87239313 0.63774174
0.4581933 0.6205327 0.67850024 0.764454 0.659879 0.9217972 0.7858481 0.62542295
0.91568077 0.749433 0.6666941 0.81904745 0.6782219 0.47825843 0.60702395 0.57715446
0.8977977 0.5408908 0.7216863 0.50738513 0.5409517 0.48851863 1.0487565 0.47047335
0.45570382 0.37898856 0.53749114 0.5155406 0.33041307 0.3323651 0.31306747 0.22579294
0.29038695 0.5229859 0.7372133 0.5065913 0.5838682 0.5476492 0.5440164 0.50093937
0.5133098 1.4486325 1.4292418 1.5392635 1.552638 1.4247161 1.6046078 1.6719618
1.3000532 1.5781907 1.3015884 1.6003742 1.7176294 1.7143201 1.3884705 1.4373653
1.306733 1.6969974 1.4159439 1.2005749 1.5944899 1.6138945 1.4020869 1.232244
1.4347004 1.5787425 1.2975775 1.6184876 1.2971791 1.6423478 1.5018677 1.6905159
1.6506549 1.5776224 1.3171444 1.4680231 1.588814 1.4756106 1.699977 1.5350512
00000000: 9894 cc3f 169b 743f 3559 8c3f dbba a53f
00000010: d670 6a3f ce29 bd3f 13e1 e23f bcdc b93f
00000020: d3a9 d53f 082c cd3f 1cf6 523f aea3 713f
00000030: 03d8 a53f b104 033f bc46 e83e cba9 103f
00000040: d8d0 d33e 129b 0b3f f658 f63e d51a 2a3f
00000050: 55be 303f f08a 253f 9630 053f 956d 3d3f
00000060: 14fd 5c3f ff65 8b3f 601f a83f 111e ac3f
00000070: 81f3 613f 860d 533f b15b 483f 858e ba3f
00000080: f3c4 b73f 96d4 f13f eb09 cb3f edb1 c23f
00000090: 65f1 b63f 9606 c53f d8bc c63f 82fc a73f
000000a0: 195d b63f ca63 cd3f 5418 ae3f d802 d63f
000000b0: 2702 ca3f 48db db3f d76e db3f bb3c b43f
000000c0: 67b9 b13f 96fb b73f 9831 f13f c708 b83f
000000d0: abc7 b93f 4748 d43f 9468 cc3f d4f0 dd3f
000000e0: 768a dd3f d461 cb3f 6230 b03f 01ce c43f
000000f0: af24 c73f 183f 8b3f 5bdc d33f 1a5c c83f
00000100: 15be da3f 4b9a c93f 0761 d03f aec1 ce3f
00000110: 87d2 df3f 0569 c83f 9266 963f 789b cb3f
00000120: 643e e33f 65ce ce3f a67a e83f 7751 e03f
00000130: 0f98 d23f 3571 cb3f 37ec d13f 6c70 de3f
00000140: f515 b83f a7a5 c93f 8f7c c43f f3a6 be3f
00000150: 33a9 ca3f 834a b23f f114 d23f 18de d03f
00000160: d447 b43f 0eaf ca3f e0ae bf3f 603a a33f
00000170: fc80 a63f 7ab2 b83f 8937 bc3f 6e6b cd3f
00000180: 7dcc a03f 710d 513f 981c 4c3f 78a8 523f
00000190: d4f3 ba3f 68f8 4d3f 4bf7 2d3f 8d38 243f
000001a0: 27e6 143f 2885 483f 1f95 6e3f 3202 583f
000001b0: ce88 5e3f dc0b 4e3f df5d 5d3f df87 803f
000001c0: 4a0b 4c3f 96e3 533f 7da0 5f3f ca08 643f
000001d0: 34dc 7a3f 497d 4e3f 9687 283f 399b 883f
000001e0: b993 763f 285f 7a3f 8d93 713f bc2a 693f
000001f0: 9734 4e3f 63d8 1c3f 0850 3e3f 90e4 f63e
00000200: 1430 cd3e 14c9 033f c431 ec3e 38b0 353f
00000210: c1a7 3e3f e1d8 443f 4ad4 4d3f b394 263f
00000220: bc18 253f 8ef5 f43e 6a80 743f f1a3 673f
00000230: a494 093f e2dd 003f b97f d73f 5cb9 043f
00000240: 44ab 083f afb9 143f 6c1e 273f c44c ed3e
00000250: 9e3c 1a3f c46f 783f 605a 4f3f 6319 c43e
00000260: 1ba3 183f 9c8f 7d3f bfa1 f13e 96e9 fe3e
00000270: a868 4f3f 5a2b 893f 12a0 f93e 0189 2b3f
00000280: cfa6 3b3f ed7a 0e3f 1827 013f 04fa 053f
00000290: ec7f 063f 60cb 093f 9b65 0c3f 837b 043f
000002a0: 35d7 153f ddaf 3e3f d1f5 423f fcf9 793f
000002b0: 746e 3d3f 2a4f 273f 2855 5f3f 0b43 233f
000002c0: 5098 ea3e 3bdb 1e3f 31b2 2d3f 42b3 433f
000002d0: d5ed 283f e7fa 6b3f 572d 493f b81b 203f
000002e0: 0e6a 6a3f d7da 3f3f 77ac 2a3f 18ad 513f
000002f0: f39f 2d3f 4ade f43e ec65 1b3f 65c0 133f
00000300: 12d6 653f d277 0a3f 6fc0 383f fee3 013f
00000310: d07b 0a3f 1d1f fa3e a73d 863f e2e1 f03e
00000320: 0352 e93e ca0a c23e 0599 093f 78fa 033f
00000330: e72b a93e c22b aa3e 614a a03e 4436 673e
00000340: 99ad 943e 67e2 053f 03ba 3c3f f8af 013f
00000350: 6378 153f bd32 0c3f a944 0b3f 903d 003f
00000360: 4568 033f ca6c b93f 65f1 b63f 9606 c53f
00000370: d8bc c63f 195d b63f ca63 cd3f d802 d63f
00000380: 2568 a63f 2702 ca3f 739a a63f 10d9 cc3f
00000390: 48db db3f d76e db3f 67b9 b13f 96fb b73f
000003a0: 0743 a73f 3637 d93f a63d b53f 70ac 993f
000003b0: 3f18 cc3f 1894 ce3f 9577 b33f 2cba 9d3f
000003c0: 43a4 b73f 3c14 ca3f 0517 a63f 9a2a cf3f
000003d0: f709 a63f 7438 d23f 333d c03f d362 d83f
000003e0: a948 d33f 88ef c93f 3098 a83f 2ee8 bb3f
000003f0: 425e cb3f cfe0 bc3f d998 d93f 8f7c c43f
