GIRT/checkpoint/girt2pl-assist0910-user-split/checkpoint-epoch-12.pt (torch, 153997 bytes, 3 tensors)

proxy_a_raw.weight f4 [17671, 1]
000000 61 3e 58 be 2f 06 75 3d be 58 b6 be ac 25 20 3f
       -0.21117546 0.05982035 -0.3561458 0.6255748
000010 0a e1 28 be c1 47 27 3e 05 b2 03 3e db 5a 4d be
       -0.16492096 0.16335966 0.12860878 -0.2005419
000020 49 ff b2 3e 1a 12 93 3e 21 02 e5 3e cf 92 3d 3e
       0.34960392 0.28724748 0.44728187 0.18513034
000030 2d 37 1c 3e dc c4 1e 3f 1d 1e b1 3d fd fd df 3e
       0.15255423 0.62019134 0.08648322 0.43748465
000040 99 9e dc 3d 8b 67 69 3f 39 96 63 bd 85 12 97 3d
       0.107724376 0.9117362 -0.055563185 0.07376579
000050 28 a2 55 3e 84 e4 57 be f7 ac 20 be 12 6a 8e 3d
       0.20862639 -0.21083266 -0.15690981 0.06953825
000060 95 4f 19 be f1 da f1 bd 4a a5 6f 3e 81 94 8a 3e
       -0.14971764 -0.11809338 0.23402897 0.27066424
000070 32 2c 64 3e c3 0b 40 3e 3d 2f 9d 3e af ae be 3e
       0.22282484 0.18754487 0.30700102 0.37242648
000080 cd 24 cd 3d 8c 76 83 3e 39 0b 83 3e 7f 10 18 bd
       0.10016785 0.25676382 0.255945 -0.037125107
000090 75 7c 20 3d 8f 5f 50 3e 5f eb a4 3e 08 9c 6d be
       0.03918119 0.20348953 0.32210824 -0.23204052
0000a0 0a 07 a7 3e c1 5c 86 3e c0 8f 89 3e 6e f1 39 be
       0.32622558 0.2624264 0.26867485 -0.18158504
0000b0 97 6b bb 3e b7 b8 70 3e ca 78 3d 3e a0 3a 18 3e
       0.36605522 0.23507963 0.18503109 0.14866114
0000c0 39 22 8f 3e 71 68 31 3e fe ff a8 3e 16 5d 1b 3e
       0.27955797 0.17324997 0.33007807 0.15172228
0000d0 66 59 ad 3e e8 8d 29 3e 53 e6 81 3e c2 87 48 be
       0.33857268 0.16558039 0.25371036 -0.19583037
0000e0 2d 69 47 3e ef b3 26 3e aa 0e 37 be 56 6d 6c 3e
       0.19473715 0.16279577 -0.17876688 0.23088583
0000f0 74 9e 4a 3f 1b fb 45 3e 50 5c 1d 3e e9 32 9a 3e
       0.7914803 0.1933407 0.15367246 0.30116966
000100 c1 79 6c be 51 98 73 3e 4e e9 75 3e ba 93 01 3f
       -0.2309332 0.23788573 0.2401478 0.5061604
000110 25 c6 22 be 9b ee b0 3e 9a fb 9b 3e 8b 67 aa 3e
       -0.15895899 0.34557042 0.30465394 0.33282122
000120 75 5c de 3e 06 ca 99 3e 64 3e 8b 3e dc 41 a9 3e
       0.43429914 0.30036944 0.27196038 0.3305806
000130 1f 3a 05 3e e8 56 31 3e a3 a6 13 3e b9 bf 50 be
       0.13010453 0.17318308 0.14419036 -0.20385636
000140 70 d7 49 3f d5 dc ec 3e 2f c2 80 3e 96 9e 85 3e
       0.78844357 0.4626223 0.2514815 0.26097554
000150 8c 24 43 3e 78 94 67 3e 0a b9 4c 3f 57 0a 49 3e
       0.1905691 0.2261523 0.7996985 0.1963285
000160 af b3 39 3f 6b 8c 30 3f 6e b2 04 be 6b e6 de 3e
       0.725398 0.6896426 -0.1295869 0.4353517
000170 ad 50 a0 3e 2e 79 93 be fb c3 81 3e af 84 8b 3e
       0.3131155 -0.2880339 0.25344834 0.27249667
000180 b8 b3 64 3e 49 52 ab 3e 2d 73 0a 3e 8b 1a 91 3e
       0.22334182 0.33461216 0.13520499 0.28340563
000190 0f 7c a4 3e 44 ee 26 3e b4 84 80 3e 13 8b 76 3e
       0.321259 0.16301829 0.25101244 0.2407649
0001a0 36 23 af 3e d8 0a 8e 3e 8e 34 ac 3e 2d e4 23 bd
       0.3420655 0.27742648 0.33633846 -0.040012527
0001b0 ae d1 25 3f da e3 d6 3e b8 35 fc 3e 4e 48 ef 3d
       0.6477307 0.41970712 0.49259734 0.11683713
0001c0 03 9b b3 3e ab a3 22 be f0 0b dc bc 35 b1 02 3f
       0.35079202 -0.15882747 -0.026861161 0.51051646
0001d0 cb 67 ce 3d 81 27 8c bd 7a 63 cb bd 62 91 5d 3e
       0.10078391 -0.06843472 -0.09931083 0.2163749
0001e0 1a 9f 90 3e 72 7d 63 3e 3a 4a fa 3d 6e da 49 3e
       0.28246385 0.22215822 0.12221189 0.1971223
0001f0 65 38 20 3e 98 c6 8b 3e 5f b4 15 3e f7 5d 0c 3e
       0.15646513 0.27299953 0.14619587 0.1370772
000200 d6 eb 0a 3f 4b 87 2f be 6d 8c 39 be c4 cc d2 3e
       0.5426611 -0.17141454 -0.18119974 0.4117185
000210 7e 77 3f 3f 50 8c 48 3e ca 94 08 3e 96 f2 0d bd
       0.74791706 0.19584775 0.13338009 -0.034655176
000220 5f f4 6e 3e 4d 8a ea 3e 0f ff 2f 3e 77 91 fd 3c
       0.23335408 0.4580864 0.17187141 0.030953152
000230 2d 44 04 bd a0 f8 9d be c1 0b 15 be e9 04 47 3d
       -0.03229158 -0.30853748 -0.14555265 0.048588667
000240 29 d9 22 3e a4 37 3f 3e 6d 78 5c 3e c0 0d 77 3e
       0.15903153 0.18673569 0.21530314 0.24126339
000250 72 69 5a 3e e9 2f 78 3e 16 1a 0f be 97 f7 10 be
       0.21329287 0.24237026 -0.13974795 -0.14156948
000260 0d ba 26 3d d5 9d 14 3e 0d ae 34 be d8 9f 90 3e
       0.040704776 0.14513333 -0.1764452 0.2824695
000270 32 6b bc 3e fb 3c dd 3d 2b 26 42 3e 01 11 31 3e
       0.36800534 0.10802647 0.18959872 0.17291643
000280 3d 32 b6 3e 4a fa 4c 3e ad b4 17 3f bf fd 5d 3e
       0.35585204 0.20017353 0.59260064 0.21678828
000290 95 f7 a2 be e1 79 a4 3e 3d 44 8a 3e f7 4f 8a 3e
       -0.31829515 0.32124236 0.27005187 0.27014133
0002a0 00 f2 4a 3f 3c 12 34 3e 69 cf 6d 3e 3c 8e fe 3e
       0.7927551 0.17585081 0.23223652 0.4971789
0002b0 07 83 70 be 71 0d 56 3e 23 af 37 be 87 d9 5d 3e
       -0.23487483 0.20903565 -0.17937903 0.21665011
0002c0 f3 cc 57 3e f9 2a 9f bc 60 e1 0a 3f db dc 9c bd
       0.21074276 -0.01942967 0.54250145 -0.07659312
0002d0 b4 f8 43 3e 3c 98 3e 3e c6 e9 88 3e d7 aa 80 3e
       0.19137841 0.1861276 0.26740855 0.2513034
0002e0 69 43 56 3e b7 2f 7f 3e 3a d6 c9 3e 5a cc 43 3e
       0.20924152 0.24920546 0.39421254 0.19120923
0002f0 62 a7 6b 3e bc 51 3c 3e e5 32 91 3e 53 2a fa ba
       0.2301307 0.18390554 0.28359142 -0.00190861
000300 98 a6 ae 3e aa de 25 3e 96 ba 86 3e da aa 52 3e
       0.34111476 0.16198221 0.2631423 0.20572987
000310 16 d8 a2 3e 1e d7 ac 3e 27 60 c0 bd a0 3e 8e be
       0.31805485 0.3375787 -0.093933396 -0.27782154
000320 d3 bb 83 be 25 69 81 be cf 9a 08 be 7e f3 fa 3d
       -0.25729236 -0.2527553 -0.13340305 0.12253474
000330 c8 3c f4 3d bd 1b 6e 3e ba be 72 3e 49 9c 92 3e
       0.119256556 0.23252769 0.23705569 0.2863486
000340 49 b7 2c be 62 3a 53 3e 42 dc f3 3d 70 2d 13 3f
       -0.16866793 0.2062774 0.11907245 0.5749121
000350 12 3b 31 bd ad a8 d5 3e f4 fa 40 be 2b be c8 3e
       -0.043269224 0.41730252 -0.18845731 0.39207587
000360 94 a2 8a bc 19 0a b6 3e 83 52 4a 3e 64 77 92 3e
       -0.016923226 0.3555458 0.19758038 0.28606713
000370 23 81 ba 3e f4 c8 1d 3f e6 b6 01 3f 4b b4 59 be
       0.36426648 0.61634755 0.50669706 -0.21260183
000380 13 6a 09 be a4 68 62 3e ae 9e 44 3e eb aa 30 3f
       -0.1341937 0.2211023 0.19201156 0.690108
000390 20 51 8b 3e 56 0b a2 3e 3f c6 17 3f 60 d1 0c 3f
       0.2721033 0.31649274 0.59286875 0.5500698
0003a0 a0 77 c2 3e 18 66 3b 3e ff bb 0f 3e 67 8c 3a be
       0.37981892 0.18300664 0.14036559 -0.18217622
0003b0 9d 0a 94 3e ab d3 fd 3d 77 28 cc 3e 7e 4a 6b 3e
       0.28914347 0.12393888 0.39874622 0.22977635
0003c0 87 82 c6 bd 17 f1 51 3e fd fb 66 be d4 2e 58 3e
       -0.09692865 0.20502125 -0.22557063 0.21111614
0003d0 5b b3 58 3e ee 38 03 be 20 fb f6 3d 60 84 3a 3f
       0.21162169 -0.12814686 0.12059617 0.7285824
0003e0 50 50 b2 3e 1c 07 16 3e 42 6a 40 3e 91 18 73 be
       0.348269 0.1465115 0.18790534 -0.2373984
0003f0 61 1e 66 3f 51 fa c5 3d f1 4c 8b 3e 11 0c c4 3e
       0.89890105 0.09666885 0.2720714 0.38290456

proxy_b_raw.weight f4 [17671, 1]
000000 c8 7a 95 be e3 b7 96 be 26 34 8e be 70 74 96 be
       -0.29195237 -0.2943717 -0.2777416 -0.2938571
000010 92 05 95 be ef 70 71 be 8a ae 68 be 3d f8 e9 bd
       -0.29105812 -0.23578237 -0.22722831 -0.11424301
000020 e4 f9 8c be af f1 9a be 42 32 c1 be 24 ba 59 be
       -0.275344 -0.30262515 -0.37733656 -0.21262413
000030 da 8a 68 be dc 31 14 bf 81 0a 43 be 62 aa e8 be
       -0.22709218 -0.5788858 -0.19046976 -0.45442492
000040 46 96 5f be 51 0a 4d bf c6 fa 7f be 41 b1 a0 be
       -0.21834669 -0.80093867 -0.24998006 -0.31385234
000050 2a e2 9f be 5e a4 e5 bd 07 b3 a8 be 30 98 a0 be
       -0.31227237 -0.11212991 -0.32949087 -0.3136611
000060 25 53 a8 be c3 53 33 be 35 53 9f be 4d 46 5b be
       -0.32875934 -0.17512421 -0.3111817 -0.21413536
000070 fb 5c 9b be cc bb a4 be ae 31 9a be 4d 35 9b be
       -0.30344376 -0.32174528 -0.30116028 -0.30314103
000080 ee 86 69 be 87 5e ae be 8d d7 58 be 67 ea ad be
       -0.22805378 -0.34056494 -0.21175976 -0.33967897
000090 3b 07 0d be d5 cf 95 be 89 69 66 be 62 35 75 be
       -0.1377229 -0.29260126 -0.22501196 -0.23946145
0000a0 6c ee 81 be af 2e 95 be c6 17 9e be db c4 41 be
       -0.25377214 -0.2913718 -0.30877513 -0.1892275
0000b0 ac 53 49 be 77 02 86 be 8a 6a 56 be 76 fd 98 be
       -0.19660825 -0.26173756 -0.20939079 -0.29880875
0000c0 d1 3d 59 be 80 60 39 be dd 13 88 be 8e 1e 61 be
       -0.21214987 -0.18103218 -0.26577654 -0.21984312
0000d0 e6 07 84 be ac c1 5b be ab 2b b5 be 26 4f c4 be
       -0.25787276 -0.21460599 -0.3538488 -0.38341635
0000e0 02 3f 64 be d6 4e 65 be 89 37 6a be c2 29 75 be
       -0.2228966 -0.22393355 -0.22872747 -0.2394171
0000f0 e0 2c 30 bf c1 cb 82 be fd b7 7f be a4 ea 8e be
       -0.68818474 -0.25546077 -0.2497253 -0.27913392
000100 d3 96 7b be 86 9d 8a be 12 37 a1 be d2 9a b3 be
       -0.24569254 -0.27073306 -0.31487328 -0.35079056
000110 d9 16 21 be 61 53 93 be d9 5b a7 be c5 f5 9f be
       -0.15731372 -0.2877455 -0.32687262 -0.31242195
000120 18 28 96 be 3e a8 b4 be 29 0e 85 be a3 e0 94 be
       -0.29327464 -0.3528461 -0.25987366 -0.29077634
000130 b2 1b 65 be aa 8b 6c be 64 cf b7 be bd fc 81 be
       -0.22373846 -0.23100153 -0.35900414 -0.25388137
000140 dc 81 31 bf 20 9c db be 42 d7 69 be 9d c1 86 be
       -0.69338775 -0.4289255 -0.2283602 -0.2631959
000150 9e df 89 be 80 9e 6c be 27 a9 37 bf 8b 67 91 be
       -0.2692842 -0.23107338 -0.7174248 -0.2839931
000160 6f f0 20 bf de d1 26 bf e6 8a 30 be 7c f6 e8 be
       -0.6286687 -0.6516398 -0.17240486 -0.45500553
000170 b7 9f 8f be 8a 80 ab be 43 23 75 be cb 44 ab be
       -0.2805154 -0.33496505 -0.23939233 -0.33450922
000180 14 97 a4 be ef e9 8f be 92 4b 82 be d8 06 d5 be
       -0.32146513 -0.28108165 -0.2544828 -0.41606784
000190 f0 fd 54 be ae e6 2a be 8c 27 a9 be 32 af 9b be
       -0.20799994 -0.1668956 -0.33037984 -0.304071
0001a0 c0 f8 88 be 7a f2 90 be 6a e7 a0 be 56 c8 63 be
       -0.2675228 -0.28309995 -0.31426555 -0.22244391
0001b0 4b a1 1d bf 07 58 a0 be 30 ca fd be 95 e7 ad be
       -0.6157424 -0.3131716 -0.4956832 -0.33965746
0001c0 03 e2 92 be 96 66 7f be b2 fa 5a be 1f 7d 04 bf
       -0.28688058 -0.24941477 -0.21384695 -0.5175342
0001d0 7f 99 75 be b0 04 4f be d0 82 a6 be 23 d0 92 be
       -0.23984335 -0.20216632 -0.32521677 -0.2867442
0001e0 4b c7 89 be 80 7e 26 be f6 70 81 be d0 9a 89 be
       -0.2690986 -0.16259193 -0.25281495 -0.26875925
0001f0 dc 84 8b be cd b3 bb be 95 ae 1c be 48 63 77 be
       -0.272498 -0.36660615 -0.15300973 -0.24158967
000200 a1 51 0c bf a9 2f 4b be 82 3c 8e be 10 fe c1 be
       -0.54812056 -0.198424 -0.2778054 -0.37889147
000210 ab ab 2b bf 02 d2 24 be 13 84 6d be f1 31 7c be
       -0.6705882 -0.16095737 -0.23194914 -0.24628426
000220 ac c9 80 be 2f 37 ae be 26 28 34 be 18 f5 65 be
       -0.25153863 -0.34026477 -0.1759344 -0.22456777
000230 48 db 94 be 3a 9c 69 be 9b c9 b2 be 4a 2a 54 be
       -0.29073548 -0.22813502 -0.34919438 -0.20719257
000240 25 c3 bd be 9b 13 76 be 50 bf 5e be 82 33 93 be
       -0.37062946 -0.24030916 -0.21752667 -0.28750235
000250 05 dc 69 be 16 f2 80 be 82 c9 80 be 4d 07 7d be
       -0.22837837 -0.25184697 -0.25153738 -0.24709816
000260 c8 41 2e be d6 1f 2a be d0 1f 9a be 42 0e 9e be
       -0.17017281 -0.16613707 -0.30102396 -0.30870253
000270 7a 9c a6 be ee 65 bd be 25 57 43 be c1 87 76 be
       -0.32541257 -0.3699183 -0.19076212 -0.24075224
000280 0f 28 91 be 9a c4 80 be 62 cb 1a bf 11 c9 6f be
       -0.28350875 -0.25149995 -0.6046659 -0.23416544
000290 fb c8 9b be dc 51 5a be f0 e6 80 be 8d 9e 93 be
       -0.30426773 -0.2132029 -0.2517619 -0.28831902
0002a0 94 54 30 bf f1 67 6c be 44 a3 3c be 8b 34 d9 be
       -0.68879056 -0.23086525 -0.18421656 -0.424229
0002b0 60 46 7e be f9 3f 55 be a7 00 8d be a6 03 ae be
       -0.24831533 -0.20825185 -0.2753956 -0.3398716
0002c0 e0 f9 5f be ff 8c 41 be 89 67 cf be 76 6f 97 be
       -0.21872663 -0.18901442 -0.4050868 -0.29577225
0002d0 3b f3 6b be 4d f6 40 be 1c a2 45 be 4b 5a a8 be
       -0.23042004 -0.18843956 -0.19300121 -0.32881388
0002e0 a7 95 78 be 1c 00 9d be 8c c3 87 be f3 9c 83 be
       -0.24275838 -0.30664146 -0.26516378 -0.2570568
0002f0 99 4c 85 be 93 dc 84 be c0 cc b4 be b8 7d 38 be
       -0.26035002 -0.25949535 -0.35312462 -0.18016708
000300 40 c9 b7 be 0e 9f 52 be 5e f5 a8 be 06 d7 87 be
       -0.3589573 -0.20568487 -0.329997 -0.26531237
000310 ec dd 81 be de af bb be 33 1c a6 be d5 50 76 be
       -0.25364625 -0.36657614 -0.3244339 -0.24054272
000320 cd 64 ad be c4 05 79 be c8 77 65 be 3f f1 9e be
       -0.33865967 -0.24318606 -0.22408974 -0.3104343
000330 59 11 5b be dd 45 83 be db 68 5b be 50 5e 9e be
       -0.21393336 -0.2563924 -0.21426718 -0.3093133
000340 58 09 81 be 63 a2 85 be 4b fa 9e be 02 d8 e2 be
       -0.2520244 -0.26100454 -0.31050333 -0.44305426
000350 b3 bb 6e be 0a 89 c0 be e3 65 84 be 50 05 c7 be
       -0.23313789 -0.37604553 -0.25858983 -0.3887124
000360 a2 90 6f be 37 42 cc be ad 78 49 be 34 27 ab be
       -0.23395017 -0.39894268 -0.1967494 -0.33428347
000370 07 fe c2 be 89 d7 16 bf 42 bd fd be 53 65 02 be
       -0.38084432 -0.5892263 -0.49558455 -0.12733965
000380 31 2a 81 be 07 1d 95 be fa 57 dc bd 9a c6 28 bf
       -0.25227502 -0.2912371 -0.10758968 -0.6592804
000390 ab 05 91 be 2d e2 b4 be 3a e7 0f bf 36 b9 9f be
       -0.28324637 -0.35328808 -0.562122 -0.31195992
0003a0 5a 6e 9c be e7 ce 5a be ce a8 a4 be c5 48 76 be
       -0.30552942 -0.2136799 -0.32160038 -0.24051197
0003b0 74 13 43 be bc cf 60 be 8e 99 ab be 92 9b 70 be
       -0.1905039 -0.21954244 -0.3351559 -0.23496845
0003c0 b9 81 a2 be 5d 82 8d be 30 32 c2 be f9 9f 60 be
       -0.31739596 -0.27638522 -0.37928915 -0.21936025
0003d0 50 e9 80 be ee 90 3e be 61 80 9c be ba 95 2a bf
       -0.25178003 -0.18609974 -0.30566695 -0.66634715
0003e0 90 76 8a be 2c 7f c3 be b6 51 83 be e1 88 ca bd
       -0.2704358 -0.38182962 -0.25648278 -0.09889389
0003f0 6f 51 44 bf 51 bc 64 be 41 c8 84 be 79 1f 99 be
       -0.7668676 -0.22337462 -0.25934032 -0.29906824

proxy_theta_raw.weight f4 [2493, 1]
000000 21 f0 ed 3f 84 f6 8e 3f 41 c1 a4 3f 5b 91 c0 3f
       1.8588907 1.1168981 1.2871476 1.5044359
000010 f4 be 88 3f b2 4f df 3f 33 b4 02 40 a9 58 dd 3f
       1.0683274 1.7446196 2.0422485 1.7292682
000020 ea b3 fa 3f b1 79 f2 3f 34 09 6c 3f 5d 52 87 3f
       1.9586155 1.8943387 0.9220154 1.057201
000030 96 6d c2 3f 1e 54 1a 3f 9a a6 04 3f 0d 2e 29 3f
       1.5189693 0.602846 0.51816714 0.6608589
000040 08 5a ef 3e 9a 7c 22 3f 6a 49 0d 3f 52 73 47 3f
       0.46748376 0.63471377 0.55190146 0.7791034
000050 ad ef 4c 3f 5a 38 41 3f eb 66 1c 3f e7 aa 58 3f
       0.80053216 0.7547661 0.6109454 0.84635776
000060 81 e6 81 3f 44 41 9e 3f f7 54 c4 3f 6a af c9 3f
       1.0148469 1.2363667 1.5338429 1.5756657
000070 30 38 85 3f 7c b4 75 3f 73 97 6a 3f 02 4b da 3f
       1.0407772 0.9597852 0.91637343 1.705414
000080 0a ea d9 3f 0b e7 0d 40 67 64 e2 3f 6d a9 e3 3f
       1.7024548 2.2172267 1.768689 1.778608
000090 0a bb c8 3f cf d4 de 3f 4d 0a e1 3f 77 76 c1 3f
       1.568208 1.7408694 1.7581269 1.5114278
0000a0 88 44 ce 3f 1d 5c e8 3f 39 79 c6 3f f0 8b e9 3f
       1.6114664 1.8153111 1.5505744 1.824583
0000b0 15 ec dd 3f 7e 33 f2 3f b7 16 f1 3f c9 70 ce 3f
       1.7337672 1.8921964 1.8835057 1.6128169
0000c0 90 d5 ca 3f 9d b0 cf 3f 75 3a 04 40 14 9d c8 3f
       1.5846424 1.6225773 2.066068 1.5672936
0000d0 29 63 d0 3f 16 e2 e9 3f cd 1c e8 3f 25 cd f9 3f
       1.6280261 1.8272121 1.8133789 1.951573
0000e0 af d2 f9 3f 5a 18 e5 3f d5 13 cb 3f c2 8d e1 3f
       1.951742 1.7898057 1.5865427 1.7621386
0000f0 c8 ab e0 3f ce a8 98 3f ba 95 ed 3f 47 76 e0 3f
       1.7552423 1.1926515 1.8561318 1.7536095
000100 fa 7c f0 3f 20 77 e6 3f 2f 1d ea 3f 33 5c e0 3f
       1.878814 1.8005104 1.8290156 1.7528137
000110 80 27 f6 3f 1c 5e e2 3f 2a cc a9 3f 55 1e e5 3f
       1.9230804 1.768497 1.3265431 1.7899882
000120 06 6e fc 3f 53 c0 e3 3f f1 da f7 3f 7e 0c fa 3f
       1.9721076 1.7793068 1.9363691 1.9535062
000130 84 b3 eb 3f 07 d8 e2 3f c7 1c de 3f 88 e5 e8 3f
       1.8414159 1.7722176 1.7352532 1.8195047
000140 77 33 d0 3f d3 a3 e4 3f 06 0d de 3f 34 b4 d8 3f
       1.6265706 1.7862495 1.7347724 1.6929994
000150 9e eb e3 3f d0 de cc 3f 35 d5 ea 3f 0a 5c ea 3f
       1.780628 1.6005497 1.8346316 1.8309338
000160 d5 ed cf 3f 5a ec e4 3f 5e 5b d9 3f 51 ae bc 3f
       1.6244456 1.7884629 1.6981008 1.4740697
000170 ec d8 bc 3f e1 c2 cf 3f 7c b0 d4 3f 33 79 e7 3f
       1.4753699 1.6231347 1.6616359 1.8083862
000180 57 df b2 3f 28 d5 6e 3f 4b 3b 69 3f a5 0b 76 3f
       1.3974408 0.93294 0.911061 0.9611152
000190 ca 93 ca 3f f7 90 7e 3f 10 05 50 3f ba ef 3c 3f
       1.5826352 0.9943995 0.81257725 0.73803294
0001a0 9c 62 35 3f a6 f5 71 3f 1b ff 8d 3f cf 79 79 3f
       0.7085359 0.94515455 1.1093477 0.9745149
0001b0 db 09 83 3f c6 b5 75 3f 3c 90 83 3f d2 d2 98 3f
       1.0237383 0.9598049 1.0278392 1.1939337
0001c0 92 13 73 3f e6 6e 7a 3f e0 a6 83 3f e0 1e 86 3f
       0.94951737 0.9782547 1.0285301 1.0478172
0001d0 5e 17 96 3f 28 e7 74 3f 11 e4 44 3f e8 20 a3 3f
       1.1725881 0.95665216 0.769105 1.2744417
0001e0 09 1c 91 3f 36 1a 94 3f c7 56 8f 3f df 3e 8a 3f
       1.1336681 1.1570499 1.1198357 1.0800437
0001f0 a0 bd 6d 3f 33 f5 34 3f db 80 5d 3f 02 1e 0d 3f
       0.9286747 0.70686644 0.8652474 0.55123913
000200 08 e7 e2 3e a6 69 16 3f 8a b6 0c 3f dd 37 4f 3f
       0.44316888 0.58754957 0.5496603 0.80944616
000210 d6 ec 5d 3f 31 a8 68 3f 29 8f 74 3f b3 8a 3f 3f
       0.8668951 0.9088164 0.95530945 0.74821013
000220 f0 46 3c 3f 59 f7 0a 3f 95 50 8f 3f a3 f0 85 3f
       0.7354574 0.5428367 1.1196467 1.0464061
000230 05 63 24 3f 70 92 13 3f 1d 9e fc 3f 1b 7c 1b 3f
       0.6421359 0.5764532 1.9735752 0.60736245
000240 dc fd 1e 3f aa 03 30 3f c8 a5 42 3f 12 ad 06 3f
       0.6210611 0.6875559 0.7603421 0.52607834
000250 48 8a 32 3f c2 89 97 3f f3 fa 75 3f 6c db e0 3e
       0.6974225 1.1838915 0.96086043 0.43917406
000260 96 93 30 3f a0 c6 93 3f fd 39 0c 3f 88 68 12 3f
       0.689752 1.154499 0.54775983 0.5719075
000270 2e 4f 75 3f df eb 9c 3f 22 37 10 3f 4c 0e 4d 3f
       0.95823944 1.2259482 0.56334126 0.8009994
000280 a4 04 60 3f d2 d2 27 3f 08 53 17 3f 70 3c 1e 3f
       0.8750708 0.6555606 0.5911107 0.6181097
000290 17 85 1f 3f 14 cd 21 3f c0 1a 27 3f ed 95 1a 3f
       0.62312454 0.6320355 0.6527519 0.6038502
0002a0 9c 62 32 3f e3 4d 59 3f c8 b6 5e 3f 3f d8 92 3f
       0.69681716 0.8488447 0.8699765 1.1472243
0002b0 fa ef 5b 3f a3 bd 3f 3f 46 62 81 3f 59 52 3e 3f
       0.8591305 0.7489874 1.0108116 0.743444
0002c0 d3 2d 08 3f 19 0f 36 3f ba a5 51 3f 6d d4 5d 3f
       0.5319492 0.7111679 0.81893504 0.8665226
0002d0 7a 81 49 3f 08 aa 88 3f 11 f7 71 3f fe 27 3e 3f
       0.7871319 1.067689 0.9451762 0.74279773
0002e0 1d 84 85 3f 9e 0e 66 3f 19 0c 4e 3f 99 aa 77 3f
       1.0430943 0.89866054 0.8048721 0.96744686
0002f0 35 13 4d 3f 30 f3 0f 3f db 83 33 3f f3 ea 2c 3f
       0.8010743 0.5623045 0.7012307 0.67546004
000300 b5 c3 8a 3f e3 a5 1b 3f 0c 6e 5d 3f 80 0a 1a 3f
       1.0840975 0.608 0.86496043 0.6017227
000310 50 c8 23 3f c7 bc 13 3f c7 ee 9d 3f 95 2a 0a 3f
       0.6397753 0.57709926 1.2338494 0.53971225
000320 d7 2f 06 3f 74 d0 e1 3e 9c b2 1e 3f bb 92 18 3f
       0.5241675 0.4410435 0.61991286 0.5959889
000330 16 7c b8 3e 43 44 ba 3e 63 dc ac 3e f1 64 80 3e
       0.3603217 0.36380205 0.33761892 0.25077012
000340 fe 96 ae 3e dc cf 15 3f 81 63 56 3f a0 a6 10 3f
       0.34099573 0.58520293 0.8374558 0.5650425
000350 f6 fd 22 3f 51 4e 24 3f 55 c8 25 3f 14 47 17 3f
       0.63668764 0.64182 0.6475881 0.5909283
000360 3b 40 18 3f bd b7 cc 3f 0a bb c8 3f cf d4 de 3f
       0.5947301 1.5993572 1.568208 1.7408694
000370 4d 0a e1 3f 88 44 ce 3f 1d 5c e8 3f f0 8b e9 3f
       1.7581269 1.6114664 1.8153111 1.824583
000380 a7 0d bd 3f 15 ec dd 3f cf db bc 3f 1d 77 e5 3f
       1.4769791 1.7337672 1.475458 1.7926975
000390 7e 33 f2 3f b7 16 f1 3f 90 d5 ca 3f 9d b0 cf 3f
       1.8921964 1.8835057 1.5846424 1.6225773
0003a0 65 fd c0 3f f4 46 e8 3f 65 da c4 3f dd 8e ae 3f
       1.507733 1.8146653 1.5379149 1.3637348
0003b0 f8 af dd 3f a4 34 ec 3f 9e c1 c7 3f ed 95 b1 3f
       1.7319326 1.8453565 1.5605962 1.3873879
0003c0 fb a7 cb 3f 49 aa d9 3f e2 ba be 3f 76 49 e1 3f
       1.5910639 1.7005092 1.4900782 1.7600543
0003d0 d1 f9 bc 3f fd 5a e8 3f 01 2e d1 3f f0 7d e1 3f
       1.4763738 1.8152767 1.6342164 1.7616558
0003e0 a4 54 e9 3f 62 ca dd 3f 47 a5 bb 3f 42 af cf 3f
       1.8228955 1.7327387 1.4659814 1.622536
0003f0 db bc d2 3f b1 d4 d5 3f 0e 42 e3 3f 06 0d de 3f
       1.6463884 1.6705533 1.7754533 1.7347724
