GIRT/checkpoint/girt2pl-assist0910-user-split/checkpoint-epoch-8.pt (torch, 153924 bytes, 3 tensors)

proxy_a_raw.weight f4 [17671, 1]
000000 aa b1 31 be 7f 6b 24 3d 86 51 89 be 44 db dc 3e
       -0.1735293 0.04014158 -0.2682001 0.43136036
000010 32 8e 0c be 22 6f 0a 3e f4 4c 06 3e 50 fe f8 bd
       -0.13726118 0.13518956 0.13115293 -0.12157881
000020 0a c4 96 3e 8a 72 98 3e 4e 84 e9 3e 96 74 0e 3e
       0.2944644 0.29774886 0.45608753 0.13911662
000030 f5 13 0f 3e 2d 09 19 3f e8 09 5a 3c 03 10 c4 3e
       0.13972457 0.59779626 0.013308026 0.38293466
000040 46 16 b1 3d 5a bc 4f 3f c2 9b 35 bd 55 1e 92 3d
       0.086468264 0.81146777 -0.044337995 0.071346916
000050 42 cc 27 3e af cd 2b be dc d9 0a be f1 df af 3d
       0.16386512 -0.16777681 -0.1355967 0.08587635
000060 08 c3 ed bd 07 82 b2 bd d8 59 65 3e 41 0c 5e 3e
       -0.11609465 -0.08716207 0.22397554 0.21684362
000070 68 5e 32 3e c7 8a 17 3e be 78 85 3e c1 6b 96 3e
       0.17418826 0.14799033 0.2606868 0.29379085
000080 b1 f8 da 3d 88 c9 6d 3e 4f 5d 8f 3e 53 01 78 bd
       0.10691965 0.2322141 0.28000876 -0.060548138
000090 ea 9f df ba 50 50 4e 3e 5d 26 8c 3e 20 43 33 be
       -0.0017061208 0.20147824 0.2737302 -0.17506075
0000a0 e9 e9 83 3e ca 4d 7a 3e 7b 38 63 3e 8e df 36 be
       0.25764397 0.24443737 0.22189514 -0.17858717
0000b0 08 3b 7a 3e 69 53 53 3e c4 29 27 3e 7d 63 23 3e
       0.24436581 0.20637287 0.16324526 0.1595592
0000c0 ff 58 8d 3e 14 28 11 3e 3d 61 8a 3e 07 18 0d 3e
       0.2760696 0.14175445 0.27027312 0.13778697
0000d0 9f dd 98 3e e5 f7 05 3e 8c dd 5d 3e e4 ca 3c be
       0.29856583 0.13082846 0.21666545 -0.18436772
0000e0 43 58 2b 3e 23 16 0d 3e 6c 19 ea bd a3 a5 5e 3e
       0.16732888 0.13777976 -0.1143063 0.21742873
0000f0 18 99 53 3f 7f de 38 3e ce c7 fe 3d 34 91 73 3e
       0.8265548 0.18053626 0.124404535 0.2378586
000100 aa bf 4e be c2 35 53 3e 55 65 45 3e d9 b6 da 3e
       -0.20190302 0.20625976 0.19276936 0.42717627
000110 df 20 20 be dd cc a4 3e 90 93 7e 3e 90 f8 89 3e
       -0.1563754 0.32187548 0.24860978 0.2694745
000120 01 24 d5 3e 9f 0f 81 3e ce 98 66 3e 33 cc 8d 3e
       0.4162903 0.2520723 0.22519228 0.27694854
000130 6f d7 d6 3d ae 1f 01 3e 40 24 1f 3e d1 47 34 be
       0.104903094 0.12609741 0.15541172 -0.17605521
000140 9a 44 53 3f 48 1a ec 3e 6d a7 3e 3e 89 1f 55 3e
       0.8252655 0.461138 0.18618555 0.20812811
000150 e3 29 0c 3e 28 dc 36 3e f8 97 36 3f f6 6d 35 3e
       0.13687854 0.1785742 0.71325636 0.17717728
000160 ce cc 3e 3f f4 de 14 3f 46 d8 b2 bd f7 6f c4 3e
       0.7453126 0.581527 -0.08732657 0.38366672
000170 a6 2d a0 3e 76 f6 51 be f9 2b 37 3e 8b 04 94 3e
       0.31284827 -0.20504174 0.17887868 0.28909716
000180 97 be 31 3e 9d 7f 7f 3e e7 ff b5 3d 73 95 6a 3e
       0.1735786 0.24951024 0.088867 0.22908573
000190 d5 e5 7d 3e 3a 4a 15 3e 3d f3 41 3e aa 2f 49 3e
       0.24794705 0.14579096 0.18940444 0.19647089
0001a0 7b 0f ba 3e e9 c1 6b 3e ce 06 8d 3e fa f0 d4 bc
       0.36339936 0.2302319 0.27544254 -0.025993813
0001b0 71 13 0c 3f ea f9 b4 3e 04 39 e0 3e 1e dc 1e 3e
       0.54717165 0.3534692 0.437935 0.15513656
0001c0 85 4f c5 3e f1 1f 0e be 45 52 df bc 75 87 db 3e
       0.3853723 -0.13879372 -0.027260909 0.42876783
0001d0 0b d0 d5 3d 0f 4c 39 bd 2a 08 dd bd 5e c2 43 3e
       0.10440072 -0.04523855 -0.10792573 0.19117114
0001e0 f2 17 80 3e a0 e1 1c 3e c0 d9 c2 3d 18 b3 1f 3e
       0.2501827 0.15320444 0.09514189 0.15595663
0001f0 63 f2 00 3e 68 6d 74 3e e3 74 27 3e 36 03 f1 3d
       0.12592463 0.2386986 0.16353182 0.117681906
000200 32 ce e2 3e 78 8e 0a be 51 13 0f be 92 f0 ad 3e
       0.4429794 -0.1353091 -0.13972212 0.33972603
000210 e1 02 53 3f a9 ed 3e 3e d3 fa f4 3d 6b 25 70 bd
       0.8242627 0.18645348 0.119619034 -0.058629435
000220 1a b0 33 3e 7f 5e cd 3e 02 38 24 3e fe 00 b0 3c
       0.17547646 0.40111157 0.1603699 0.021484848
000230 64 04 7a bd 7f 22 72 be d6 6d d4 bd ec c7 d5 3c
       -0.061039343 -0.23645972 -0.10372512 0.026096307
000240 98 4a 6d 3d 1c 95 48 3e c9 82 35 3e 44 a3 32 3e
       0.057932466 0.1958813 0.17725672 0.17445093
000250 2b 0a 49 3e 6c 22 42 3e ed 59 f3 bd e4 fb 0c be
       0.19632785 0.18958443 -0.11882386 -0.13767964
000260 d7 bf ad 3c ce 45 e7 3d 39 dd 0a be e5 69 56 3e
       0.02120964 0.11292611 -0.13560952 0.20938833
000270 66 17 a1 3e b0 7f 9d 3d 69 9c 35 3e 7b 86 2a 3e
       0.31463164 0.0769037 0.17735447 0.16652863
000280 9d d1 aa 3e ef c0 17 3e 7f e7 f6 3e 5b 58 2e 3e
       0.33363047 0.14819692 0.48223493 0.17025892
000290 35 b4 77 be 9c 72 69 3e aa 4e 57 3e d2 58 85 3e
       -0.24189837 0.22797626 0.21026102 0.26044327
0002a0 4a 0b 54 3f 39 43 1a 3e 72 1c 33 3e 08 a0 e0 3e
       0.82829726 0.15064706 0.1749132 0.43872094
0002b0 86 8b 4b be d1 95 29 3e 48 2a 13 be bd f0 2c 3e
       -0.19877443 0.16561057 -0.14371598 0.1688871
0002c0 14 e8 42 3e 5b 0a 20 bc fb 00 f0 3e 51 88 c4 bd
       0.19033843 -0.009768094 0.46875748 -0.09596313
0002d0 44 f0 2d 3e 10 e9 49 3e c9 5d 89 3e a3 f7 85 3e
       0.16986185 0.19717813 0.26829365 0.26165494
0002e0 b5 be 1c 3e e5 86 62 3e 94 ce 8b 3e 2c 7e 24 3e
       0.15307124 0.2212177 0.27306044 0.16063756
0002f0 7c 2b 68 3e 71 cf 15 3e 20 8d 90 3e 02 ea 2d bd
       0.22672838 0.14629914 0.2823267 -0.042459495
000300 83 6f 89 3e 33 4f 19 3e 46 6e 86 3e 48 27 2f 3e
       0.2684289 0.14971618 0.26256007 0.17104828
000310 70 7b 80 3e 7a b4 9c 3e f4 ea cc bd 43 48 52 be
       0.25094175 0.30606443 -0.10005751 -0.20535378
000320 88 91 55 be 8c ed 32 be c9 ef d0 bd 97 24 ba 3d
       -0.20856297 -0.1747343 -0.102019854 0.0908901
000330 02 e0 a6 3d 88 69 3a 3e e7 52 79 3e 6f 43 78 3e
       0.08148195 0.1820432 0.24348031 0.24244474
000340 11 63 0d be d3 54 3c 3e 68 8a 10 3e c9 cc 01 3f
       -0.13807322 0.18391733 0.14115298 0.507031
000350 65 5f 64 bd b3 e5 ab 3e 7e 85 26 be a8 a1 a5 3e
       -0.055755038 0.33573684 -0.1626186 0.32349896
000360 70 04 27 bd 28 2a a4 3e 3f 7c 22 3e f5 32 66 3e
       -0.040775716 0.32063413 0.15867709 0.22480376
000370 05 d8 a4 3e f9 de 06 3f a8 46 f1 3e 87 e2 3c be
       0.3219606 0.5268398 0.4712422 -0.18445788
000380 aa 4e f6 bd 49 36 3d 3e c0 d1 46 3e 0e 89 1b 3f
       -0.12026723 0.1847774 0.19415951 0.60756004
000390 78 10 79 3e 40 3b 84 3e 48 11 17 3f a1 97 e4 3e
       0.24322689 0.25826454 0.59010744 0.44646934
0003a0 fc 69 9a 3e 35 6a 16 3e c0 ab 8b 3d 08 53 1d be
       0.30158985 0.14688952 0.06819868 -0.15363705
0003b0 22 40 75 3e 44 f6 d1 3d c9 af b0 3e 54 e8 64 3e
       0.23950246 0.102520496 0.34509113 0.22354251
0003c0 ce d3 86 bd 75 85 34 3e eb ad 40 be 64 3a 08 3e
       -0.06583367 0.17629035 -0.18816344 0.13303524
0003d0 17 9b 25 3e e6 e1 ed bd d0 19 cd 3d f9 b6 20 3f
       0.16172443 -0.11615352 0.10014689 0.62779194
0003e0 00 fe 8c 3e 5a a6 35 3d 6d 68 29 3e d1 71 46 be
       0.27537537 0.0443481 0.16543742 -0.19379355
0003f0 29 14 5b 3f 7d b7 ad 3d d8 76 64 3e 53 2d a4 3e
       0.85577637 0.08482263 0.2231096 0.3206583

proxy_b_raw.weight f4 [17671, 1]
000000 df ab 82 be e0 29 7f be ac 9c 89 be 4a 5e 89 be
       -0.25521752 -0.24918318 -0.26877344 -0.2682975
000010 25 30 83 be 46 49 5d be 35 be 70 be c5 b9 ec bd
       -0.2562267 -0.21609983 -0.23510058 -0.1155887
000020 71 b9 82 be a6 a6 9b be bf 8a cf be 2a 4e 3b be
       -0.25532106 -0.3040058 -0.40535542 -0.18291536
000030 f5 66 52 be a2 0f 18 bf 18 3c 49 be fb 4d da be
       -0.20547087 -0.59398854 -0.1965183 -0.4263762
000040 2b 64 48 be 80 92 45 bf 9b 31 63 be 24 86 8f be
       -0.19569461 -0.77176666 -0.22186892 -0.2803203
000050 69 90 87 be 43 6e 19 be 41 58 91 be 52 fa 8e be
       -0.26477364 -0.14983468 -0.28387645 -0.27925354
000060 90 57 85 be f3 ab 38 be cd 88 8c be 94 d6 4a be
       -0.26043367 -0.18034343 -0.2744812 -0.19808418
000070 95 73 89 be 20 d5 96 be 51 6d 8c be a9 4c 93 be
       -0.26845995 -0.29459476 -0.27427152 -0.28769425
000080 f4 80 6b be d7 54 a8 be 9c c5 84 be 01 cb a1 be
       -0.2299841 -0.32877228 -0.25932014 -0.31600192
000090 d5 83 2a be 0e 9b 91 be 13 c5 64 be ad 96 57 be
       -0.16651852 -0.2843861 -0.22340803 -0.21053572
0000a0 1a c7 64 be f9 64 8a be 1e 15 84 be 2f b5 64 be
       -0.22341576 -0.2703016 -0.2579736 -0.22334741
0000b0 d3 bf 41 be 5c 1c 84 be 55 60 42 be 68 9c 90 be
       -0.18920831 -0.25802886 -0.1898206 -0.28244328
0000c0 f2 d4 77 be 40 87 47 be 72 9c 79 be ff 82 56 be
       -0.24202326 -0.19485188 -0.24376085 -0.20948409
0000d0 fa 9f 74 be dc fd 54 be 88 40 94 be de 67 b0 be
       -0.23889151 -0.20799965 -0.28955483 -0.34454244
0000e0 ff ef 59 be 91 16 54 be 53 c8 4c be 30 9e 65 be
       -0.21282957 -0.20711733 -0.19998293 -0.22423625
0000f0 13 e6 3e bf 5b 96 87 be 5d c7 62 be 57 ec 84 be
       -0.74569815 -0.264819 -0.22146364 -0.25961563
000100 65 da 80 be e2 a7 76 be 8f 5e 8d be 75 9a aa be
       -0.25166622 -0.2408748 -0.27611205 -0.33320966
000110 1d 81 43 be 10 2d 93 be d1 41 94 be b8 27 8c be
       -0.19092222 -0.28745317 -0.28956464 -0.27374053
000120 30 98 a1 be b6 45 9d be 9d 6d 72 be ff ae 8d be
       -0.31561422 -0.30717248 -0.23674627 -0.27672574
000130 f9 77 57 be 80 f0 6b be f5 27 a7 be f2 6e 62 be
       -0.2104186 -0.23040962 -0.32647672 -0.22112635
000140 33 73 40 bf c9 0d e1 be f5 3a 5c be c9 29 7a be
       -0.7517578 -0.4395583 -0.21506865 -0.24430002
000150 54 2c 63 be 14 e6 50 be 8f 99 31 bf 0b 23 83 be
       -0.22184879 -0.20400268 -0.69374937 -0.25612673
000160 07 50 30 bf bc af 1c bf 86 44 2a be cc 9e df be
       -0.6887211 -0.6120565 -0.16627702 -0.4367584
000170 3e 95 ab be dd ab 8c be b0 ca 52 be 13 0b a0 be
       -0.335123 -0.2747487 -0.20585132 -0.3125845
000180 30 95 90 be 11 f6 70 be ae 33 5b be a6 32 a4 be
       -0.2823882 -0.23531367 -0.21406433 -0.32069892
000190 68 b7 5c be 76 6a 43 be 4d f4 8c be 6d ea 85 be
       -0.21554339 -0.1908358 -0.27530137 -0.26155415
0001a0 5b eb 93 be 88 ba 84 be a9 c0 8a be 65 40 4f be
       -0.288905 -0.25923562 -0.27100113 -0.20239408
0001b0 bd f8 14 bf 38 d4 87 be 47 43 f8 be 78 ec a0 be
       -0.58192044 -0.26529098 -0.4848883 -0.3143041
0001c0 7f 10 b1 be a4 89 6d be ee 15 48 be 22 b5 f7 be
       -0.34582898 -0.23197037 -0.19539616 -0.4838038
0001d0 5f d1 56 be 16 59 37 be 20 32 99 be 47 2a 8b be
       -0.20978306 -0.17905077 -0.29921055 -0.27180693
0001e0 8b 45 81 be be a9 31 be b6 fc 62 be b0 ad 66 be
       -0.2524837 -0.17349908 -0.22166714 -0.22527194
0001f0 81 eb 66 be eb df 9f be fa 8c 3f be 97 04 4f be
       -0.22550775 -0.31225523 -0.18706122 -0.20216595
000200 fd 44 00 bf 4c 71 2e be e3 80 68 be 8a 34 a4 be
       -0.5010527 -0.17035407 -0.22705416 -0.32071334
000210 e8 85 40 bf 9d 82 4c be 2b a5 6b be 4a d4 5d be
       -0.75204325 -0.199717 -0.23012225 -0.21663013
000220 fb ca 63 be 9f b1 9d be 81 a1 29 be 33 8f 63 be
       -0.222454 -0.30799577 -0.16565515 -0.22222595
000230 ff 8a 80 be df d1 4a be 77 d0 90 be 5d 00 38 be
       -0.25106046 -0.19806622 -0.28284046 -0.17968889
000240 2f 1e 9c be f8 2b 79 be 23 81 4e be 82 d6 7a be
       -0.30491778 -0.24333179 -0.20166449 -0.2449589
000250 56 d7 5f be ae 96 57 be 5c f7 66 be fd e8 77 be
       -0.21859488 -0.21053573 -0.22555298 -0.24209972
000260 57 80 35 be dd 71 1f be ed 01 89 be 52 36 82 be
       -0.17724739 -0.15570779 -0.26759282 -0.25432068
000270 d3 6b 9b be f5 ee 9d be 33 30 48 be 4d 17 73 be
       -0.303557 -0.30846372 -0.19549637 -0.23739357
000280 2c a3 8e be 1f 0e 66 be 34 5f 0b bf f7 74 55 be
       -0.27858865 -0.22466324 -0.54442143 -0.208454
000290 28 c7 86 be 10 3e 52 be 30 7f 6a be a2 d4 94 be
       -0.2632382 -0.20531487 -0.2290008 -0.29068476
0002a0 ad df 3e bf b0 c0 56 be 0e 2e 5c be 45 58 c8 be
       -0.7456005 -0.20971942 -0.21501943 -0.39129844
0002b0 c4 f5 66 be 5c 83 3e be 30 0d 6c be 03 8b 92 be
       -0.2255469 -0.18604797 -0.23051906 -0.28621683
0002c0 0d 6f 6a be 9d cf 2f be 4f f2 c4 be 74 96 89 be
       -0.22893925 -0.17169042 -0.38466117 -0.268726
0002d0 c7 ed 69 be c5 17 57 be 05 45 62 be 84 3b a6 be
       -0.22844611 -0.21005161 -0.22096641 -0.32467282
0002e0 f8 3e 57 be 61 85 95 be 8b db 87 be 67 73 67 be
       -0.21020114 -0.29203323 -0.26534685 -0.22602616
0002f0 18 1c 92 be 43 fc 68 be 3f 79 aa be 43 08 42 be
       -0.2853706 -0.2275248 -0.33295628 -0.18948464
000300 62 13 b0 be 7e 90 48 be 86 27 ac be 47 ae 69 be
       -0.34389788 -0.1958637 -0.33623904 -0.22820388
000310 c2 45 62 be 0b 8d b4 be be 12 8d be 74 b4 6b be
       -0.22096923 -0.35263857 -0.27553362 -0.23018056
000320 0b 82 99 be 64 1d 62 be c7 85 44 be cf 8a 90 be
       -0.29982027 -0.22081524 -0.19191657 -0.28230903
000330 ef cf 44 be d4 9f 60 be ab 68 7c be 80 85 97 be
       -0.19219945 -0.2193597 -0.24649303 -0.2959404
000340 d4 d8 63 be b0 2a 76 be 2a f1 95 be 3c 0f da be
       -0.22250682 -0.24039721 -0.29285556 -0.42589748
000350 e7 a1 53 be 5c 16 a1 be 13 ef 7b be 8c d3 ac be
       -0.2066723 -0.3146237 -0.24602918 -0.33755147
000360 d8 a1 6d be f4 59 c8 be ad ba 3a be 5c 71 93 be
       -0.2320627 -0.3913113 -0.18235274 -0.28797424
000370 c6 f9 bd be a5 36 0f bf 81 2f 00 bf 87 25 1c be
       -0.37104625 -0.55942756 -0.50072485 -0.1524869
000380 46 52 5f be 40 e6 84 be 81 d8 2c be a4 a0 22 bf
       -0.21808729 -0.25956917 -0.16879465 -0.6352637
000390 93 d5 88 be 87 45 a1 be 88 53 17 bf 94 7a 98 be
       -0.26725444 -0.31498358 -0.59111834 -0.2978102
0003a0 4e 99 8b be 64 f7 4d be 6d a2 99 be 56 c6 64 be
       -0.272654 -0.20113903 -0.30006734 -0.22341284
0003b0 fe fa 3e be 19 cd 48 be 08 54 a0 be 8e 80 75 be
       -0.18650433 -0.19609489 -0.3131411 -0.23974821
0003c0 cf be 8f be 0f a0 74 be b6 f0 a9 be 7a a6 4e be
       -0.28075263 -0.23889183 -0.3319146 -0.20180693
0003d0 e2 bb 5e be 20 57 48 be c7 d0 80 be 2d 32 22 bf
       -0.21751359 -0.19564486 -0.25159284 -0.6335781
0003e0 ac 13 80 be 74 33 a4 be 31 d9 6f be f8 62 0f be
       -0.25015008 -0.32070506 -0.23422696 -0.14002597
0003f0 9d 6c 45 bf db fd 56 be c9 f6 76 be 66 92 88 be
       -0.77118856 -0.20995276 -0.24117579 -0.26674193

proxy_theta_raw.weight f4 [2493, 1]
000000 1d dd be 3f 13 2c 64 3f 6a a5 82 3f b3 12 9a 3f
       1.4911228 0.8912975 1.020673 1.2036957
000010 e3 0f 5a 3f ce d4 af 3f d3 bf d3 3f 00 0a ab 3f
       0.8518049 1.3736818 1.6542915 1.3362427
000020 62 2c c6 3f 90 3f be 3f 79 bd 49 3f a3 82 62 3f
       1.5482295 1.4863148 0.7880474 0.88480586
000030 18 a6 9a 3f e2 4e f5 3e 8d c3 d7 3e 12 f1 06 3f
       1.2081938 0.47911745 0.4214138 0.52711594
000040 68 b2 c7 3e 6f b3 02 3f 9b d2 e6 3e 35 4f 1e 3f
       0.390033 0.51055044 0.45082554 0.6183961
000050 9b 00 25 3f 68 86 19 3f f2 d8 f7 3e 26 ff 33 3f
       0.6445405 0.5997071 0.48407704 0.703112
000060 96 4d 4d 3f 34 cf 83 3f 9e 3c 9c 3f 99 80 9f 3f
       0.8019651 1.0297608 1.2205999 1.246112
000070 f0 6e 51 3f c2 08 44 3f 47 21 3c 3f 85 ce ad 3f
       0.818099 0.76575863 0.7348828 1.357865
000080 b3 a1 a9 3f cc f5 e0 3f b1 8c bf 3f 8d 21 b5 3f
       1.3252472 1.7575011 1.4964811 1.4150864
000090 ee 8c ad 3f a6 8e b9 3f 99 77 ba 3f e0 1a 9e 3f
       1.3558633 1.4496658 1.4567748 1.2351952
0000a0 2a 2b ab 3f 7b fd c0 3f 9e 87 a2 3f 98 ae cb 3f
       1.3372548 1.5077356 1.2697637 1.5912657
0000b0 96 c4 bf 3f ec 69 d0 3f 2a 02 d0 3f 52 72 a9 3f
       1.4981868 1.6282325 1.625066 1.3238013
0000c0 fa d2 a6 3f 0d e6 ac 3f 76 c9 e4 3f 54 3c af 3f
       1.3033135 1.3507706 1.7873981 1.3690286
0000d0 4a 4c af 3f 65 f0 c8 3f cc e1 bf 3f c9 b0 d0 3f
       1.3695157 1.5698363 1.4990783 1.630395
0000e0 4e 66 d0 3f 15 2d bf 3f 4b fa a4 3f 88 46 b8 3f
       1.6281221 1.4935633 1.2888883 1.4396524
0000f0 a7 1c bb 3f ed 44 84 3f 6d cb c7 3f 40 18 bd 3f
       1.4618119 1.0333534 1.5608956 1.4773026
000100 7f 75 cf 3f 2a 25 bd 3f 0a 67 c4 3f b4 37 c5 3f
       1.6207732 1.4776967 1.5343945 1.5407624
000110 94 5a d4 3f dd 67 bc 3f ca c2 8d 3f 00 66 bf 3f
       1.6590142 1.4719197 1.107507 1.4953003
000120 96 9f d6 3f 21 c5 c3 3f 28 47 de 3f 1d ca d3 3f
       1.6767452 1.5294534 1.7365465 1.6546055
000130 cf 7e c6 3f a0 58 c0 3f da a5 c9 3f 26 7e d6 3f
       1.5507449 1.5027046 1.5753739 1.6757247
000140 f4 f4 ac 3f 0e 6b bd 3f 62 bf b8 3f a0 de b2 3f
       1.3512254 1.4798295 1.4433405 1.397419
000150 12 99 be 3f de 33 a7 3f 49 23 c6 3f 2c 81 c4 3f
       1.4890463 1.3062704 1.5479518 1.535192
000160 ca 37 a8 3f c3 13 be 3f f2 e9 b3 3f e3 8c 98 3f
       1.3142025 1.4849781 1.405577 1.1917995
000170 b3 b7 9c 3f ae ec ad 3f 20 51 b1 3f 5c 6d c1 3f
       1.224356 1.3587854 1.3852882 1.5111499
000180 ba 57 98 3f a5 d9 44 3f c6 c7 3f 3f bb 95 46 3f
       1.1901772 0.768946 0.74914205 0.7757222
000190 03 1d b2 3f cd 57 3d 3f df f3 21 3f f4 4f 1a 3f
       1.3915104 0.739621 0.6326274 0.6027825
0001a0 b6 7c 09 3f 06 a9 39 3f 32 c4 5c 3f 6c 24 46 3f
       0.5370592 0.72523534 0.8623687 0.77399325
0001b0 17 70 4e 3f 3c 46 3f 3f 30 2e 4f 3f d1 11 6e 3f
       0.80639786 0.74716544 0.8092985 0.92995936
0001c0 2e 0d 3d 3f 14 a0 45 3f 82 f1 4f 3f fe 30 54 3f
       0.73848236 0.77197385 0.81227887 0.82887256
0001d0 77 cc 68 3f 3d cc 3f 3f bb 94 1b 3f 85 d8 7b 3f
       0.9093699 0.7492102 0.6077382 0.9837726
0001e0 9a 33 64 3f 8c e0 69 3f f5 7a 60 3f bb fd 57 3f
       0.8914124 0.91358256 0.8768762 0.84371537
0001f0 33 8a 3e 3f 6f a6 12 3f 22 f6 31 3f 47 87 e7 3e
       0.74429625 0.5728521 0.69516194 0.45220396
000200 58 e5 c1 3e e2 99 f7 3e 82 da db 3e 01 f8 2a 3f
       0.37870288 0.4835959 0.42940146 0.66784674
000210 7c ac 32 3f 06 81 38 3f 46 8b 3e 3f dd 76 1c 3f
       0.6979444 0.72071874 0.74431264 0.6111887
000220 1e fd 19 3f d7 02 e6 3e 71 24 63 3f 2e ee 59 3f
       0.6015185 0.44924042 0.8872748 0.8512906
000230 46 f0 fd 3e a5 50 f1 3e d9 f1 c7 3f bf 49 f7 3e
       0.49597377 0.4713184 1.5620681 0.4829845
000240 49 fd ff 3e 90 90 09 3f 21 cd 1b 3f db a5 df 3e
       0.4999793 0.5373621 0.60859877 0.43681225
000250 07 f3 0f 3f ab d6 64 3f 4e d6 40 3f e7 b9 ba 3e
       0.56230205 0.8939006 0.75327003 0.36469957
000260 ef ec 0e 3f 9d 44 6c 3f 97 1f e4 3e 64 5c ee 3e
       0.5583028 0.92292196 0.4455535 0.46554863
000270 fe e2 3f 3f 1f 96 80 3f 1e 8a e9 3e 91 d7 1e 3f
       0.7495574 1.0045813 0.45613188 0.6204768
000280 9c c1 2e 3f 8b 2a 04 3f fc a3 f1 3e 49 8e f7 3e
       0.68264174 0.51627415 0.47195423 0.48350742
000290 ba 63 f9 3e 16 95 00 3f dd a4 01 3f ef b3 f7 3e
       0.48708898 0.5022749 0.50642186 0.48379466
0002a0 81 18 0b 3f 61 e5 32 3f 22 2f 38 3f cd db 67 3f
       0.54334265 0.69881254 0.7194692 0.90569764
0002b0 0b a5 31 3f c8 40 1d 3f 88 c4 51 3f 24 66 19 3f
       0.6939246 0.61426973 0.8194051 0.5992148
0002c0 86 bd dc 3e bc 9d 14 3f da a4 1f 3f e2 bd 38 3f
       0.43113345 0.58053184 0.6236092 0.7216474
0002d0 46 49 1c 3f a2 56 5d 3f 8c 93 3a 3f cd 23 14 3f
       0.61049306 0.86460316 0.7288139 0.5786713
0002e0 4d e3 5b 3f cb 5a 31 3f 80 09 1d 3f d2 fb 41 3f
       0.8589371 0.69279164 0.6134262 0.7577487
0002f0 9a 05 21 3f 81 92 e5 3e 1c 10 11 3f c5 86 09 3f
       0.6289917 0.44838336 0.56665206 0.53721267
000300 23 a4 53 3f f3 d5 02 3f b7 59 2a 3f bb e5 f0 3e
       0.8267233 0.5110771 0.66543144 0.4705027
000310 75 05 01 3f 7c bb e8 3e dd b0 78 3f 76 3e e0 3e
       0.5039895 0.4545554 0.9714487 0.43797654
000320 9b 5d db 3e db 80 b3 3e ff d0 00 3f b6 d3 f8 3e
       0.42844853 0.35059246 0.503189 0.48599023
000330 92 76 a0 3e 1e 08 a6 3e 25 02 9c 3e 30 58 5c 3e
       0.31340462 0.32428068 0.30470386 0.21518016
000340 7e 28 8c 3e d7 8b fd 3e 11 b5 31 3f 6b 66 f5 3e
       0.27374643 0.49520752 0.6941691 0.479297
000350 c5 0d 0f 3f 42 92 02 3f 84 b8 00 3f 66 00 ef 3e
       0.55880386 0.5100442 0.5028155 0.4667999
000360 5f ee f4 3e 25 dc af 3f ee 8c ad 3f a6 8e b9 3f
       0.47838113 1.3739058 1.3558633 1.4496658
000370 99 77 ba 3f 2a 2b ab 3f 7b fd c0 3f 98 ae cb 3f
       1.4567748 1.3372548 1.5077356 1.5912657
000380 fa 20 9d 3f 96 c4 bf 3f 53 df 9c 3f 73 4d c1 3f
       1.2275689 1.4981868 1.2255653 1.5101761
000390 ec 69 d0 3f 2a 02 d0 3f fa d2 a6 3f 0d e6 ac 3f
       1.6282325 1.625066 1.3033135 1.3507706
0003a0 eb 86 9c 3f 50 de cf 3f 55 b9 ac 3f b3 31 90 3f
       1.2228674 1.6239719 1.3494059 1.1265167
0003b0 b2 2e c2 3f ab f7 c1 3f 91 91 a9 3f fd 47 95 3f
       1.51705 1.5153707 1.3247548 1.1662594
0003c0 7d e0 ad 3f a3 04 c1 3f fa 94 9b 3f b3 63 c5 3f
       1.3584133 1.507954 1.2154839 1.5421051
0003d0 95 1e 9c 3f 58 15 c7 3f 2b ca b6 3f 5e 91 d0 3f
       1.2196833 1.5553389 1.4280447 1.6294363
0003e0 e3 77 c8 3f 72 94 bf 3f 5e ee 9f 3f 36 2a b2 3f
       1.5661587 1.4967177 1.2494619 1.3919132
0003f0 6a 6d c4 3f 29 1e b2 3f 10 00 d2 3f 62 bf b8 3f
       1.534589 1.3915454 1.6406269 1.4433405
