GIRT/checkpoint/girt2pl-assist0910-user-split/checkpoint-epoch-1.pt (torch, 153924 bytes, 3 tensors)

proxy_a_raw.weight f4 [17671, 1]
00000000: aae4 b5bd 91cd 57bb 76ad 27bd 53cf 263d
00000010: 3870 2cbd 6403 263d 7741 143d 98a4 2abc
00000020: 42b6 4d3d d360 943d cdc9 463e cf4e a63c
00000030: d6eb 0e3d ab81 093e f7fe 9ebc 0b9d 713d
00000040: 182c a93c f8cc 103e 5afe adbc 8dfa 6f3c
00000050: a227 003d ff45 febc 0d1b f3bc 73c0 b33c
00000060: 9b90 8ebc f441 6bbc 6772 3a3d 1396 fb3c
00000070: 7e40 8b3c 438f 283d 616e 843d ee9d 083d
00000080: ee72 be3c adcc 3b3d ca58 8c3d a8be 04bd
00000090: ac5e 97bc 7915 9c3d aa6e 803d 074a 2ebd
000000a0: 1526 2c3d b388 693d 1564 163d b75e 5ebd
000000b0: e2b2 403c cdeb e43c 89bc 093d e4bd 2e3d
000000c0: c8ce 523d 2560 bb3c 9c54 423d f52c ae3c
000000d0: e43e 943d 8d68 583c 3f67 183d 1c79 46bd
000000e0: 400e f33c ec16 023d 0d8a 70bc 70a9 653d
000000f0: a6b6 483e 2823 083d c3e6 823c 1522 0c3d
00000100: 53bc 80bd bbba 5e3d 6b0d 4b3d 10fe 9c3d
00000110: b6e4 24bd 2b67 d03d 8915 913d ba40 303d
00000120: 9735 d23d 75fb 323d dc54 3e3d e697 863d
00000130: 88b4 223c 15ce 983a c209 103d 3cc1 00bd
00000140: b1b6 483e d5f9 2a3e 7b12 d33c 7513 413d
00000150: 6795 8e3c b4a2 053d e423 ec3d f003 003d
00000160: 255d 263e 94e1 be3d 35c7 50bc 0b9d 713d
00000170: 2a0f 883d 8c92 cbbc df5c ab3c b443 b23d
00000180: fde9 cd3c 5f53 f53c b821 ba3b ddb3 183d
00000190: dc58 e33c a2e4 f23c 59b9 e63c 209b ed3c
000001a0: d26a 003e 8f63 923d 1d17 3e3d 0528 febb
000001b0: 4dd2 ab3d a379 833d 1043 c63d 73a1 253d
000001c0: d09b 1b3e 912c e7bc 09bc 50bc 09b8 aa3d
000001d0: 7731 be3c e4a4 193a 7ba9 20bd 7942 483d
000001e0: 4118 803d befd 1d3c 88ec 593c 7604 a63c
000001f0: eb7f 833c 7684 653d 8fb6 2b3d cafa bb3c
00000200: 1911 8d3d 684e 99bc ab39 1bbd 2fe7 893d
00000210: 8dfb 8e3e eb8b 2d3d 9d70 9f3c d727 01bd
00000220: 3280 b13c a683 ad3d e1a1 153d efa0 bcbb
00000230: 82d7 e7bc e0d5 15bd 6146 56bc b177 7fbb
00000240: 80a4 88bc 18a4 a23d 7b17 e93c 13c7 9d3c
00000250: f106 803d 2f37 d43c 89f1 e8bc 94ea 30bd
00000260: 5f27 14bb 8652 173c d630 d8bc fd08 d43c
00000270: be0a 403d 0b9b db3a 4937 263d b433 733d
00000280: 70c3 b43d 7d0b 723c 715a af3d 09c9 ce3c
00000290: 1a12 65bd 501c bf3c bc38 793d 46c5 9d3d
000002a0: 41b5 483e eedf cd3c 99c9 1d3c 819f d03d
000002b0: 0a70 32bd 7e7b b13c 9740 dbbc ecf3 e63c
000002c0: de52 d83c fee2 89bb 4394 ff3d 16df 05bd
000002d0: 2e30 2b3d f92c 743d 46dd 753d 3432 153e
000002e0: b86b 8b3c 93e4 9e3d cb58 e13c 54cf fb3c
000002f0: fa58 9b3d 05c7 e23c 0e7a 753d 13b0 f4bc
00000300: 3af5 673d 3b79 1d3d 2758 ea3d 4383 f13c
00000310: 05db 1e3d e9ef 443d e37a f7bc 38e1 cebc
00000320: 72df 01bd 0824 81bc ed4e 78bc 29cb 123b
00000330: a568 993b 2be3 b03c 9a7d 9f3d aae8 443d
00000340: 6227 a5bc dbb6 273d f407 103d 62d3 013e
00000350: bf46 9abc 9075 713d 45dc 04bd d954 673d
00000360: 56bb c6bc 5670 6e3d 014f d93c 05ea 5d3d
00000370: 660b be3d fddc ab3d 4e6c b93d f158 0bbd
00000380: db40 3ebd 2cf0 0b3d 620f 053d 4743 cd3d
00000390: 04ec 1a3d aa49 573d d6e4 083e fd34 823d
000003a0: 0bf3 933d b41e 153d dd32 3cbc 37f0 e4bc
000003b0: 9f00 063d f097 a03c e57f d43d 9dbb 863d
000003c0: 56ab 4cbb 7309 173d 7f94 14bd f697 d23b
000003d0: d950 ef3c 6b1d d6bc 2ad2 9f3c 3046 d03d
000003e0: e098 003d 022e 95bc bec9 533d d89c f7bc
000003f0: e6f0 243e 6c64 673c a3ba 383d 9dd7 883d
-0.08881505 -0.0032928924 -0.04093691 0.040725064 -0.042099208 0.040530577 0.036195245 -0.010415219
0.050222643 0.0724503 0.19412918 0.02030125 0.03489288 0.1342837 -0.019408686 0.05898766
0.020650908 0.1414069 -0.021239448 0.014647138 0.031287797 -0.031039236 -0.029675985 0.021942353
-0.017402938 -0.014358986 0.04551926 0.03071121 0.016998526 0.04115225 0.064663656 0.03335374
0.023248162 0.04584949 0.06852873 -0.032408386 -0.01847776 0.07621283 0.062711075 -0.042551067
0.042028505 0.057015132 0.03671654 -0.054289546 0.011761399 0.02794447 0.033627067 0.042661563
0.051466733 0.022872994 0.04744397 0.021261672 0.07238558 0.013208521 0.03720784 -0.048455343
0.02966988 0.03176014 -0.014681351 0.05606979 0.19600925 0.033236653 0.015979176 0.03421219
-0.0628592 0.0543773 0.049573343 0.07665646 -0.04025718 0.10175928 0.07084186 0.043030478
0.10264128 0.04369684 0.046467647 0.06571941 0.009930737 0.0011658097 0.035165556 -0.031434283
0.19600941 0.16696866 0.025765648 0.047137696 0.017405225 0.03262587 0.11530283 0.031253755
0.1624647 0.09320369 -0.012742807 0.05898766 0.06643517 -0.024850152 0.020918308 0.087043196
0.025135988 0.029946981 0.005680289 0.037280906 0.027752332 0.029650036 0.028164553 0.029004633
0.12540749 0.071478955 0.04640876 -0.0077562355 0.08389721 0.06419685 0.0968076 0.040437173
0.15196157 -0.028219493 -0.012740144 0.08335883 0.023216946 0.00058610574 -0.03922413 0.04889152
0.06254626 0.009643016 0.013301022 0.020265799 0.016052207 0.056034528 0.04192215 0.022946734
0.06888027 -0.018714145 -0.037896793 0.06733548 0.27926293 0.042369764 0.019462878 -0.031532135
0.021667574 0.084723756 0.036531333 -0.0057564895 -0.028301004 -0.03658092 -0.013078303 -0.0038981254
-0.016680002 0.07941455 0.02845358 0.019259965 0.06251324 0.02590522 -0.028435485 -0.04319246
-0.0022606475 0.009235984 -0.026390474 0.025883192 0.046885245 0.001675458 0.040580068 0.05937548
0.08826339 0.014773247 0.08562172 0.025242345 -0.055925466 0.02332893 0.06084512 0.077036425
0.19600393 0.025131192 0.009630584 0.10186673 -0.04356388 0.021665331 -0.026764197 0.028192483
0.026406702 -0.004207968 0.124794506 -0.032683454 0.041793995 0.0596132 0.060025476 0.14569932
0.017019138 0.07758441 0.02750816 0.03073851 0.0758533 0.02768279 0.059930854 -0.029869115
0.05663035 0.038445693 0.11442595 0.029481536 0.038783092 0.04808036 -0.030209964 -0.025253877
-0.031707235 -0.015764251 -0.015155536 0.0022398925 0.004681664 0.021592697 0.077876285 0.04807345
-0.02016038 0.04094587 0.035163835 0.12678292 -0.018832562 0.058950007 -0.032436628 0.0564774
-0.02425925 0.0582126 0.02652693 0.054178257 0.09279518 0.083917595 0.090538606 -0.034020368
-0.04644857 0.034164593 0.032485373 0.10022598 0.03782274 0.052560486 0.13368544 0.06357763
0.07224091 0.036406234 -0.011486736 -0.027946575 0.032715436 0.0196037 0.103759564 0.06578753
-0.0031230054 0.036874246 -0.03627443 0.0064268066 0.029213356 -0.026137074 0.019509394 0.10169637
0.031395793 -0.018210415 0.05170607 -0.030226156 0.1610752 0.014123064 0.045099866 0.0668175

proxy_b_raw.weight f4 [17671, 1]
00000000: de0a 40be f1b3 f4bd 6183 04be 25d2 20be
00000010: cd88 11be e6c1 2fbe 0684 21be e754 dabd
00000020: 4085 31be b9da 22be b684 a5be 5f78 f8bd
00000030: 05f6 07be 0906 71be 4c95 f1bd d102 23be
00000040: 11c3 15be 3850 78be a2c9 27be 814f 0cbe
00000050: d081 22be f269 f7bd e66f 0bbe 7a32 0bbe
00000060: a272 07be 3485 efbd ca6e 01be a6f1 02be
00000070: 73fc 16be fcf3 65be 6655 2fbe 42c1 1abe
00000080: e92c 13be de5e 15be 39e1 15be cb5f 59be
00000090: aeb2 e8bd f7d6 56be 7d93 2dbe c66c 0abe
000000a0: 1be0 05be b37d 17be d602 0bbe 4f25 1bbe
000000b0: e5d2 eebd 840b 13be 28fc 0abe 4bd7 2cbe
000000c0: ab08 07be 7967 10be 9935 2cbe 0009 f7bd
000000d0: cb15 30be 6e8d efbd 8c2e 06be 34b6 26be
000000e0: 1c2c 01be 166b 10be be52 f8bd e5bc 11be
000000f0: dae7 98be 582d 08be b1bd 17be 74cb 24be
00000100: b62e 2bbe 044d 19be d204 45be 2f51 3dbe
00000110: 2d8f 03be cee4 5fbe 066f 47be 364f 11be
00000120: e95e 55be c4c8 19be 48f8 23be eb7a 39be
00000130: c84a f4bd 8852 36be 23b4 2abe fed7 ebbd
00000140: 00e8 98be 9a80 9fbe f63b f2bd a6ac 3dbe
00000150: c20c 03be d322 19be 7657 5dbe 2fc2 0dbe
00000160: 4937 87be 0345 46be 59b9 06be d102 23be
00000170: 17cf 2cbe a408 13be ca10 14be f67e 2cbe
00000180: 8690 32be efda ecbd 463c 09be e2da 11be
00000190: 4d06 efbd bd6a 02be f5ee 19be 4b18 24be
000001a0: 9d7a 4bbe 3d13 4bbe af6a 07be 7b12 ecbd
000001b0: 50c1 3cbe 1f1b 04be 57f3 49be f2f6 0dbe
000001c0: 0e0e 84be c6a9 0abe 52eb 02be 4120 3cbe
000001d0: 0932 e8bd f7bb 07be a72b 30be 2dcd 37be
000001e0: 7e5a 31be d308 f1bd 13d0 2cbe fab3 f6bd
000001f0: 74f2 e9bd 74d8 32be 2055 11be 696e f5bd
00000200: 2535 2dbe b98c ebbd ca00 12be e7ae 1dbe
00000210: ed66 c4be 9e7f 13be dfb9 24be 0205 15be
00000220: 2636 0dbe 5f67 25be ef89 f5bd f789 13be
00000230: 4e24 02be fffa ecbd 6d14 18be 61df f1bd
00000240: 6444 07be 1447 47be 83c1 0fbe 54d8 0dbe
00000250: a791 27be 7ef5 e1bd 2606 0ebe 5082 17be
00000260: ddbd 00be 6df1 d6bd a0ba 46be da79 0abe
00000270: 5b3a 06be 612d 11be 0843 0cbe 979b 30be
00000280: 81c2 3bbe c6a3 09be e26a 3ebe d79c 0cbe
00000290: b274 3bbe 3f76 0ebe d42e 43be 3938 3ebe
000002a0: f9e2 98be 87d7 fdbd eaee 1cbe 0f36 5ebe
000002b0: 60b6 f9bd 823d e2bd 88c2 05be 2336 2cbe
000002c0: 51f1 eebd 1fde 0dbe 1380 7dbe 0388 04be
000002d0: 982f 38be 9293 2bbe 315d 09be db00 85be
000002e0: e817 0bbe 354d 70be 8782 3bbe d932 05be
000002f0: d868 53be f03d 12be 7cd9 2abe 6ad8 fbbd
00000300: 8316 38be 491a 0cbe 1b36 90be 7edf 02be
00000310: 8546 f5bd 510e 16be 7547 07be f8bb fabd
00000320: 73d1 f4bd 724b 25be 8ef4 02be 6712 23be
00000330: 092b f5bd 85be edbd 30a6 30be 259a 37be
00000340: a8f9 e4bd c706 1abe 3879 14be 92ea 76be
00000350: 7312 fdbd 607c 0dbe 4036 02be a050 25be
00000360: e84f 18be 523d 22be 31f6 0ebe 1ce7 3fbe
00000370: 3332 5ebe 5ebd 3cbe ae95 42be 2304 fabd
00000380: 1a4c 11be 8f78 29be 93b2 ecbd 54a7 4dbe
00000390: db8c 0fbe 83f4 3fbe 6e66 70be 135d 1cbe
000003a0: 6f22 45be 7269 2ebe b77d 11be 9d60 e9bd
000003b0: f677 ffbd 56eb 0fbe 8447 63be 96b9 35be
000003c0: 5c7a 06be 66e3 05be 6277 0abe 2794 f3bd
000003d0: 017c 0fbe 3cca 01be bb93 17be eb29 4fbe
000003e0: e501 f5bd 9508 05be d5da 32be 6883 f3bd
000003f0: 267d 86be ed05 0ebe 3f81 28be d62b 36be
-0.18754146 -0.119483836 -0.12940742 -0.15705164 -0.14212342 -0.1716381 -0.15773019 -0.10660725
-0.17335987 -0.15903749 -0.32327813 -0.12132334 -0.13277443 -0.23537458 -0.11796054 -0.15919043
-0.14625193 -0.24249351 -0.1638551 -0.13702203 -0.15869832 -0.12080754 -0.13616905 -0.13593474
-0.13227323 -0.11695328 -0.12639919 -0.12787494 -0.14744739 -0.22456354 -0.1712242 -0.15112785
-0.143726 -0.1458697 -0.14636697 -0.21227948 -0.113622054 -0.2098044 -0.16950794 -0.13518056
-0.1307377 -0.14794044 -0.135753 -0.15150951 -0.11661319 -0.14359862 -0.13572752 -0.16879003
-0.131869 -0.14101972 -0.16817321 -0.120622635 -0.17195813 -0.116968974 -0.13103694 -0.16280442
-0.12614483 -0.1410335 -0.12125157 -0.14232214 -0.2986439 -0.13298547 -0.14818455 -0.16093236
-0.16717038 -0.14970785 -0.1924012 -0.18488 -0.12847586 -0.21864626 -0.19475946 -0.14190373
-0.20836987 -0.15017992 -0.1601268 -0.18113296 -0.11928326 -0.1780492 -0.16670279 -0.115158066
-0.29864502 -0.31152803 -0.11827843 -0.18522891 -0.12797835 -0.1495469 -0.21615395 -0.13843606
-0.26409367 -0.19362263 -0.13156642 -0.15919043 -0.16875874 -0.14358765 -0.1445953 -0.16845307
-0.17437944 -0.11565196 -0.13401899 -0.14243653 -0.11671124 -0.1273603 -0.15032561 -0.16024892
-0.19870992 -0.19831558 -0.1322429 -0.11526962 -0.18433118 -0.12900971 -0.19721733 -0.13863733
-0.25791973 -0.13541326 -0.1278508 -0.18371679 -0.113376684 -0.13255297 -0.17204152 -0.17949362
-0.17319676 -0.11769261 -0.16876249 -0.120460466 -0.114231974 -0.17465383 -0.14192629 -0.1198395
-0.16914804 -0.1150145 -0.14258114 -0.15398751 -0.38359776 -0.14404151 -0.16086529 -0.14552692
-0.13790187 -0.16152714 -0.11989199 -0.14408098 -0.12709162 -0.11571311 -0.14851542 -0.11810184
-0.13209683 -0.19460708 -0.14038663 -0.13852054 -0.16364156 -0.11033152 -0.13869533 -0.14795804
-0.12572427 -0.10495267 -0.1940713 -0.13523045 -0.13108198 -0.14177467 -0.13697445 -0.17246853
-0.18335916 -0.13441381 -0.1859546 -0.13731705 -0.18306234 -0.13912295 -0.19060832 -0.18576135
-0.29860666 -0.12394624 -0.15325513 -0.21700309 -0.121929884 -0.11046888 -0.13062489 -0.16817527
-0.11667121 -0.13854264 -0.24755888 -0.1294251 -0.17986906 -0.16755512 -0.13414456 -0.25977215
-0.13583338 -0.23466952 -0.18311511 -0.13007678 -0.20645463 -0.1428144 -0.16684526 -0.12297137
-0.17977338 -0.13681902 -0.2816628 -0.12780568 -0.11976341 -0.14653899 -0.13210852 -0.122428834
-0.11954012 -0.16142061 -0.12788603 -0.15924989 -0.11971099 -0.11608604 -0.17250896 -0.17929895
-0.11180431 -0.15041648 -0.14499366 -0.24112919 -0.123570345 -0.13816977 -0.12716007 -0.16144037
-0.14874232 -0.15843704 -0.13961102 -0.18740505 -0.21698837 -0.18431613 -0.19002411 -0.1220782
-0.14189187 -0.16549896 -0.11557498 -0.20083362 -0.14018576 -0.18745618 -0.23476574 -0.1526988
-0.19251417 -0.17032412 -0.14208113 -0.11395381 -0.124740526 -0.14054617 -0.2219525 -0.17746577
-0.13132614 -0.13075027 -0.13522103 -0.11893492 -0.14012147 -0.12674803 -0.14802448 -0.20230834
-0.11963252 -0.12991555 -0.1746629 -0.11890298 -0.26267356 -0.13869448 -0.16455553 -0.1779016

proxy_theta_raw.weight f4 [2493, 1]
00000000: 6a40 9e3e f455 663e 0253 7f3e ed6a 823e
00000010: 340e 5b3e 5407 9e3e 0a4d ad3e 18c7 8c3e
00000020: 7b58 9e3e 76b4 a03e 74f9 6e3e 17f3 713e
00000030: 1e1a 893e 5f66 1d3e 4e0c 273e 301e 1f3e
00000040: e063 0f3e 9214 203e af97 1f3e d674 303e
00000050: 989a 3a3e cd31 313e f794 1c3e 4337 5d3e
00000060: cb24 613e 4146 753e 32a8 8b3e ab37 8a3e
00000070: 024c 563e c9a0 563e 4f4f 4c3e d478 943e
00000080: f214 913e 5e07 b23e b969 9d3e b3cc 9a3e
00000090: 6b5f a13e 33fe 9f3e 9f35 a03e 3959 933e
000000a0: c7c0 9f3e 4e92 a83e d8ce 983e e858 b03e
000000b0: 6451 ad3e 30f2 ae3e ec3e b23e 7c73 9c3e
000000c0: 9c36 983e 63a9 963e 97b3 bc3e 7329 a23e
000000d0: 7c08 a33e e1b3 ac3e 363b a23e e263 ad3e
000000e0: 7728 b03e 4f52 a53e 351b 9d3e 9215 a53e
000000f0: b8bc a53e de9e 803e d8d7 a53e c03a a73e
00000100: ac09 af3e 5db6 a03e e50d a93e dd01 b23e
00000110: 99b9 af3e ba47 a53e 7621 8a3e 6503 a33e
00000120: e4bb ab3e cf9c ab3e 2e07 bc3e 0686 ad3e
00000130: f8a5 aa3e f0ed a83e 5306 b73e 209e b93e
00000140: 6713 9f3e 7c99 a33e addb a23e aead 9c3e
00000150: 56f5 a93e d4fe 9b3e 4b36 a63e 154e a73e
00000160: 4b87 963e 0a9e 9d3e 4543 9a3e 9347 8c3e
00000170: 1125 9c3e 6fc5 993e adf5 a13e 0645 a63e
00000180: a54e 8e3e c48e 583e 0ddb 4f3e 5f80 693e
00000190: 7794 9c3e b4bd 413e cd60 373e c5d2 3c3e
000001a0: e504 2f3e f634 453e 116d 5a3e ea7a 633e
000001b0: ecca 603e d7c1 4e3e f230 613e 38f1 6c3e
000001c0: 04f2 5d3e 09e9 573e 29db 613e beda 583e
000001d0: 8159 633e 25be 503e 9911 543e 2ded 683e
000001e0: 35cd 5d3e 68f2 673e f815 633e ce5f 543e
000001f0: c92e 4f3e b9fb 283e be32 3b3e 6d3e 1d3e
00000200: 09cd 123e e916 223e b20e 133e 4eee 523e
00000210: 3197 503e a26f 4d3e f64a 4b3e f9c3 373e
00000220: 58c4 533e d889 1b3e de9e 663e b7c1 713e
00000230: 578f 1f3e 7fbe 213e c2bc a33e b64a 1b3e
00000240: efdc 1f3e 8e20 253e 5368 2f3e e7b3 193e
00000250: 53df 373e 3f3a 583e 2f45 4e3e b59c 273e
00000260: 73b4 2c3e e8a2 693e 710a 243e d7d3 3f3e
00000270: 0b82 563e 6118 7a3e 144b 1e3e b31e 433e
00000280: 5aee 473e 6beb 203e 2231 1c3e d4ca 1b3e
00000290: 9157 1e3e e35d 1d3e 62fc 1c3e 5edb 1e3e
000002a0: 5968 213e f784 423e de4f 563e 92b3 673e
000002b0: 7738 403e a940 373e 964b 5e3e 3605 483e
000002c0: af82 183e 9fd5 2f3e a240 363e 4cf3 4b3e
000002d0: 894f 3a3e d74c 693e c448 423e 99f3 343e
000002e0: c757 603e a41b 3b3e bf50 423e e689 4c3e
000002f0: 7370 333e 7c71 163e debc 353e 98c3 2e3e
00000300: 25a0 4f3e 11e3 2d3e 3b08 393e 16c7 183e
00000310: 466b 1e3e 11b2 193e c983 6d3e 34c3 1a3e
00000320: d5f2 153e 6db7 123e c558 253e 68e3 223e
00000330: 6499 123e 91b1 183e 3a66 213e dc7d f83d
00000340: 6b6d 033e 4875 2c3e cd20 403e 2a27 2d3e
00000350: f34c 383e 956b 1c3e 0bb5 1c3e 5ae5 163e
00000360: 050d 213e 0b72 983e 6b5f a13e 33fe 9f3e
00000370: 9f35 a03e c7c0 9f3e 4e92 a83e e858 b03e
00000380: 75d7 963e 6451 ad3e 5339 923e e5a3 a93e
00000390: 30f2 ae3e ec3e b23e 9c36 983e 63a9 963e
000003a0: 5e1f 923e 027c b53e 7597 a13e 95a7 8d3e
000003b0: ffb0 aa3e 8310 9f3e 8d14 9c3e 6456 943e
000003c0: ce11 9f3e 7075 a93e a780 883e e932 a93e
000003d0: 35e0 923e 783d a53e 2f33 a73e 38d9 b63e
000003e0: e9e4 a93e 9b92 a83e 6203 9a3e aa15 a23e
000003f0: bef7 b33e a5a8 a33e 18b6 b73e addb a23e
0.3090852 0.22493726 0.24934009 0.25472203 0.21392137 0.30864966 0.3384784 0.27495646
0.3092688 0.3138768 0.23337346 0.23627888 0.26777738 0.15371083 0.16313288 0.1553886
0.14002943 0.15632847 0.15585206 0.1723207 0.18223035 0.17304154 0.152912 0.21603112
0.21986692 0.23952581 0.2727676 0.26995596 0.20927432 0.20959772 0.19952129 0.28998435
0.28336293 0.34771246 0.30744722 0.30234298 0.3151811 0.31248626 0.3129091 0.2877901
0.31201765 0.32924122 0.2984531 0.3444283 0.3385116 0.3416915 0.3481363 0.30556858
0.29729164 0.29426107 0.36855766 0.31672248 0.3184241 0.33730987 0.316858 0.33865267
0.34405872 0.3228936 0.3068482 0.3224302 0.32370543 0.25121206 0.32391238 0.3266201
0.34187067 0.31389132 0.33018413 0.34767047 0.34321287 0.32281286 0.26978654 0.31838527
0.33541787 0.33518073 0.36724228 0.33891314 0.3332975 0.32994032 0.35747012 0.36253452
0.3106949 0.31953037 0.31808224 0.30601257 0.3319499 0.30467856 0.32463297 0.3267676
0.29400095 0.30784637 0.30129448 0.27398357 0.3049703 0.30033442 0.31632748 0.32474536
0.27794376 0.21148211 0.20298405 0.22802876 0.3058202 0.18920022 0.1790802 0.18439777
0.17091711 0.19258484 0.21330668 0.22214857 0.21952409 0.20191132 0.21991327 0.23138893
0.21674353 0.2108499 0.22056259 0.21177194 0.22202112 0.20385034 0.20709838 0.22746725
0.21660312 0.22651064 0.22176349 0.20739672 0.20232691 0.16502275 0.18281075 0.15355845
0.14336027 0.15829052 0.14361075 0.20598719 0.20370175 0.20062116 0.19852814 0.17945851
0.20680368 0.15189302 0.2252154 0.23609053 0.15582024 0.15795325 0.31979948 0.15165219
0.15611623 0.161257 0.1712964 0.15010034 0.17956285 0.21115969 0.20143579 0.16368373
0.16865711 0.2281605 0.16019608 0.18733154 0.20948045 0.24423362 0.15458328 0.1905468
0.19524518 0.15714805 0.15253118 0.15214092 0.15463091 0.15367846 0.15330651 0.1551337
0.15762462 0.18996035 0.20928904 0.22627094 0.1877154 0.1789576 0.21708521 0.19533238
0.14893602 0.17171334 0.17798093 0.19917029 0.18194403 0.22783218 0.1897307 0.1767105
0.21908484 0.18272263 0.18976115 0.19974479 0.17523365 0.14691728 0.17747828 0.170668
0.20275934 0.1698115 0.18069546 0.14919695 0.15470609 0.15009333 0.23194803 0.15113527
0.14643414 0.14327784 0.16147144 0.15907061 0.14316326 0.14911486 0.15761653 0.12133381
0.12834708 0.16841614 0.18762513 0.16909471 0.17998104 0.15275414 0.15303437 0.14735928
0.15727623 0.29774508 0.3151811 0.31248626 0.3129091 0.31201765 0.32924122 0.3444283
0.29461256 0.3385116 0.2855936 0.33132854 0.3416915 0.3481363 0.29729164 0.29426107
0.28539556 0.35446173 0.31560865 0.27666917 0.33338162 0.31067285 0.3048443 0.2897216
0.3106827 0.3309741 0.26660654 0.33046654 0.2868668 0.3227346 0.32656237 0.357126
0.33182457 0.3292435 0.30080706 0.31657153 0.3514995 0.31964603 0.35881114 0.31808224
