GIRT/checkpoint/girt2pl-assist0910-user-split/checkpoint-epoch-18.pt (torch, 153997 bytes, 3 tensors)

proxy_a_raw.weight f4 [17671, 1]
000000 15 0e 84 be 23 df 9d 3d 4c 83 f2 be 6f 19 5f 3f
       -0.25791994 0.077085756 -0.47365797 0.87148184
000010 e2 74 44 be 71 b2 44 3e a2 e5 e7 3d c3 6a a2 be
       -0.19185212 0.19208695 0.11323096 -0.31722078
000020 9c 02 bc 3e 2d 15 68 3e f8 8b c1 3e e5 55 73 3e
       0.3672074 0.22664328 0.378021 0.23763235
000030 6f 1d 10 3e 9f 4b 14 3f d1 26 53 3e 27 2e de 3e
       0.14073728 0.5792789 0.20620276 0.43394586
000040 6f 22 e8 3d c5 26 6d 3f 15 23 9f bd a8 9a 94 3d
       0.11334693 0.9263728 -0.07770363 0.07256061
000050 b1 e8 81 3e d0 47 82 be 1a 16 33 be d2 93 cb 3c
       0.25372842 -0.25445414 -0.174889 0.02485076
000060 fe 10 2f be a9 ef 27 be 72 b6 4e 3e b6 f7 9d 3e
       -0.17096326 -0.16400017 0.20186785 0.3085305
000070 b5 58 89 3e 0c dd 54 3e 7e 45 a2 3e f7 f7 dc 3e
       0.2682549 0.20787448 0.31693643 0.43157932
000080 df 34 90 3d 1f dd 7c 3e 6d d8 3b 3e ed 6e 1e bb
       0.07041334 0.24693726 0.18344279 -0.0024175004
000090 0f 26 c7 3d af 8f 3a 3e 99 bd b0 3e 7d ed 98 be
       0.09724056 0.18218873 0.34519652 -0.2986869
0000a0 4b 1c c3 3e 50 08 75 3e 48 fe 9b 3e 2d 58 2f be
       0.38107523 0.23928952 0.3046744 -0.1712348
0000b0 1a b9 00 3f 76 4c 72 3e 6e 85 4f 3e 48 b1 d5 3d
       0.5028244 0.2366198 0.20265743 0.10434204
0000c0 3d 6a 76 3e d4 b6 4b 3e 32 63 bb 3e 72 88 1e 3e
       0.24063964 0.19893962 0.36599118 0.15481737
0000d0 6c e0 b1 3e 5f b4 40 3e 53 55 85 3e 19 8d 4d be
       0.34741533 0.18818806 0.2604166 -0.20073356
0000e0 c2 70 4c 3e a3 cc 33 3e 10 6e 8c be 0a e0 4c 3e
       0.19964889 0.17558531 -0.2742772 0.20007339
0000f0 ac cd 2c 3f ea 2e 3d 3e b1 ac 2d 3e 30 1d b3 3e
       0.6750133 0.18474928 0.16960408 0.34983206
000100 b1 2a 6e be 34 04 84 3e 0c 0f 8d 3e 1c 74 0c 3f
       -0.23258473 0.25784457 0.27550542 0.5486467
000110 d9 72 19 be 89 1b ac 3e 01 8d b4 3e 02 1b bf 3e
       -0.14985217 0.33614758 0.35263827 0.37325293
000120 cd 3b cd 3e d1 d5 a4 3e a4 f2 92 3e 09 57 bf 3e
       0.40084687 0.3219438 0.28700745 0.3737109
000130 0f 9d 17 3e 88 75 51 3e f1 59 ce 3d 2c 89 68 be
       0.14806007 0.20454991 0.10075749 -0.22708577
000140 90 b3 2c 3f 52 a8 d7 3e 7f 1d 9b 3e f2 07 a1 3e
       0.6746149 0.42120606 0.3029594 0.31451374
000150 ed 4e 81 3e f2 f4 80 3e b5 de 51 3f da cc 4c 3e
       0.25255528 0.25186878 0.8198045 0.2000002
000160 7f 61 21 3f bb 97 3b 3f b2 3b 32 be 0d 66 de 3e
       0.6303939 0.732784 -0.17405584 0.43437234
000170 d0 73 85 3e 39 e1 c6 be 69 fa b3 3e 84 a5 58 3e
       0.2606492 -0.38843706 0.35151985 0.21156889
000180 58 07 87 3e b5 87 d2 3e 03 72 42 3e c5 95 ad 3e
       0.2637279 0.4111916 0.18988805 0.33903328
000190 0d fa c3 3e ac 34 27 3e 71 4c 9f 3e 3e 50 89 3e
       0.3827671 0.16328686 0.31113008 0.26819032
0001a0 78 d8 84 3e e1 db 98 3e 23 99 bb 3e 90 fc 82 bd
       0.25946403 0.29855254 0.36640272 -0.06395829
0001b0 e6 0f 33 3f 01 3b e7 3e 73 2a 01 3f d1 33 af 3c
       0.69946134 0.45162204 0.504554 0.021387013
0001c0 c4 3c 82 3e dc ba 2d be 07 98 df bc 1d ca 10 3f
       0.25436985 -0.16965812 -0.027294172 0.565584
0001d0 a5 36 a8 3d bc be ba bd 37 89 a6 bd 3f 87 5f 3e
       0.082135476 -0.09118411 -0.081316404 0.21828936
0001e0 9f ea 91 3e e4 64 98 3e f1 49 04 3e b2 38 6d 3e
       0.28499314 0.29764473 0.12918831 0.23166159
0001f0 52 38 3c 3e 25 50 90 3e b5 bd ae 3d 18 78 14 3e
       0.1838086 0.28186145 0.085322775 0.14498937
000200 b9 25 1c 3f f4 90 5b be 5f 95 68 be 00 a7 e7 3e
       0.6099506 -0.21442014 -0.2271323 0.45244598
000210 e5 10 1b 3f 06 39 35 3e cb 74 0f 3e 85 ca 91 3b
       0.60572654 0.17697534 0.14009397 0.004449191
000220 0f 50 93 3e e8 97 e8 3e 16 1d 35 3e 7f b8 15 3d
       0.28772017 0.45428395 0.17686877 0.036552902
000230 a5 4a b0 3c 86 04 cb be 86 7b 49 be a3 82 88 3d
       0.021519968 -0.3965189 -0.19676027 0.06665542
000240 3a be a3 3e 68 4f 1d 3e a7 ea 7b 3e 62 7f 97 3e
       0.3198107 0.15362322 0.24601232 0.29589373
000250 7d 70 56 3e 8f 90 8e 3e 3a 5d 29 be 1e 1e 0a be
       0.20941348 0.27844664 -0.1653947 -0.13488051
000260 fc 12 7a 3d 93 10 34 3e c8 30 68 be 58 41 b6 3e
       0.06105326 0.17584448 -0.22674859 0.35596728
000270 dd 7c c5 3e 24 9f 10 3e f9 70 34 3e 7a b6 20 3e
       0.38571826 0.14123207 0.1762122 0.1569461
000280 4a 4e a8 3e bf bb 80 3e 0e 24 2d 3f 33 4e 87 3e
       0.3287223 0.2514324 0.6763314 0.2642685
000290 79 c8 d3 be ba fe da 3e 11 ab a0 3e c3 e2 70 3e
       -0.41363886 0.42772466 0.31380513 0.23524003
0002a0 1f e8 2c 3f b9 8c 3f 3e fe 39 92 3e 64 66 fd 3e
       0.6754169 0.18706025 0.2855987 0.4949218
0002b0 7a 4c 8d be cf 37 81 3e 60 84 61 be fa ac 84 3e
       -0.2759741 0.2523789 -0.22023153 0.2591322
0002c0 c9 fe 58 3e b2 cd 3e bd 96 f9 0e 3f 52 f2 24 bd
       0.21190943 -0.046582885 0.5584959 -0.040270157
0002d0 96 42 43 3e 04 66 0f 3e 85 45 54 3e bf 56 4d 3e
       0.1906837 0.1400376 0.20729645 0.20052622
0002e0 bf b0 87 3e f2 2f 83 3e a6 97 0d 3f 5b 0a 50 3e
       0.26502034 0.25622517 0.5530952 0.2031645
0002f0 d1 e5 43 3e f8 73 55 3e 62 3a 66 3e df 71 68 3d
       0.19130637 0.2084502 0.22483209 0.05674922
000300 b8 33 cb 3e 08 6d 20 3e 41 22 73 3e eb 41 75 3e
       0.39687896 0.15666592 0.23743536 0.23950927
000310 70 b3 bd 3e 6c 8c ac 3e 79 30 96 bd 2c 44 bb be
       0.37050962 0.33700883 -0.07333464 -0.3657545
000320 d0 de 9b be 70 39 b7 be cf ff 28 be 1b 7c 13 3e
       -0.3044343 -0.3578601 -0.16503833 0.14402811
000330 4e 32 1a 3e bc 99 8e 3e 0f 15 42 3e bd 51 b4 3e
       0.15058252 0.27851665 0.18953346 0.3521861
000340 1e 34 43 be 44 92 61 3e cc 4f 6d 3d de 04 19 3f
       -0.1906285 0.22028452 0.05793743 0.5977305
000350 bf 26 b5 bc 2a 85 f3 3e a0 68 4e be 4c dd db 3e
       -0.022113202 0.47562534 -0.20157099 0.42942274
000360 91 21 b1 3b 64 9b b0 3e 26 0f 68 3e cd b3 af 3e
       0.0054056128 0.34493554 0.22662029 0.34316865
000370 46 19 ca 3e ab 22 26 3f 94 14 fb 3e 5c fc 79 be
       0.39472407 0.6489665 0.49039137 -0.24412674
000380 78 cc 17 be 78 12 73 3e 18 50 1d 3e fe 9c 36 3f
       -0.14824092 0.23737514 0.15362585 0.713333
000390 57 b7 86 3e 18 7c b6 3e 56 f9 05 3f be ef 20 3f
       0.26311752 0.3564155 0.5233358 0.6286582
0003a0 b6 31 d5 3e cf c4 53 3e 61 2a 75 3e fa 4a 59 be
       0.4163949 0.20680545 0.23941948 -0.21220008
0003b0 91 ba a3 3e 4a d0 14 3e 32 72 d7 3e d9 2d 55 3e
       0.31978276 0.14532581 0.42079312 0.2081827
0003c0 ca 85 04 be 37 31 61 3e b1 d7 88 be 63 83 a1 3e
       -0.12941661 0.2199143 -0.2672706 0.31545553
0003d0 fd 37 80 3e 97 e0 05 be 47 ab 0e 3e 58 24 49 3f
       0.25042716 -0.13073955 0.13932525 0.7857108
0003e0 68 73 d1 3e f7 61 9f 3e ed d0 44 3e 16 0c 93 be
       0.4090836 0.3112943 0.19220324 -0.28720158
0003f0 58 c2 5e 3f 65 8c ba 3d c9 51 95 3e 07 e7 d6 3e
       0.87015295 0.091088094 0.2916396 0.41973135

proxy_b_raw.weight f4 [17671, 1]
000000 c5 9e ac be a9 58 aa be 26 68 83 be 02 fc a3 be
       -0.33714882 -0.33270767 -0.25665396 -0.32028204
000010 c1 2f 9e be db 4d 7f be 9b 7f 44 be 2b ec dd bd
       -0.30895808 -0.24932043 -0.19189303 -0.10836061
000020 1e fe 88 be fe bf 83 be 10 25 9c be 85 15 7f be
       -0.26756376 -0.25732416 -0.30497026 -0.24910553
000030 6d 8e 73 be 93 e8 03 bf 49 e0 2e be 8c cd e2 be
       -0.237848 -0.51526755 -0.17077745 -0.44297445
000040 3a 70 7c be fb eb 43 bf be d6 8e be 44 0a a0 be
       -0.24652186 -0.7653195 -0.2789821 -0.31257832
000050 0d 89 bb be f0 ff 04 bd 54 2e bf be 44 8c a5 be
       -0.36628 -0.032470644 -0.37340033 -0.32333577
000060 04 b9 cf be 1e fb 14 be 51 97 a5 be 71 ab 4f be
       -0.40570843 -0.14548919 -0.32342008 -0.20280243
000070 d7 c8 a5 be f1 dd a8 be 4c 15 95 be 9f 9f 94 be
       -0.3237979 -0.32981828 -0.2911781 -0.2902803
000080 b0 ec 36 be 26 a3 a1 be bf bd d5 bd 36 85 ad be
       -0.17863727 -0.31569785 -0.10436582 -0.33890694
000090 aa 69 a5 bd 9b ac 8e be 99 08 53 be ec ae 77 be
       -0.080767944 -0.27866063 -0.20608748 -0.24187821
0000a0 a4 e4 83 be 02 e2 91 be 1c 6f be be 8e e9 e6 bd
       -0.25760376 -0.28492743 -0.37194145 -0.11275016
0000b0 7a 89 38 be 9e 0b 67 be c1 e5 6a be 2c ca 94 be
       -0.18021193 -0.22563025 -0.22939207 -0.29060495
0000c0 b2 4d fb bd 11 d7 0c be 9b 07 83 be af f5 51 be
       -0.122706786 -0.13753916 -0.2559174 -0.20503877
0000d0 c2 c4 83 be c4 db 34 be 53 96 d4 be 49 59 cc be
       -0.25736052 -0.17661959 -0.41520938 -0.3991187
0000e0 ad 86 4d be 33 2d 59 be 53 c9 7e be 2b 16 62 be
       -0.20070906 -0.21208648 -0.24881487 -0.22078769
0000f0 69 45 0f bf 52 71 4f be af 9a 87 be 2c fb 8b be
       -0.55965286 -0.20258072 -0.26485202 -0.27340066
000100 ac 04 6c be 47 5d 9a be e4 6a b2 be 97 a5 9b be
       -0.23048657 -0.3014929 -0.34847176 -0.30399773
000110 b9 6d b0 bd 7c 71 87 be 5b 50 b9 be ee c5 a6 be
       -0.08614678 -0.2645377 -0.3619412 -0.32572883
000120 95 eb 63 be 52 35 bd be 82 69 7c be 8d 35 95 be
       -0.22257836 -0.36954743 -0.24649623 -0.29142419
000130 2e d9 5a be 2e e8 5a be 8a e2 bb be 7b a2 8d be
       -0.2137191 -0.21377632 -0.36696273 -0.27663025
000140 ed 34 11 bf ac 9b c3 be 25 c2 40 be 3c ff 8d be
       -0.56721383 -0.38204706 -0.1882406 -0.2773379
000150 ac 7a a5 be 18 d0 6d be 1c 64 32 bf ae 41 99 be
       -0.32320154 -0.23223913 -0.69684005 -0.29932922
000160 a2 77 fa be 9d af 23 bf f4 e3 30 be 83 68 e3 be
       -0.48919398 -0.6393984 -0.17274457 -0.44415674
000170 7d 34 2d be 90 e0 bd be 1c 18 8e be 78 52 ad be
       -0.16914554 -0.3708539 -0.2775277 -0.3385198
000180 78 44 b0 be 26 19 9e be 19 06 9d be d4 1d 08 bf
       -0.34427238 -0.30878562 -0.30668715 -0.53170514
000190 0c e8 1e be 20 72 da bd 06 6a c5 be f4 1e ae be
       -0.15518206 -0.10666299 -0.38557452 -0.3400799
0001a0 2f 90 4b be 75 bc 8b be 44 54 a4 be b4 d7 7e be
       -0.1987922 -0.2729222 -0.3209554 -0.24886972
0001b0 2d 56 1d bf e5 91 ad be 67 b1 eb be 6a 7b a9 be
       -0.6145962 -0.3390037 -0.46033785 -0.3310197
0001c0 54 5f 19 be b0 a1 83 be fa 9f 68 be 08 5f 02 bf
       -0.14977771 -0.25709295 -0.22717276 -0.50926256
0001d0 9b 9f 8a be de de 76 be a1 41 a4 be d7 8a 89 be
       -0.27074894 -0.24108455 -0.3208132 -0.2686374
0001e0 c4 3f 87 be 65 c3 07 be 10 63 8b be 32 81 a2 be
       -0.26415837 -0.13258131 -0.27224016 -0.31739193
0001f0 7d fa a1 be 08 b8 d3 be b7 78 81 bd af fe 94 be
       -0.3163642 -0.41351342 -0.06321853 -0.29100558
000200 a8 76 0f bf 16 2f 73 be 89 87 8b be b4 dc cf be
       -0.5604043 -0.2374843 -0.27251843 -0.4059807
000210 6d 5e 05 bf 71 6e ac bd 51 2d 5f be fe c0 91 be
       -0.5209721 -0.084195025 -0.2179463 -0.28467554
000220 e4 9d 86 be 94 20 9f be a3 3b 39 be 30 4b 54 be
       -0.26292336 -0.31079543 -0.18089156 -0.20731807
000230 cd 8d aa be e7 05 83 be 07 ad d9 be 91 78 72 be
       -0.3331131 -0.2559044 -0.42514822 -0.23678805
000240 21 ac e2 be d5 6c 5f be a8 63 60 be 91 5e 99 be
       -0.4427195 -0.2181886 -0.21913016 -0.2995496
000250 ea 6f 65 be c5 c2 8b be 38 42 87 be 20 c0 7d be
       -0.22405973 -0.27297035 -0.26417708 -0.24780321
000260 b1 03 18 be d2 a9 24 be bc 2e af be ad 45 c4 be
       -0.14845158 -0.16080406 -0.34215343 -0.38334408
000270 77 ae 98 be 12 79 d1 be 21 e3 07 be 69 0c 6c be
       -0.29820606 -0.40912682 -0.13270237 -0.23051609
000280 b8 a4 80 be d8 b3 84 be 9b a8 22 bf f6 a8 77 be
       -0.2512567 -0.2591846 -0.6353852 -0.24185547
000290 3f 2d b0 be 92 2a 45 be f1 77 85 be 45 6d 6f be
       -0.3440952 -0.1925452 -0.2606807 -0.23381527
0002a0 d7 5d 0f bf 85 dc 68 be 67 d2 da bd 0a d3 ce be
       -0.56002563 -0.22740372 -0.10684662 -0.40395385
0002b0 99 23 79 be 66 59 69 be 3e b9 aa be 8e a6 cb be
       -0.24329986 -0.22788009 -0.33344454 -0.3977551
0002c0 6a d1 28 be 4c 49 4f be 18 34 b8 be ec 48 a0 be
       -0.16486135 -0.20242804 -0.35977244 -0.31305635
0002d0 7c ee 5d be 9b 83 02 be b0 66 c1 bd fd 1a 9b be
       -0.21673006 -0.12745516 -0.09443414 -0.30294028
0002e0 6e 6b 8a be 5a 95 9c be 17 03 6b be bf 4a 8a be
       -0.27035087 -0.30582696 -0.22950397 -0.27010152
0002f0 6a fd 32 be f6 58 8d be 18 86 b0 be d0 1b 26 be
       -0.17479482 -0.27606934 -0.34477305 -0.16221547
000300 9a 33 a2 be d5 39 53 be a6 37 9a be 04 b9 9b be
       -0.31679994 -0.2062753 -0.3012058 -0.30414593
000310 77 7e 89 be 6f f1 a3 be d9 33 bf be 67 97 5d be
       -0.26854298 -0.32020137 -0.37344244 -0.21639787
000320 72 8e b5 be b1 36 89 be 92 6d 84 be 6e 30 a3 be
       -0.3546024 -0.2679954 -0.25864846 -0.31872886
000330 8f 41 5f be 66 d2 93 be 95 96 02 be 0c 4c a9 be
       -0.21802352 -0.2887146 -0.12752755 -0.33065832
000340 48 11 8e be e5 6b 88 be d7 7b 97 be 21 dd d6 be
       -0.2774756 -0.26644817 -0.2958667 -0.41965583
000350 1a 14 81 be 68 8d d5 be 6c 55 85 be b0 1b d3 be
       -0.2521065 -0.41709447 -0.26041734 -0.4123206
000360 6e c9 61 be 8f 8c bc be fb b5 5c be 7f 67 c2 be
       -0.22049496 -0.36825988 -0.21553795 -0.37969586
000370 4f 2e c5 be a1 0a 13 bf 6e 5d da be 67 f5 a7 bd
       -0.38511893 -0.57438093 -0.42649406 -0.08201104
000380 d0 ac 90 be c2 85 9c be a3 25 66 3c ee da 25 bf
       -0.28256845 -0.305708 0.014047059 -0.64787185
000390 77 0b 95 be d2 01 bf be 11 67 f0 be 81 92 9e be
       -0.2911031 -0.37306076 -0.46953633 -0.3097115
0003a0 66 b8 9c be 1c 42 60 be 24 2b a3 be 76 41 65 be
       -0.30609435 -0.21900219 -0.3186885 -0.22388253
0003b0 c8 e8 1d be 57 6d 7b be 45 03 a8 be a1 6b 4f be
       -0.1542083 -0.24553429 -0.32814994 -0.20255901
0003c0 84 98 ae be 17 e4 9e be 66 3a d1 be 6e 38 6f be
       -0.34100735 -0.31033394 -0.40864867 -0.2336137
0003d0 73 b8 8a be c1 f9 0c be a1 e0 c1 be 17 02 2a bf
       -0.2709385 -0.13767149 -0.3786669 -0.6640944
0003e0 49 ab 82 be f9 2c e0 be c7 c1 8c be 00 40 8e bc
       -0.25521305 -0.4378431 -0.2749159 -0.017364502
0003f0 35 44 37 bf bd 8b 60 be d6 3d 75 be 2d 1d 9f be
       -0.7158845 -0.21928306 -0.2394937 -0.31076947

proxy_theta_raw.weight f4 [2493, 1]
000000 f0 65 0b 40 fb f0 ac 3f b6 cf c3 3f 20 f4 dc 3f
       2.1780968 1.3511041 1.5297763 1.7262001
000010 71 83 a1 3f 3f 4d 07 40 46 f1 15 40 28 70 07 40
       1.2618238 2.1140897 2.3428512 2.1162205
000020 74 60 14 40 de fe 11 40 3a 30 7f 3f 2b 95 98 3f
       2.318387 2.2811809 0.9968296 1.1920522
000030 53 78 e6 3f 11 b5 3a 3f 31 68 20 3f 45 42 48 3f
       1.800547 0.72932535 0.62658983 0.7822612
000040 ad 4f 04 3f 21 09 3e 3f 35 b3 20 3f 55 09 69 3f
       0.51684076 0.7423268 0.6277345 0.91029865
000050 a8 b3 6d 3f 3d cf 64 3f 00 45 3d 3f 0f 10 77 3f
       0.9285226 0.8937872 0.7393341 0.9650888
000060 73 56 9b 3f ab c0 b0 3f b5 a9 e7 3f 57 44 ef 3f
       1.2135757 1.3808798 1.8098665 1.8692731
000070 49 c4 a2 3f 12 cd 93 3f c7 3d 8d 3f c6 82 01 40
       1.2716151 1.1546957 1.1034478 2.0236068
000080 de 96 03 40 f2 74 29 40 32 df f7 3f 09 ea 06 40
       2.0560832 2.6477628 1.9364989 2.1080344
000090 4b c4 d4 3f 06 02 fa 3f f7 f0 fd 3f fa f0 e3 3f
       1.6622404 1.9531868 1.9839162 1.7807915
0000a0 e0 62 e8 3f f6 d3 02 40 f8 65 e5 3f a1 96 f4 3f
       1.8155174 2.044187 1.7921743 1.9108468
0000b0 2e 9f ec 3f 74 99 01 40 b3 d0 ff 3f f6 8c ef 3f
       1.8486078 2.024991 1.9985565 1.8714893
0000c0 06 54 e8 3f bf c0 e8 3f a6 9e 0b 40 1c f5 d1 3f
       1.8150642 1.8183821 2.1815581 1.6402926
0000d0 70 c7 e8 3f 67 6b f9 3f 9b f0 03 40 02 0d 0b 40
       1.8185863 1.9485902 2.0615604 2.172669
0000e0 96 5e 0b 40 78 d7 ff 3f 84 d1 ed 3f bf 06 02 40
       2.177648 1.9987631 1.8579564 2.0316617
0000f0 ec f1 fe 3f c4 85 a1 3f 44 fe 02 40 40 00 f8 3f
       1.9917579 1.2618947 2.0467691 1.9375076
000100 fc a3 ff 3f ba 78 04 40 f0 d8 01 40 c1 fd e8 3f
       1.9971919 2.0698686 2.0288658 1.820244
000110 06 13 03 40 90 c1 fe 3f db ac bd 3f 04 87 fd 3f
       2.048036 1.990282 1.4818376 1.9806828
000120 40 7e 08 40 7f 60 f4 3f d1 4f f8 3f 37 69 08 40
       2.1327057 1.9091948 1.9399358 2.1314218
000130 14 59 02 40 27 13 f8 3f 27 37 dc 3f 2e 0f e2 3f
       2.036687 1.9380845 1.7204331 1.7660882
000140 69 f5 eb 3f 3e 0c 02 40 68 f9 f8 3f ff ea f5 3f
       1.8434268 2.0319972 1.9451113 1.921234
000150 30 b3 fe 3f b3 a9 ed 3f 32 af 01 40 66 6d 02 40
       1.9898434 1.8567413 2.026318 2.0379272
000160 6e 01 f3 3f 46 9b ff 3f f2 bc f5 3f dc de df 3f
       1.8984811 1.9969261 1.9198287 1.7489886
000170 d4 de d5 3f 1c c2 e7 3f fc bb ed 3f 81 8b 00 40
       1.6708627 1.8106112 1.8572993 2.0085146
000180 76 6f c5 3f ab 3a 89 3f 80 00 87 3f 3a 62 95 3f
       1.542464 1.0721029 1.0547028 1.1670601
000190 54 98 d1 3f 76 84 a9 3f ab 1c 83 3f 5d 1f 5e 3f
       1.6374612 1.3243549 1.0243124 0.86766607
0001a0 94 ff 70 3f 69 d5 98 3f 2a e5 ad 3f c5 d1 95 3f
       0.9413998 1.1940128 1.358556 1.1704642
0001b0 7b 97 9d 3f a9 f1 99 3f 6a 73 a3 3f 06 f9 ba 3f
       1.2311853 1.2026874 1.2769597 1.4607246
0001c0 73 3e 99 3f bb 52 9a 3f ab 7a a1 3f 60 27 a0 3f
       1.1972183 1.2056497 1.261556 1.2512016
0001d0 62 46 b9 3f e8 c8 97 3f 59 a4 75 3f 64 1d c9 3f
       1.4474604 1.1858187 0.959539 1.5712094
0001e0 fb 31 ae 3f b6 9b b3 3f c5 71 af 3f ed ae a7 3f
       1.3609003 1.4031894 1.3706595 1.3100258
0001f0 05 87 8c 3f c8 52 54 3f 53 a4 81 3f 98 3d 26 3f
       1.0978705 0.82938814 1.0128273 0.64937735
000200 b0 4f f4 3e 9f d4 29 3f 94 85 2f 3f 30 7c 73 3f
       0.47717047 0.6634006 0.685632 0.9511137
000210 15 66 85 3f 24 ce 90 3f 6b f8 97 3f 1e 0e 5d 3f
       1.0421778 1.1312909 1.1872686 0.86349666
000220 b1 0d 5e 3f a6 49 20 3f 5e cb ac 3f 93 ea a0 3f
       0.8673964 0.6261238 1.3499563 1.2571586
000230 23 30 51 3f c2 bc 2d 3f d0 c9 16 40 46 f7 3b 3f
       0.81714076 0.67866147 2.3560677 0.73424184
000240 2d 46 3f 3f 67 56 57 3f 69 91 63 3f 58 04 1c 3f
       0.74716455 0.84116215 0.88893753 0.6094413
000250 ac c3 50 3f 9c 82 c3 3f f2 fb 99 3f 93 d1 06 3f
       0.8154857 1.5274234 1.2030013 0.52663535
000260 d0 68 50 3f 00 5a af 3f 9b c9 27 3f 9d 61 2f 3f
       0.8140993 1.3699341 0.65542 0.6850832
000270 87 3b 96 3f a6 78 b2 3f cb 16 2c 3f 07 22 83 3f
       1.1736916 1.3943069 0.6722228 1.0244759
000280 e1 fa 8c 3f e5 b7 4c 3f d7 56 36 3f 40 37 45 3f
       1.1014062 0.799681 0.7122626 0.7703743
000290 76 a1 46 3f ce 62 42 3f 34 63 51 3f 80 32 3a 3f
       0.7759012 0.75932014 0.81791997 0.72733307
0002a0 85 70 5b 3f b9 4a 79 3f 45 83 80 3f b8 9b b0 3f
       0.85718566 0.9737964 1.004006 1.3797522
0002b0 e7 e2 82 3f a7 4f 5e 3f f5 e2 97 3f b7 f5 61 3f
       1.0225495 0.8684029 1.1866137 0.88265556
0002c0 98 2d 27 3f f6 1b 51 3f ee 1f 88 3f 2d a7 78 3f
       0.65303946 0.8168329 1.0634744 0.9713009
0002d0 eb 0a 81 3f e5 d9 9f 3f c8 49 97 3f 2b e9 6b 3f
       1.0081457 1.2488371 1.1819391 0.9215266
0002e0 c5 c3 96 3f 1c 2c 90 3f b3 19 85 3f b7 5d 99 3f
       1.1778494 1.1263461 1.0398468 1.1981725
0002f0 6f c7 79 3f 46 e4 2f 3f 1a 1e 55 3f 21 24 53 3f
       0.97569937 0.6870769 0.83249056 0.82477003
000300 73 3a af 3f 90 88 2c 3f dd 45 8b 3f c3 f3 3c 3f
       1.3689712 0.6739588 1.0880696 0.7380945
000310 e6 c4 47 3f 79 7e 38 3f e6 1b be 3f 69 ed 24 3f
       0.7803482 0.7206798 1.4852264 0.6442476
000320 d7 61 1d 3f e9 fe 0a 3f ce 0e 3e 3f b5 f3 33 3f
       0.61477417 0.5429521 0.7424134 0.7029374
000330 6d 15 d9 3e 99 6d d1 3e da 4c bb 3e 79 3e 97 3e
       0.4239916 0.4090393 0.3658207 0.2953985
000340 b9 bf d9 3e 89 f3 28 3f 6b eb 73 3f 70 f3 21 3f
       0.42529085 0.65996605 0.95281094 0.6326208
000350 04 86 2a 3f 5a 3d 46 3f 42 ac 4e 3f 48 fe 39 3f
       0.6661074 0.77437365 0.80731595 0.7265363
000360 9d c1 35 3f b7 cf dc 3f 4b c4 d4 3f 06 02 fa 3f
       0.70998555 1.725089 1.6622404 1.9531868
000370 f7 f0 fd 3f e0 62 e8 3f f6 d3 02 40 a1 96 f4 3f
       1.9839162 1.8155174 2.044187 1.9108468
000380 12 0f d7 3f 2e 9f ec 3f f7 02 d6 3f 05 b0 fd 3f
       1.6801474 1.8486078 1.6719655 1.9819342
000390 74 99 01 40 b3 d0 ff 3f 06 54 e8 3f bf c0 e8 3f
       2.024991 1.9985565 1.8150642 1.8183821
0003a0 4e d2 e3 3f 3f d8 e9 3f 31 9f cc 3f 0a e6 c8 3f
       1.7798555 1.8269118 1.5986081 1.5695202
0003b0 14 cd e5 3f ae 91 08 40 c0 23 db 3f bb 48 ca 3f
       1.795321 2.1338916 1.7120285 1.5803446
0003c0 11 a8 dd 3f 8a 8d de 3f 5f 17 de 3f 1d 4c eb 3f
       1.7316915 1.7386944 1.7350882 1.8382603
0003d0 dd c0 d8 3f 62 b3 f9 3f 0d b8 dc 3f b4 d8 d7 3f
       1.6933857 1.9507868 1.7243668 1.6863008
0003e0 52 d7 fa 3f e8 0d ed 3f 11 78 cf 3f 35 cb df 3f
       1.959696 1.8519869 1.6208516 1.7483889
0003f0 0d 89 c8 3f 21 3e f4 3f ec a0 db 3f 68 f9 f8 3f
       1.5666825 1.908146 1.7158484 1.9451113
