GIRT/checkpoint/girt2pl-math1-user-split/checkpoint-epoch-3.pt (torch, 19652 bytes, 3 tensors)

proxy_a_raw.weight f4 [20, 1]
000000 9b 60 37 be 48 a8 ee be 07 e5 1e 3e de 46 0f bf
       -0.17907946 -0.46612763 0.15517054 -0.5596751
000010 0b c1 e9 be e9 4d b4 3e 3d 5a 36 bf 0a c2 a7 bd
       -0.45655093 0.3521569 -0.7123144 -0.08191307
000020 7c de de 3d 27 32 1b 3d a5 e6 9f bd 10 f6 82 be
       0.10882279 0.037889626 -0.07807664 -0.25578356
000030 66 6d 1f 3e 2e 43 9c 3e 81 bc 2e be fb 1a 90 be
       0.15569076 0.30520004 -0.17064096 -0.28145584
000040 6e 64 0e bf 2f 25 d4 3e a8 de 3e 3e 99 dc f7 be
       -0.55621994 0.4143462 0.18639624 -0.4841049

proxy_b_raw.weight f4 [20, 1]
000000 b0 4d e6 be 4e f3 b3 3e d2 19 b7 be 75 97 72 be
       -0.44981146 0.35146564 -0.35761887 -0.23690589
000010 86 ff 57 be 56 77 d7 bd 76 52 bd be 5d e6 3f 3e
       -0.21093568 -0.105208084 -0.36976975 0.1874022
000020 d2 f5 bd 3b 0a da 8f be 24 dc 30 be 09 b8 4f be
       0.0057971263 -0.28096038 -0.17271477 -0.20285048
000030 15 10 7e 3e 13 cf d3 be 99 2c 8d bd 9d e7 9e ba
       0.24810822 -0.41368923 -0.06893272 -0.001212347
000040 22 da e1 3e fc 68 d8 3e 65 5c 8a be fa d9 88 3e
       0.44111735 0.42267597 -0.27023616 0.26728803

proxy_theta_raw.weight f4 [4209, 1]
000000 62 06 16 3c 64 c0 df 3c c4 cc 6b bc e1 4d 3b bc
       0.009156795 0.027313419 -0.014392082 -0.011432142
000010 43 e4 39 bd a0 47 24 bc ed d0 8d 3a 1d 16 bf 3b
       -0.045383703 -0.010026842 0.0010819711 0.0058314935
000020 09 b0 65 3b 3c 77 ad bc 4d 08 ee bc a1 d7 17 3d
       0.0035047552 -0.02117502 -0.029056692 0.037070874
000030 1a 3a d1 3c 43 fc 01 bc e4 f0 a5 bc 29 80 20 bd
       0.0255404 -0.007933679 -0.020256467 -0.039184723
000040 72 d4 ff ba 61 24 9c 3c ea d2 59 bc 0e d6 ab bc
       -0.001951827 0.019060316 -0.013294915 -0.020976093
000050 9f 84 1e bc aa df d7 bc 4c 8b b9 3b ba 5e d4 bb
       -0.009675174 -0.026351769 0.0056623574 -0.006481019
000060 c3 f1 38 bd 1d 05 1c bc 83 19 52 3b 91 da 0a bd
       -0.045152437 -0.0095227035 0.0032058663 -0.033899847
000070 86 09 67 bc f4 e1 8a 3c 02 7e 0e 3d 8b 94 d4 bb
       -0.014101392 0.016953446 0.03478814 -0.0064874343
000080 fa 3b 0a bd 9c ca 83 bb d9 e1 2d bc b6 e7 da bc
       -0.033748604 -0.0040219557 -0.010612928 -0.026721817
000090 2c 91 6a bc 9e d5 06 bc 2d 2f 17 bd a9 48 3a 3c
       -0.014316838 -0.008229641 -0.036910225 0.011369863
0000a0 8a 99 5f bc 10 a1 a5 bc 94 41 2e bc 40 97 a0 bc
       -0.013647446 -0.020218402 -0.010635752 -0.019603372
0000b0 3a 5c 28 3d 3b 0f 47 bd de 2f 2d 3c 2e 6f 36 bc
       0.04110358 -0.04859851 0.010570494 -0.011134906
0000c0 2d 6c 03 bd 50 fe b1 bc 4a 5a 6f 3b 9c 26 c8 bb
       -0.032085586 -0.021727711 0.0036522322 -0.006108118
0000d0 a3 ac ed bc e9 bb 58 bc 88 e9 87 3b 1d 63 21 3c
       -0.029012984 -0.013228395 0.004147712 0.009850291
0000e0 6b 1d 41 bc 16 d4 8f bb 5d 66 a7 ba 9a 98 09 bc
       -0.011786799 -0.0043892963 -0.0012771596 -0.008398199
0000f0 e9 31 2c bc 39 2f d2 bc 6b c2 e1 3c ef d1 1a bd
       -0.010509946 -0.025657283 0.027558526 -0.037797865
000100 c4 5f 46 3c 08 95 d1 3b 8d e9 8d ba 44 49 53 bd
       0.012107793 0.0063959397 -0.001082705 -0.051583543
000110 8b dd b1 bc f0 17 e5 ba 50 b1 b9 bc 08 de f1 bc
       -0.021712085 -0.0017478447 -0.022667557 -0.029524818
000120 ba e1 d5 bc 08 4b 72 ba 58 ba d6 bc d1 36 13 3c
       -0.026108611 -0.0009242748 -0.026211902 0.008985237
000130 40 83 0f 3c 3b ee db 3b 46 7a 3a 3a 01 89 ff 3b
       0.00875932 0.006711749 0.0007113557 0.0077983146
000140 11 5a 18 bd 5b be 62 bd 96 1a e2 3c 41 b9 d3 bc
       -0.03719527 -0.05535732 0.027600568 -0.025845172
000150 4b 50 37 3c 7c da 86 3c 13 55 ae bc af b3 e6 39
       0.011188577 0.016461603 -0.0212808 0.00044002893
000160 5f a4 bb 3b 70 0e 05 bd b0 1b bc 3c c3 07 35 3d
       0.0057263817 -0.03248447 0.022962421 0.044196855
000170 17 28 01 bd 66 77 04 bd 7c 3e ba bb a6 c9 62 bc
       -0.031532373 -0.03234043 -0.0056837182 -0.013842022
000180 a7 ec d8 bb b3 3b 84 bc 71 3d e7 bc f0 7a 08 bc
       -0.006620008 -0.016141748 -0.02822754 -0.008330092
000190 3f 01 01 bb 15 c3 fb bc 17 f6 af bc 1e c0 19 bd
       -0.001968458 -0.03073267 -0.02147965 -0.037536733
0001a0 b0 f4 ad ba 7f ad be bb 99 b2 98 bc 3e 55 81 bd
       -0.0013271775 -0.005819022 -0.01863985 -0.06315087
0001b0 f9 f6 0c 3c 76 56 81 bc 7a d9 9b bc 86 22 17 bb
       0.008603805 -0.015788298 -0.0190246 -0.002306135
0001c0 2a 2f 92 3c b3 2f ed 39 22 4b c3 ba 62 f0 7f bb
       0.017844755 0.000452397 -0.0014899711 -0.0039053191
0001d0 22 6f 0e bc 5c 48 d8 3c f0 5e 4f bd ae a7 45 3d
       -0.008693488 0.026401691 -0.05062765 0.048255615
0001e0 aa 5d 69 bb 6f aa c1 bc 25 ae 82 bc 33 fb c0 3b
       -0.0035608807 -0.02364084 -0.01595218 0.0058893203
0001f0 64 3c 05 bd c6 6e 00 3d 40 ef 88 bc ba 32 26 3c
       -0.032528296 0.03135564 -0.016715646 0.01014393
000200 fd 0c 50 bd a4 d0 bc bc 60 6c 2a bc be 1e 02 bd
       -0.050793637 -0.023048706 -0.010401815 -0.0317676
000210 d7 02 98 bc 1a 04 bf ba 99 55 b5 bb 46 78 81 3b
       -0.018556042 -0.0014573366 -0.0055338857 0.0039511053
000220 4f 2a 8d bc 50 77 03 bc 8b 20 e6 bc 47 bc dd bc
       -0.017232088 -0.008024052 -0.02809169 -0.027067317
000230 1d 91 f8 3c a7 9b b0 bc bc 1c a9 bb bd 6d 36 3a
       0.030342633 -0.021558596 -0.005160896 0.00069591013
000240 07 5d 27 bd 69 fe 9d bc c2 33 e2 3b ea bb 3d bb
       -0.040860202 -0.019286351 0.0069031427 -0.0028951117
000250 01 b8 83 bb 14 18 0f bc 6e 4a a3 bc 45 86 2b bd
       -0.0040197377 -0.008733768 -0.019932952 -0.041876096
000260 5c 06 2a bd b2 31 f1 bc 62 5d bb 3c f8 ab 53 bd
       -0.04150997 -0.029442642 0.022871677 -0.051677674
000270 7a 77 00 bd ec 4b 41 bd 72 65 21 bc 6e 93 ff bb
       -0.03136394 -0.047191545 -0.009850847 -0.0077995574
000280 e7 51 45 bc b2 e7 72 3a cf a1 5c bc d3 05 19 bd
       -0.012043453 0.00092660927 -0.013466313 -0.03735907
000290 6b 11 a7 bc 01 10 ee 39 43 31 83 bc ce 63 56 bb
       -0.020394048 0.0004540682 -0.0160147 -0.0032713297
0002a0 33 7d 82 3c 68 15 3f 3c 8b ed 68 bd 51 d7 8b bd
       0.01592884 0.0116628185 -0.056867164 -0.06828178
0002b0 38 5f 7e bc dc ea 27 bd 84 7e b1 3c f4 bd af bc
       -0.015525632 -0.040995464 0.021666773 -0.021452881
0002c0 f9 2a 48 3c 72 d2 72 3c cc 22 f3 bc 18 e5 ad 3c
       0.012217277 0.014820682 -0.029679678 0.021227404
0002d0 52 1c 3b bd 15 b1 92 bc 46 b3 3f ba 62 00 67 3c
       -0.045681305 -0.017906705 -0.00073127856 0.014099212
0002e0 eb 9a b8 3c e7 7f 11 bd 20 21 e2 bb 07 1b a4 3b
       0.022534808 -0.035522368 -0.0069009215 0.0050081047
0002f0 8a 2b 7f 3c 72 b9 cf bc 30 6e ed bc 21 4e 2f bd
       0.015574345 -0.025356982 -0.028983206 -0.04279912
000300 b4 4a 9e 3c ad 3f 5f bd f0 db 72 3c 8f 7a 5c 3c
       0.01932273 -0.054504085 0.014822945 0.013456955
000310 a5 ea 05 bd e8 e7 2c bd c6 5e 72 bb eb 6b 60 3c
       -0.032694478 -0.04221335 -0.003698276 0.013697605
000320 5b 96 1a bc bc c4 9b bc ff ed 3b bd 41 88 1c bd
       -0.009435262 -0.019014709 -0.045881268 -0.03821588
000330 ab f5 8e bb de a4 ae bc 24 61 6f bc d5 25 62 bd
       -0.004362782 -0.02131885 -0.0146105625 -0.05521186
000340 41 8c a5 3b 75 e6 04 3d cd 08 50 3b 0e c4 60 bc
       0.00505212 0.032446343 0.0031743527 -0.013718618
000350 b0 53 0a bc 93 fc b1 3b 32 c9 5a bc 5c 08 cb bc
       -0.008442804 0.0054317205 -0.013353633 -0.02478426
000360 47 5c 4b 3c f5 28 c4 bb 44 d5 ff bc 1e a9 1b bc
       0.012412137 -0.005986328 -0.031229623 -0.00950077
000370 76 3b a9 bb 12 f3 6e bc 48 65 7a 3c 0c d0 1c bc
       -0.005164559 -0.01458432 0.015282936 -0.009571087
000380 f6 d3 10 3c 37 b1 83 bc d3 9c 26 3d ad 34 b0 bc
       0.008839598 -0.016075714 0.040676903 -0.021509493
000390 b2 c1 ab bc 90 22 9c bc 46 7a d2 3b 62 4a a6 bc
       -0.020966385 -0.01905945 0.0064232675 -0.02029914
0003a0 dd 57 f7 ba d0 21 a1 bc 82 b3 33 3c 74 8a 52 bb
       -0.001887079 -0.019669443 0.010968091 -0.0032125982
0003b0 e1 55 69 bd 31 db 92 3c ff d3 bb 3c 81 1f 5f bc
       -0.056966666 0.017926784 0.022928236 -0.013618351
0003c0 22 f4 11 bc bd 80 cb bc 48 f6 c2 bc b1 ea 96 bc
       -0.008908303 -0.02484166 -0.023799077 -0.018422456
0003d0 f8 d0 22 bc 70 1e 46 3a de 63 78 bc bd 15 a4 bc
       -0.009937517 0.0007557636 -0.015160529 -0.020029897
0003e0 68 97 16 bd 84 79 f4 3c e4 04 dd 3b 71 5a 42 bd
       -0.036765486 0.0298431 0.006744968 -0.047449533
0003f0 06 17 d8 bc ad d1 d0 bb 27 45 ef 3c fc e0 da bc
       -0.026378166 -0.0063726516 0.02920778 -0.026718609
