GIRT/checkpoint/girt2pl-math1-user-split/checkpoint-epoch-2.pt (torch, 19652 bytes, 3 tensors)

proxy_a_raw.weight f4 [20, 1]
00000000: 50af 2abe 993a e9be 282c 2a3e fd33 0cbf
00000010: 825f e8be 3cad ba3e 7584 34bf 1f96 90bd
00000020: a4dc f53d f750 653d 7517 66bd 2207 79be
00000030: 1efc 263e d4b6 a53e 5468 22be f15b 85be
00000040: b7f9 08bf 6f2d db3e 31ef 483e 2b56 f2be
-0.16668439 -0.4555252 0.16618407 -0.5476683 -0.45385367 0.36460292 -0.70514613 -0.07059883
0.120049745 0.055985417 -0.056174714 -0.24319127 0.16307113 0.3236605 -0.1586011 -0.26046708
-0.53506035 0.428081 0.19622494 -0.47331366

proxy_b_raw.weight f4 [20, 1]
00000000: 9506 e8be 8e3a b23e b3d2 b8be 4309 76be
00000010: 4f71 5bbe ee5a debd 580b bfbe a974 3c3e
00000020: c47d 1f3b e592 91be ef4d 34be d229 53be
00000030: 6b9e 7a3e f387 d5be 2a10 94bd d6f0 95bb
00000040: 6521 e03e 3fb0 d63e 4015 8cbe 3821 873e
-0.45317522 0.348103 -0.3609825 -0.2402697 -0.21429943 -0.10857187 -0.37313342 0.18403877
0.0024336437 -0.28432384 -0.17607854 -0.20621422 0.24474494 -0.41705284 -0.072296456 -0.004575829
0.43775478 0.4193134 -0.27359962 0.2639253

proxy_theta_raw.weight f4 [4209, 1]
00000000: 7317 4d3c 0449 fb3c e7bb 34bc f83c 04bc
00000010: 3a20 2cbd 606d dabb 3596 913b 129c 163c
00000020: 14fa e03b bfee 91bc dc7f d2bc cc9b 253d
00000030: b9c2 ec3c a2d6 95bb 6768 8abc 1fbc 12bd
00000040: 54b3 b83a feac b73c 04c2 22bc 914d 90bc
00000050: 56e7 cebb 3257 bcbc aed6 133c a779 4cbb
00000060: ba2d 2bbd 59e8 c9bb ca2e d73b dc2c fabc
00000070: a5f8 2fbc 946a a63c 2d42 1c3d 4be5 4cbb
00000080: afef f8bc e145 2dba d9a1 edbb 405f bfbc
00000090: 4c80 33bc 5689 9fbb 236b 09bd c059 713c
000000a0: a788 28bc 9218 8abc 5061 eebb c00e 85bc
000000b0: 6720 363d 344b 39bd f540 643c 87bc febb
000000c0: df4f ebbc d475 96bc 36cf e53b 7c09 34bb
000000d0: 3224 d2bc 05ab 21bc 9d0b f63b 2f74 583c
000000e0: 820c 0abc c8c8 86ba a990 083b 470f a5bb
000000f0: f741 eabb c1a6 b6bc 0a4b fd3c e50d 0dbd
00000100: dc70 7d3c 8cdb 1f3c 0c4f 153b 3d85 45bd
00000110: 1155 96bc de6f d33a d528 9ebc 9655 d6bc
00000120: 4259 babc 0db1 1f3b e031 bbbc e347 4a3c
00000130: 5194 463c 2208 253c 3d71 853b 92d5 363c
00000140: 0796 0abd 53fa 54bd 35a3 fd3c ca30 b8bc
00000150: 6161 6e3c 1c63 a23c 97cc 92bc 531a 793b
00000160: 3ae3 143c 7b94 eebc 4da4 d73c f0cb 423d
00000170: b8c7 e6bc 6166 edbc 4139 18bb c3b8 2bbc
00000180: 8995 55bb 9266 51bc feb4 cbbc 00d4 a2bb
00000190: 4b85 b63a a53a e0bc 9b6d 94bc 14fc 0bbd
000001a0: 7d49 053b 4d17 21bb 4154 7abc 86e6 74bd
000001b0: 0c08 443c 069c 4bbc fc50 80bc a542 8a3a
000001c0: c9b7 ad3c d9e9 793b 943c f53a 8fb2 0eba
000001d0: 52bc aebb fad0 f33c e99a 41bd dc6b 533d
000001e0: 219e 51b9 f721 a6bc 6b4b 4ebc a38e 173c
000001f0: 64f0 eebc f032 0e3d a9cd 5abc ce43 5d3c
00000200: f648 42bd 2a48 a1bc f0b6 e6bb feb4 e8bc
00000210: bff4 78bc 9983 f93a 7b67 0ebb 5d9a ef3b
00000220: ba43 63bc b8cc 98bb 1898 cabc d033 c2bc
00000230: b50c 0a3d 2b13 95bc 5beb ebba acef 843b
00000240: fd98 19bd eb75 82bc e72a 283c 3e3f f439
00000250: 02b1 2cba 3f0e b0bb f0c1 87bc 3ac2 1dbd
00000260: 5142 1cbd 41a9 d5bc ffe5 d63c f1e7 45bd
00000270: 8166 e5bc e487 33bd fba8 d4bb 8a71 91bb
00000280: fe40 0ebc e87e 8c3b eb90 25bc c941 0bbd
00000290: ee88 8bbc e205 7a3b ab51 4fbc 4dfe bb38
000002a0: d305 9e3c 8026 763c 8429 5bbd 2bf5 84bd
000002b0: 5c4e 47bc d126 1abd 2107 cd3c 7835 94bc
000002c0: 133c 7f3c d3f1 943c 5a9a d7bc b76d c93c
000002d0: 4958 2dbd 2751 6ebc f956 2c3b c408 8f3c
000002e0: 8a23 d43c dcbb 03bd 79fe 67bb 911e 093c
000002f0: 5f1e 9b3c fa30 b4bc bfe5 d1bc 178a 21bd
00000300: 51d3 b93c a77b 51bd 92f6 943c d2c5 893c
00000310: e34c f0bc dd23 1fbd 2dd8 b0b9 7abe 8b3c
00000320: ce0a c7bb 3e3c 80bc f529 2ebd 37c4 0ebd
00000330: 2c4f 83ba 621c 93bc 4350 38bc ce61 54bd
00000340: 2ad7 093c 9faa 123d 7026 d63b 2ab3 29bc
00000350: 7385 a6bb 550f 103c 4db8 23bc e27f afbc
00000360: b936 813c 370e 2cbb d64c e4bc 5b30 c9bb
00000370: 4566 ecba 33e2 37bc 3dbb 983c 327e cbbb
00000380: 06e5 473c 9951 50bc 0061 343d 31ac 94bc
00000390: 3539 90bc 129a 80bc 2b4e 203c e4c1 8abc
000003a0: ed2f c13a 5199 85bc 99c4 6a3c fc94 1b39
000003b0: dc91 5bbd d063 ae3c 9c5c d73c 9e0e 28bc
000003c0: 50c6 b5bb 43f8 afbc cf6d a7bc 76c4 76bc
000003d0: 0780 d7bb c1e5 863b fe52 41bc 408d 88bc
000003e0: 5fd3 08bd ef00 083d 7693 253c 6a96 34bd
000003f0: 8f8e bcbc 935f 45bb d566 053d 8858 bfbc
0.012517798 0.030674465 -0.011031128 -0.008071177 -0.04202292 -0.0066658705 0.004442955 0.0091924835
0.006865749 -0.017814038 -0.025695734 0.040431783 0.028901445 -0.0045727054 -0.016895486 -0.035823938
0.001409153 0.022421356 -0.009933952 -0.017615112 -0.0063141985 -0.022990797 0.009023352 -0.003120044
-0.041791655 -0.006161731 0.006566857 -0.030538969 -0.010740434 0.020314492 0.038149048 -0.00312646
-0.030387728 -0.0006609839 -0.0072519598 -0.023360848 -0.010955881 -0.0048686666 -0.03354944 0.014730871
-0.010286487 -0.01685742 -0.007274784 -0.016242385 0.044464495 -0.045237735 0.013931503 -0.007773939
-0.028724609 -0.018366732 0.007013227 -0.0027471473 -0.025652025 -0.009867434 0.0075087086 0.013211294
-0.008425834 -0.0010283226 0.0020838177 -0.0050372216 -0.007148977 -0.022296311 0.03091957 -0.03443708
0.015468802 0.009756934 0.0022782711 -0.04822277 -0.01835111 0.0016131361 -0.01930658 -0.026163857
-0.02274764 0.0024367005 -0.02285093 0.012346241 0.012120322 0.01007274 0.004072337 0.011159318
-0.033834483 -0.05199654 0.030961612 -0.022484202 0.014549584 0.01982265 -0.017919822 0.0038010075
0.009087378 -0.029123535 0.026323462 0.04755777 -0.028171405 -0.028979482 -0.0023227485 -0.010481062
-0.003259035 -0.012780802 -0.024866577 -0.00496912 0.0013925222 -0.027371714 -0.01811867 -0.034175947
0.0020337992 -0.0024580539 -0.015278877 -0.059790157 0.011964809 -0.012427336 -0.015663616 0.0010548426
0.0212058 0.0038133769 0.001871007 -0.00054434774 -0.005332508 0.029762734 -0.047266874 0.051616535
-0.00019990701 -0.020279868 -0.012591223 0.009250316 -0.029167362 0.034716547 -0.013354697 0.013504935
-0.047432862 -0.01968773 -0.007040851 -0.028406616 -0.015195071 0.0019036412 -0.002172916 0.0073121027
-0.013871128 -0.0046630763 -0.024730727 -0.023706347 0.033703525 -0.018197617 -0.0017999219 0.0040568914
-0.037499417 -0.015925368 0.010264135 0.00046586426 -0.00065876555 -0.005372792 -0.016571969 -0.038515307
-0.03814918 -0.026081683 0.026232718 -0.0483169 -0.02800298 -0.043830767 -0.0064898706 -0.0044385837
-0.0086824875 0.0042875893 -0.010105352 -0.033998284 -0.017033067 0.003815048 -0.0126537485 8.964222e-05
0.019289887 0.015023828 -0.05350639 -0.064920746 -0.012164678 -0.037634674 0.025027813 -0.018091902
0.015578288 0.018181717 -0.026318718 0.024588449 -0.042320523 -0.014545715 0.0026296957 0.017460234
0.025895853 -0.03216158 -0.003539948 0.008369104 0.01893538 -0.02199601 -0.025622247 -0.039438333
0.022683771 -0.051143315 0.01818398 0.01681796 -0.029333537 -0.03885256 -0.000337304 0.0170586
-0.006074286 -0.015653726 -0.042520482 -0.034855094 -0.0010018102 -0.01795787 -0.011249605 -0.051851086
0.0084131155 0.03580725 0.006535344 -0.010357657 -0.0050818264 0.008792718 -0.009992671 -0.021423284
0.015773164 -0.002625359 -0.02786867 -0.0061397976 -0.001803585 -0.011223364 0.01864397 -0.006210112
0.0122006 -0.012714767 0.04403782 -0.018148514 -0.017605403 -0.015698466 0.009784262 -0.016938157
0.0014739014 -0.016308459 0.014329099 0.00014837453 -0.0536059 0.021287829 0.026289277 -0.010257391
-0.0055473223 -0.021480685 -0.020438103 -0.015061488 -0.0065765413 0.0041167443 -0.011799572 -0.016668916
-0.033404704 0.033204015 0.010105958 -0.04408876 -0.023017196 -0.003011678 0.03256877 -0.023357645
