GIRT/checkpoint/girt2pl-math2-random-split/checkpoint-epoch-4.pt (torch, 18436 bytes, 3 tensors)

proxy_a_raw.weight f4 [20, 1]
0.077303514 0.023202099 -0.0010065878 -0.028700272 0.07774502 0.0754816 -0.032961786 -0.030861406
0.07652629 -0.016037896 -0.030080792 -0.035246477 0.07557926 0.07932549 0.07758107 -0.024605451
0.05290392 0.09534731 0.07327824 -0.032220364
00000000: 4e51 9e3d 5412 be3c 7bef 83ba d51c ebbc
00000010: c838 9f3d 1996 9a3d f002 07bd 0fd1 fcbc
00000020: d1b9 9c3d e861 83bc fe6b f6bc 9c5e 10bd
00000030: 4dc9 9a3d 6775 a23d d3e2 9e3d 5f91 c9bc
00000040: c8b1 583d 7345 c33d e712 963d 80f9 03bd

proxy_b_raw.weight f4 [20, 1]
-0.13746949 -0.1475116 -0.14669883 -0.1422023 -0.13627888 -0.12767586 -0.13216154 -0.13129029
-0.120781034 -0.14030321 -0.12673466 -0.13638848 -0.13302766 -0.14088786 -0.13757856 -0.119737245
-0.1424153 -0.07735351 -0.14591397 -0.13726506
00000000: cdc4 0cbe 480d 17be 3838 16be 7b9d 11be
00000010: b18c 0bbe 76bd 02be 5b55 07be f670 06be
00000020: 0c5c f7bd a5ab 0fbe bbc6 01be 6ca9 0bbe
00000030: 6738 08be e844 10be 65e1 0cbe cd38 f5bd
00000040: 51d5 11be 846b 9ebd 796a 15be 368f 0cbe

proxy_theta_raw.weight f4 [3911, 1]
0.19858946 0.19686408 0.19733189 0.1965798 0.20040081 0.19809479 0.19810724 0.19707473
0.19777544 0.1965952 0.19751237 0.19771639 0.19583498 0.1985604 0.1968965 0.19678083
0.19576395 0.1954583 0.19964196 0.19792537 0.19953227 0.19492984 0.19775279 0.19674692
0.1983509 0.19778779 0.1996822 0.19915694 0.19787872 0.1966523 0.19898136 0.2003823
0.19733515 0.19758402 0.20021641 0.19764128 0.19794688 0.19775215 0.19838487 0.19806166
0.1990783 0.19851471 0.19721723 0.19462161 0.19900483 0.19523935 0.19686744 0.19826466
0.19753589 0.19718722 0.19810165 0.19933513 0.19779533 0.19635616 0.19815908 0.19770439
0.19812153 0.1974981 0.19633958 0.19743854 0.19658785 0.19828717 0.19536857 0.19838479
0.19868504 0.19583142 0.19906326 0.19817194 0.1986227 0.1983384 0.19672744 0.19695155
0.19795719 0.19833313 0.19737759 0.19734225 0.19912815 0.19886559 0.19745298 0.19942091
0.19837788 0.19726805 0.19867271 0.19868365 0.19707511 0.19394036 0.19787714 0.19920208
0.19866599 0.1961826 0.19877332 0.19873108 0.19689678 0.1970561 0.19802812 0.19814426
0.19683608 0.19682008 0.19726822 0.19964975 0.19895104 0.19653924 0.19920447 0.1975451
0.19772483 0.19609949 0.19852455 0.19946119 0.19760337 0.19827619 0.19957674 0.19573188
0.1978128 0.19715564 0.19644149 0.19789228 0.19637178 0.19591787 0.1957167 0.19772843
0.19843027 0.20029275 0.19729878 0.19735022 0.1975808 0.19907615 0.19623311 0.20098239
0.19546211 0.19927706 0.19865483 0.1973329 0.19694263 0.19801284 0.1956671 0.19813015
0.19457217 0.19625343 0.19971505 0.19685979 0.19653164 0.19658175 0.1968133 0.1978023
0.19904353 0.19774573 0.1955299 0.19802812 0.19658862 0.19752127 0.19843821 0.1960611
0.1968841 0.19649401 0.19532317 0.19838254 0.19603635 0.19946244 0.19717789 0.19859935
0.19723088 0.19897135 0.19585726 0.19910319 0.19777688 0.1959653 0.19853444 0.19699046
0.19496757 0.19811745 0.19734062 0.1981087 0.19789101 0.19718061 0.19678925 0.1962517
0.1997087 0.19590998 0.19732477 0.19943485 0.19498831 0.19786711 0.19592719 0.19780585
0.19767497 0.19680183 0.19642939 0.19637592 0.19741087 0.19692981 0.19783352 0.19708815
0.19558008 0.19825752 0.19836847 0.19773076 0.19777645 0.19763802 0.19692971 0.19979014
0.19735175 0.19798991 0.19814728 0.19564027 0.19573827 0.20003755 0.1968761 0.19784996
0.19718888 0.19514331 0.19421455 0.19633389 0.19605869 0.19841063 0.19601926 0.1983773
0.1975385 0.19888183 0.19962715 0.1951374 0.19737712 0.20054162 0.19784658 0.19926578
0.19731325 0.1966761 0.19674379 0.19825053 0.19874188 0.1994169 0.19761467 0.19705708
0.19853173 0.19746305 0.1970768 0.19934903 0.1973735 0.19608222 0.19848423 0.19778779
0.19845705 0.19986266 0.1981087 0.19853513 0.19680788 0.19757159 0.19839364 0.19823854
0.19840242 0.19952603 0.19721213 0.20035473 0.19892886 0.19802573 0.19786924 0.19608195
00000000: 095b 4b3e bd96 493e 5f11 4a3e 374c 493e
00000010: df35 4d3e 5cd9 4a3e a0dc 4a3e f5cd 493e
00000020: a585 4a3e 4150 493e af40 4a3e 2a76 4a3e
00000030: f788 483e 6b53 4b3e 3c9f 493e ea80 493e
00000040: 5876 483e 3826 483e f16e 4c3e f3ac 4a3e
00000050: 3052 4c3e b09b 473e b57f 4a3e 0678 493e
00000060: 801c 4b3e e288 4a3e 7e79 4c3e ccef 4b3e
00000070: b8a0 4a3e 385f 493e c5c1 4b3e 0531 4d3e
00000080: 3a12 4a3e 7753 4a3e 8805 4d3e 7a62 4a3e
00000090: 96b2 4a3e 8a7f 4a3e 6725 4b3e add0 4a3e
000000a0: 2fdb 4b3e 7147 4b3e 50f3 493e e34a 473e
000000b0: ecc7 4b3e d3ec 473e 9e97 493e e405 4b3e
000000c0: d946 4a3e 72eb 493e 29db 4a3e 821e 4c3e
000000d0: dc8a 4a3e 9711 493e 37ea 4a3e 0573 4a3e
000000e0: 5fe0 4a3e f13c 4a3e 3e0d 493e 542d 4a3e
000000f0: 534e 493e cb0b 4b3e b30e 483e 6225 4b3e
00000100: 1774 4b3e 0888 483e 3dd7 4b3e 96ed 4a3e
00000110: c063 4b3e 3919 4b3e eb72 493e abad 493e
00000120: 4ab5 4a3e d717 4b3e 5a1d 4a3e 1614 4a3e
00000130: 40e8 4b3e 6ca3 4b3e 1d31 4a3e ff34 4c3e
00000140: 9223 4b3e a300 4a3e dc70 4b3e ba73 4b3e
00000150: 0fce 493e 4d98 463e 4ea0 4a3e a1fb 4b3e
00000160: 196f 4b3e 17e4 483e 3c8b 4b3e 2980 4b3e
00000170: 4f9f 493e 13c9 493e e2c7 4a3e 54e6 4a3e
00000180: 668f 493e 348b 493e ae00 4a3e fc70 4c3e
00000190: d2b9 4b3e 9541 493e 42fc 4b3e 4349 4a3e
000001a0: 6178 4a3e 4ece 483e 054a 4b3e 8e3f 4c3e
000001b0: 8a58 4a3e ea08 4b3e d85d 4c3e f06d 483e
000001c0: 708f 4a3e 2be3 493e f527 493e 46a4 4a3e
000001d0: af15 493e b29e 483e f569 483e 5279 4a3e
000001e0: 4e31 4b3e 8b19 4d3e b108 4a3e 2d16 4a3e
000001f0: 9f52 4a3e 9eda 4b3e 55f1 483e 54ce 4d3e
00000200: 3827 483e 490f 4c3e 2c6c 4b3e a311 4a3e
00000210: 54ab 493e e1c3 4a3e f55c 483e a1e2 4a3e
00000220: ed3d 473e a9f6 483e 1a82 4c3e 9d95 493e
00000230: 973f 493e ba4c 493e 6d89 493e b08c 4a3e
00000240: 11d2 4b3e db7d 4a3e fd38 483e e2c7 4a3e
00000250: 874e 493e 0443 4a3e 6333 4b3e 3ec4 483e
00000260: fc9b 493e ba35 493e cc02 483e cb24 4b3e
00000270: c1bd 483e e23f 4c3e 00e9 493e a15d 4b3e
00000280: e4f6 493e 25bf 4b3e ce8e 483e b5e1 4b3e
00000290: 0686 4a3e 21ab 483e 9d4c 4b3e deb7 493e
000002a0: 94a5 473e 4ddf 4a3e a913 4a3e 02dd 4a3e
000002b0: f1a3 4a3e b7e9 493e 1f83 493e 35f6 483e
000002c0: 7080 4c3e a09c 483e 810f 4a3e a638 4c3e
000002d0: 04ab 473e ad9d 4a3e 23a1 483e 9e8d 4a3e
000002e0: 4f6b 4a3e 6b86 493e c924 493e c516 493e
000002f0: 1326 4a3e f8a7 493e df94 4a3e 7ad1 493e
00000300: 2546 483e 0504 4b3e 1b21 4b3e ef79 4a3e
00000310: e985 4a3e 9f61 4a3e f1a7 493e c995 4c3e
00000320: 9416 4a3e debd 4a3e 1fe7 4a3e ec55 483e
00000330: 9d6f 483e a5d6 4c3e e399 493e 2e99 4a3e
00000340: e2eb 493e a6d3 473e 2ee0 463e c00b 493e
00000350: 9cc3 483e 282c 4b3e 46b9 483e 6b23 4b3e
00000360: 8847 4a3e aea7 4b3e 0f6b 4c3e 19d2 473e
00000370: 3a1d 4a3e c85a 4d3e 4b98 4a3e 540c 4c3e
00000380: 7c0c 4a3e 7665 493e 3477 493e 3002 4b3e
00000390: fe82 4b3e f233 4c3e 805b 4a3e 55c9 493e
000003a0: e74b 4b3e c133 4a3e 80ce 493e 2722 4c3e
000003b0: 471c 4a3e c7c9 483e 733f 4b3e e288 4a3e
000003c0: 5338 4b3e cca8 4c3e 02dd 4a3e cb4c 4b3e
000003d0: 0188 493e 3550 4a3e b427 4b3e 0bff 4a3e
000003e0: 012a 4b3e 8d50 4c3e faf1 493e ca29 4d3e
000003f0: 02b4 4b3e 42c7 4a3e 3c9e 4a3e b5c9 483e
