GIRT/checkpoint/girt2pl-math2-random-split/checkpoint-epoch-9.pt (torch, 18436 bytes, 3 tensors)

proxy_a_raw.weight f4 [20, 1]
00000000: 26e2 343e c37c 593d e26a a2bb 8b27 94bd
00000010: f69b 353e bf14 323e d8b8 b3bd 3f3c acbd
00000020: 0535 333e 8aa1 34bd 06dd a8bd 3d39 babd
00000030: d73e 333e 2712 393e 721b 363e 74ea 8bbd
00000040: ea4c f43d 60b8 603e f981 2a3e 1f7c a9bd
0.17664394 0.053097498 -0.004956589 -0.07234105 0.17735276 0.17390727 -0.087754905 -0.084099285
0.17500694 -0.04409937 -0.08245282 -0.090929486 0.1750444 0.18073331 0.17783907 -0.06831828
0.11928733 0.21945333 0.16651143 -0.08275627

proxy_b_raw.weight f4 [20, 1]
00000000: 6360 39be 693a 50be fc92 4dbe 67f0 3fbe
00000010: 5ea9 37be 41a8 22be cb15 26be 6aca 22be
00000020: e241 13be be72 3cbe 98c5 16be 318f 2fbe
00000030: fe6b 30be d05d 41be ddcb 3abe 3327 0abe
00000040: 5a04 44be 6130 39bd 6b15 4cbe f6fe 33be
-0.18103175 -0.20334782 -0.20075601 -0.1874405 -0.17935702 -0.15884496 -0.16219251 -0.15897527
-0.14380601 -0.18403146 -0.14723814 -0.17144467 -0.17228696 -0.18883443 -0.1824183 -0.13491516
-0.19142285 -0.045212153 -0.19930045 -0.17577729

proxy_theta_raw.weight f4 [3911, 1]
00000000: d7a8 a23e c9e3 a03e 2abc a03e b56f a03e
00000010: d117 a53e b466 a23e 45fc a13e 4bc6 a03e
00000020: 4c03 a13e 045a a03e fe0a a13e 3a43 a13e
00000030: 06e7 9f3e 7ef7 a13e 001c a03e 98c9 a03e
00000040: f921 9f3e 0f38 9f3e 46e8 a33e fd95 a13e
00000050: 310e a43e b633 9e3e dad3 a13e 1550 a13e
00000060: 3694 a13e 41a1 a13e 8b34 a43e 2186 a33e
00000070: e940 a13e 1ca6 a03e 5be6 a23e 0295 a43e
00000080: b771 a13e 347b a13e 5768 a43e c068 a13e
00000090: c5b6 a13e dbab a13e d3a8 a23e 20a1 a23e
000000a0: cd35 a33e 679b a23e 2b1d a13e 3343 9e3e
000000b0: c049 a33e 3e11 9f3e 141d a13e 4b27 a23e
000000c0: 3080 a13e 7e99 a03e 390c a23e 4a55 a33e
000000d0: cba4 a13e d369 9f3e 5a2c a33e 4ddf a13e
000000e0: f7da a13e dde0 a13e 6a2e a03e e902 a13e
000000f0: 0cdf a03e 0e8e a23e af81 9f3e 4b6a a23e
00000100: 58fe a23e a9cb 9f3e 091c a33e 4205 a23e
00000110: 7eea a13e 77cc a13e 6622 a13e 19e2 a03e
00000120: cc49 a23e 5b96 a13e 9981 a13e c8a9 a13e
00000130: 1e70 a33e 69a5 a33e 2104 a13e 73b1 a33e
00000140: d8d0 a23e 7a2f a13e ce3f a23e 6ad0 a23e
00000150: 7999 a03e 1f40 9d3e b9e3 a13e 27c3 a33e
00000160: 3c05 a33e 04fc 9e3e b43f a33e efb6 a23e
00000170: caae a03e b66d a13e e1c2 a13e fc24 a23e
00000180: 58e2 a03e edae a03e 415f a13e 9d50 a33e
00000190: f130 a33e b3b5 a03e 2fae a33e e454 a23e
000001a0: 600b a23e 49f2 9f3e cc91 a23e 1610 a33e
000001b0: 2ba2 a13e d285 a23e c4f2 a33e 4dfd 9e3e
000001c0: 49c1 a03e 6f44 a13e 02b1 9f3e 7fd1 a03e
000001d0: 01ef 9f3e faf5 9f3e 8866 9f3e 92f9 a03e
000001e0: 7209 a33e 136f a43e 126c a13e e88c a13e
000001f0: 1f6c a13e a413 a33e a54a a03e 02b7 a53e
00000200: 0a0b 9f3e c11b a33e b157 a23e 1182 a13e
00000210: 4603 a13e 5e5c a23e de1c 9f3e 6906 a33e
00000220: c9a6 9d3e 06c3 9f3e f954 a43e c240 a03e
00000230: 3d9b 9f3e 7999 a03e 76d6 a03e 8a93 a13e
00000240: 5c70 a33e 8960 a13e 9a3b 9f3e e1c2 a13e
00000250: 49aa a03e fb63 a13e 4575 a23e 0bf2 9f3e
00000260: 83d7 a03e 3a6c a03e ce62 9e3e 52d3 a23e
00000270: a327 a03e 2cb2 a33e 4c7f a13e 5009 a33e
00000280: eff7 a03e bdcb a33e 6461 9f3e eb7d a33e
00000290: d685 a23e 297e 9f3e 2e11 a33e acaf a03e
000002a0: bafd 9e3e f70d a23e d8fe a13e 053c a23e
000002b0: fabd a13e 09e6 a03e 4d7b a13e 3881 a03e
000002c0: 9dc3 a33e 2b38 9f3e 592e a13e 7ec0 a33e
000002d0: a7cf 9e3e 8c04 a23e 1123 9f3e b7b3 a13e
000002e0: bff7 a13e dca1 9f3e 874c 9f3e 9b26 a03e
000002f0: cafd a13e 0893 a13e 86bd a13e 1c0c a13e
00000300: 1285 9f3e b03c a23e 3a45 a33e d41a a23e
00000310: 0179 a13e 7e2c a13e 9f61 a03e 1012 a43e
00000320: 27d1 a03e 1c03 a13e d068 a23e 3d12 9f3e
00000330: 9f26 9f3e a2bf a33e e912 a03e 6447 a23e
00000340: bc2a a13e c12c 9e3e 8553 9d3e 2336 a03e
00000350: 84cc 9f3e 2160 a23e 5c89 9f3e 6f54 a23e
00000360: c2e6 a13e 4e87 a33e 587d a33e 0b2e 9e3e
00000370: 5530 a13e 597d a53e e352 a23e d445 a33e
00000380: e5ec a03e b7d6 a03e 0e10 9f3e 27d3 a23e
00000390: 4ada a23e 9f5e a33e 7945 a13e 5514 a03e
000003a0: d26c a23e dca2 a13e 701b a13e 80d8 a33e
000003b0: 85d4 a13e 81ad 9f3e aa12 a23e e770 a23e
000003c0: 8932 a23e 3df0 a33e 053c a23e bf0b a33e
000003d0: 996e a03e e00e a13e 76a8 a23e eea9 a23e
000003e0: 5b89 a23e 87dc a33e cf6b a13e 2eee a43e
000003f0: 6397 a33e e7c1 a23e de4c a13e 2db0 9f3e
0.3176944 0.31423786 0.31393558 0.31335226 0.32244733 0.3171898 0.3163778 0.31401286
0.31447828 0.31318676 0.314537 0.31496602 0.31230944 0.31634134 0.31271362 0.31403804
0.31080607 0.31097457 0.32013148 0.31559744 0.32042077 0.30898827 0.31606942 0.3150641
0.31558388 0.3156834 0.32071337 0.3193827 0.31494835 0.3137673 0.31816372 0.32144934
0.3153207 0.3153931 0.32110855 0.3152523 0.31584755 0.31576428 0.31769428 0.31763554
0.31876984 0.31759188 0.31467566 0.30910644 0.31892204 0.31067842 0.31467497 0.31670603
0.31543112 0.31367105 0.3164995 0.31901008 0.3157104 0.31135425 0.31869775 0.31615677
0.3161237 0.3161687 0.3128541 0.31447533 0.3142017 0.31749004 0.31153628 0.3172172
0.31834674 0.31210068 0.31857327 0.31644636 0.31624216 0.31601307 0.31471556 0.314225
0.31696928 0.31560025 0.31544188 0.31574845 0.31921476 0.31962135 0.31448463 0.3197132
0.3179996 0.31481534 0.31689304 0.31799632 0.3136709 0.30712983 0.3161905 0.31984827
0.3183993 0.31051648 0.3188454 0.31780192 0.31383353 0.31529015 0.31593993 0.31668842
0.31422687 0.31383458 0.31517985 0.3189744 0.31873277 0.31388626 0.3196883 0.3170539
0.31649303 0.31239536 0.3175186 0.3184821 0.31569037 0.31742722 0.32021153 0.31052628
0.31397465 0.31497523 0.31189734 0.31409833 0.31237033 0.31242353 0.31132913 0.31440407
0.31843144 0.32115993 0.31527764 0.31552815 0.31527802 0.31850922 0.3130695 0.32366186
0.3106311 0.31857112 0.31707528 0.31544545 0.3144781 0.31711096 0.3107671 0.31840828
0.3079131 0.3120348 0.3209608 0.31299406 0.31173125 0.3136709 0.3141362 0.31557876
0.3192166 0.31518963 0.3110016 0.31593993 0.31379917 0.31521592 0.31730095 0.31239352
0.31414422 0.3133257 0.30934757 0.3180185 0.3128024 0.31971872 0.31542432 0.31843042
0.31439158 0.31991377 0.3112899 0.31932005 0.31742734 0.3115094 0.31849045 0.31384027
0.31052953 0.3165128 0.31639743 0.31686416 0.31590253 0.31425503 0.31539384 0.31348586
0.3198518 0.3109754 0.31480673 0.31982797 0.310178 0.31644094 0.3108144 0.31582424
0.31634328 0.31178176 0.31113073 0.31279454 0.31638938 0.31557488 0.31589907 0.3145455
0.31156212 0.31686926 0.31888753 0.31661093 0.3153763 0.31479257 0.3132448 0.3204503
0.3140957 0.31447685 0.3172059 0.31068602 0.31084153 0.31982142 0.31264427 0.31695092
0.31477916 0.3089352 0.30727783 0.31291303 0.3121072 0.31713966 0.31159484 0.31705043
0.31621367 0.31939167 0.31931567 0.30894503 0.31482187 0.32322195 0.31703863 0.31889212
0.31430736 0.31413814 0.31066936 0.3180172 0.31807166 0.31908128 0.31498316 0.31265512
0.31723648 0.31569564 0.31466246 0.32001114 0.31607452 0.3118706 0.31654865 0.31726763
0.3167918 0.32019225 0.31686416 0.318449 0.3133438 0.3145666 0.3176915 0.3177027
0.3174542 0.32004187 0.31527564 0.32212967 0.31951436 0.3178856 0.31503958 0.311891
