GIRT/checkpoint/girt2pl-math2-random-split/checkpoint-epoch-6.pt (torch, 18436 bytes, 3 tensors)

proxy_a_raw.weight f4 [20, 1]
0.11720931 0.03514592 -0.0022414282 -0.045062676 0.11733799 0.114800684 -0.053239126 -0.050263476
0.115734376 -0.02642434 -0.04921384 -0.05596934 0.11498892 0.119690254 0.11728321 -0.040264223
0.079394355 0.1445247 0.110500924 -0.05127372
00000000: 6f0b f03d 2bf5 0f3d ede4 12bb a493 38bd
00000010: e64e f03d 9f1c eb3d 4511 5abd 13e1 4dbd
00000020: 2506 ed3d dc77 d8bc 7494 49bd 1b40 65bd
00000030: 507f eb3d 2a20 f53d 2e32 f03d 19ec 24bd
00000040: 8299 a23d 48fe 133e 4f4e e23d 6404 52bd

proxy_b_raw.weight f4 [20, 1]
-0.15565337 -0.17044073 -0.16886109 -0.16151962 -0.15391716 -0.14068016 -0.14584023 -0.14386968
-0.1305745 -0.15879858 -0.13653283 -0.15184775 -0.14928484 -0.16054398 -0.15567333 -0.12736285
-0.1624127 -0.06520189 -0.16758172 -0.15369155
00000000: 9963 1fbe 0488 2ebe ece9 2cbe 6665 25be
00000010: 769c 1dbe 760e 10be 2457 15be 9352 13be
00000020: 52b5 05be 189c 22be 43cf 0bbe fa7d 1bbe
00000030: 20de 18be a465 24be d468 1fbe 686b 02be
00000040: 844f 26be 9288 85bd 8b9a 2bbe 5161 1dbe

proxy_theta_raw.weight f4 [3911, 1]
0.24697055 0.24445058 0.24479322 0.24408299 0.24964866 0.24626574 0.24596825 0.24449469
0.24544255 0.24403757 0.24516508 0.24522 0.24286585 0.24624765 0.2440641 0.24419634
0.24245413 0.24224766 0.24839173 0.24589041 0.24831022 0.24125749 0.2455497 0.24443135
0.24642867 0.24571238 0.24873126 0.24768879 0.24564011 0.24406135 0.24726832 0.24962915
0.2449072 0.2453241 0.24917307 0.24544947 0.24585143 0.2454416 0.24648345 0.24625738
0.24742742 0.2465311 0.24482076 0.24085937 0.24768466 0.24187218 0.24436493 0.24642728
0.2453321 0.24458636 0.24598385 0.24789685 0.24547243 0.24327408 0.2467646 0.2456175
0.24608235 0.24544498 0.24347104 0.24482913 0.24404219 0.24651046 0.24227063 0.24665071
0.24701694 0.24292535 0.2474172 0.24633098 0.2464956 0.24609345 0.24435872 0.24458316
0.24598847 0.24595553 0.24511348 0.24517658 0.24773231 0.247535 0.24513537 0.24801454
0.24672022 0.24489135 0.2465942 0.24693346 0.24432302 0.2398606 0.24573553 0.24789841
0.2471133 0.24278605 0.24729834 0.24699925 0.24434477 0.24491507 0.24576727 0.24598555
0.24450886 0.24417742 0.24503112 0.24839196 0.24739072 0.24417286 0.24779223 0.24567297
0.24567412 0.24316892 0.2466782 0.24771981 0.24533325 0.24632888 0.24829464 0.24249507
0.24503952 0.2449525 0.24344128 0.2452613 0.24326828 0.24316822 0.24246603 0.24514839
0.24674077 0.24922295 0.24507684 0.24498476 0.24529824 0.24738795 0.2434292 0.25055182
0.24204457 0.24796389 0.24664688 0.24523383 0.24452852 0.24601766 0.24257489 0.24661008
0.24065562 0.24329202 0.24877986 0.24410151 0.24354167 0.24385075 0.24443947 0.24554755
0.24753241 0.24531971 0.24233894 0.24576727 0.24388482 0.24537893 0.2466252 0.2430841
0.24449676 0.24383457 0.24185278 0.24672094 0.24319062 0.24815018 0.2450261 0.2469858
0.24470808 0.24775611 0.24274312 0.24766353 0.24588953 0.24300373 0.24704081 0.24435869
0.24164057 0.24606143 0.2453253 0.24622378 0.24573003 0.244631 0.24464002 0.24359721
0.24839397 0.24270493 0.24496122 0.24807341 0.24156791 0.2460269 0.24274358 0.24544112
0.24579278 0.24368328 0.24313222 0.2433718 0.24525051 0.24472004 0.24569559 0.24456625
0.24227113 0.24610901 0.24686888 0.2458523 0.2455737 0.24515937 0.24413985 0.24844082
0.24481156 0.24562508 0.24627921 0.24245283 0.24229558 0.24878481 0.2438196 0.24587569
0.24470231 0.24140684 0.24024618 0.24365921 0.24293888 0.24651511 0.24277498 0.24640498
0.24533382 0.24755028 0.2481418 0.24161543 0.24487045 0.24994096 0.24584648 0.24781562
0.24483652 0.2440742 0.24335353 0.24664757 0.24724954 0.2477784 0.2454132 0.24405989
0.2466073 0.24512681 0.24478717 0.24818097 0.24519666 0.24288727 0.24659108 0.24607669
0.24647231 0.24856092 0.24622378 0.24683467 0.24404073 0.24523881 0.24652581 0.24626857
0.24672835 0.24821563 0.2451006 0.24961232 0.24756902 0.24624689 0.24535613 0.24306081
00000000: d9e5 7c3e 4151 7a3e 13ab 7a3e e4f0 793e
00000010: e6a3 7f3e 162d 7c3e 1adf 7b3e d15c 7a3e
00000020: 4b55 7b3e fce4 793e 8e0c 7b3e f41a 7b3e
00000030: d3b1 783e 5828 7c3e f0eb 793e 9b0e 7a3e
00000040: e545 783e c50f 783e 675a 7e3e b2ca 7b3e
00000050: 0945 7e3e 340c 773e 6171 7b3e 364c 7a3e
00000060: cc57 7c3e 079c 7b3e 68b3 7e3e 21a2 7d3e
00000070: 1589 7b3e 38eb 793e e833 7d3e c99e 7f3e
00000080: f4c8 7a3e 3e36 7b3e 3a27 7f3e 1b57 7b3e
00000090: 7ac0 7b3e 0b55 7b3e 2866 7c3e e52a 7c3e
000000a0: 9d5d 7d3e a672 7c3e 4bb2 7a3e d7a3 763e
000000b0: 0ca1 7d3e 57ad 773e cd3a 7a3e 6f57 7c3e
000000c0: 5738 7b3e d974 7a3e 31e3 7b3e acd8 7d3e
000000d0: 205d 7b3e d71c 793e dcaf 7c3e 2783 7b3e
000000e0: 03fd 7b3e ee55 7b3e 7950 793e 7db4 7a3e
000000f0: 32e6 793e 3d6d 7c3e cb15 783e 0192 7c3e
00000100: 02f2 7c3e 6cc1 783e ef5a 7d3e 303e 7c3e
00000110: 5869 7c3e ecff 7b3e 2c39 7a3e 0274 7a3e
00000120: 67e4 7b3e c4db 7b3e 07ff 7a3e 920f 7b3e
00000130: 8aad 7d3e d179 7d3e c404 7b3e 86f7 7d3e
00000140: 3aa4 7c3e ccc4 7a3e 3183 7c3e 20dc 7c3e
00000150: d02f 7a3e 049e 753e 18a2 7b3e 15d9 7d3e
00000160: 450b 7d3e e89c 783e c73b 7d3e 5fed 7c3e
00000170: 8435 7a3e 04cb 7a3e 6aaa 7b3e a3e3 7b3e
00000180: 8860 7a3e a509 7a3e 70e9 7a3e 765a 7e3e
00000190: fe53 7d3e 7308 7a3e 3fbd 7d3e b291 7b3e
000001a0: ff91 7b3e 4601 793e 3699 7c3e 43aa 7d3e
000001b0: a438 7b3e a33d 7c3e f340 7e3e a150 783e
000001c0: a4eb 7a3e d4d4 7a3e ac48 793e c725 7b3e
000001d0: 521b 793e 1701 793e 0449 783e 2e08 7b3e
000001e0: 9da9 7c3e 4d34 7f3e 6cf5 7a3e 49dd 7a3e
000001f0: 762f 7b3e 4453 7d3e 8145 793e 5448 803e
00000200: 88da 773e 3fea 7d3e 0091 7c3e 941e 7b3e
00000210: af65 7a3e 0eec 7b3e 8d65 783e 5a87 7c3e
00000220: 6d6e 763e 8b21 793e 26c0 7e3e bff5 793e
00000230: fd62 793e 03b4 793e 574e 7a3e d170 7b3e
00000240: 2379 7d3e 1735 7b3e b327 783e 6aaa 7b3e
00000250: f1bc 793e 9d44 7b3e 518b 7c3e 0aeb 783e
00000260: 5c5d 7a3e c5af 793e 41a8 773e 6aa4 7c3e
00000270: f606 793e 151b 7e3e 1fe8 7a3e d8e9 7c3e
00000280: c194 7a3e c7b3 7d3e a791 783e 829b 7d3e
00000290: 77ca 7b3e f8d5 783e 44f8 7c3e 2a39 7a3e
000002a0: a070 773e 87f7 7b3e 8e36 7b3e 1622 7c3e
000002b0: a7a0 7b3e 8d80 7a3e ea82 7a3e 8c71 793e
000002c0: fd5a 7e3e a487 783e 1dd7 7a3e f506 7e3e
000002d0: 945d 773e 7aee 7b3e c691 783e eb54 7b3e
000002e0: 1ab1 7b3e 1c88 793e a7f7 783e 7536 793e
000002f0: f322 7b3e e497 7a3e a097 7b3e 936f 7a3e
00000300: ec15 783e 0004 7c3e 32cb 7c3e b5c0 7b3e
00000310: ac77 7b3e 0f0b 7b3e ccff 793e 4567 7e3e
00000320: e2af 7a3e 2485 7b3e 9e30 7c3e 8e45 783e
00000330: 551c 783e 72c1 7e3e d8ab 793e d6c6 7b3e
00000340: 3e93 7a3e 5b33 773e 1803 763e cd81 793e
00000350: f8c4 783e 756e 7c3e 019a 783e 9651 7c3e
00000360: ca38 7b3e d27d 7d3e e218 7e3e 096a 773e
00000370: 52bf 7a3e 86f0 7f3e 2ebf 7b3e 61c3 7d3e
00000380: 6db6 7a3e 96ee 793e ab31 793e 2e91 7c3e
00000390: fc2e 7d3e 9fb9 7d3e 994d 7b3e d6ea 793e
000003a0: a086 7c3e 8602 7b3e 7da9 7a3e 2723 7e3e
000003b0: d514 7b3e 71b7 783e 5f82 7c3e 87fb 7b3e
000003c0: 3d63 7c3e c186 7e3e 1622 7c3e 3ac2 7c3e
000003d0: d0e5 793e e21f 7b3e 4371 7c3e d42d 7c3e
000003e0: 5ba6 7c3e 3d2c 7e3e a7fb 7a3e 5f9a 7f3e
000003f0: bc82 7d3e 2528 7c3e a33e 7b3e efe4 783e
