GIRT/checkpoint/girt2pl-assist0910-random-split/checkpoint-epoch-7.pt (torch, 153924 bytes, 3 tensors)

proxy_a_raw.weight f4 [17671, 1]
-0.099150985 0.21025205 -0.2711826 0.15908197 -0.14734966 0.14431675 0.13434762 0.08375806
0.38997832 0.33074537 0.574915 0.14581078 0.13668649 0.67421466 -0.0147750275 0.28951558
0.132153 0.17503789 0.036384773 0.1461369 0.18268237 -0.11524967 0.124535754 0.21457648
-0.06234511 -0.04104118 0.24739717 0.20377177 0.18973683 0.15104505 0.16720487 0.32100663
0.23991184 0.28934628 0.36076245 -0.09831226 -0.0713666 0.43782654 0.30633384 -0.14047779
0.22486234 0.24538189 0.22718172 -0.12744944 0.23010877 0.1709688 0.11107791 0.1824608
0.31590363 0.043787554 0.28298214 0.15141733 0.24786541 0.15646644 0.21741872 -0.07369814
0.21034366 0.15964001 -0.064218126 0.19349532 0.7423811 -0.06774094 0.1557098 0.19403446
-0.2085107 0.28285572 0.15888195 0.2225612 -0.22295326 0.52807575 0.18304724 0.2611465
0.47404248 0.2129436 0.45992804 0.19996354 0.12542553 0.06234128 0.20128733 0.080384895
0.7188591 0.32189664 0.22000118 0.13496661 0.13177958 0.13621117 0.23522766 0.21942823
0.74859595 0.102626406 -0.04024112 0.50955606 0.16826773 -0.18652242 0.11611181 0.312145
0.14326616 0.23580039 0.16978465 0.17609474 0.2091363 0.16260983 0.18181133 0.2067299
0.42033544 0.25639266 0.30758002 -0.15873562 0.50944257 0.3784171 0.47078258 0.18410319
0.33670554 -0.21116126 -0.037846293 0.33498663 0.19218417 0.18985543 -0.14610004 0.15436776
0.29964346 0.14515445 -0.13586539 0.063891724 0.16685826 0.27009732 0.20477547 0.037862096
0.2447783 -0.06506192 -0.103052564 0.32468167 0.84998214 0.21842572 0.10797295 -0.14900987
0.15827502 0.36479506 0.06882633 0.1806963 -0.10443532 -0.26944157 -0.13977513 0.069416426
0.04543721 0.35704535 0.109254174 0.17333502 0.14726706 0.18276556 0.04303629 -0.165887
0.12146073 0.14304024 0.09614178 0.112636626 0.32719544 -0.17722566 0.20024517 0.2164084
0.47593552 0.13995741 0.38050607 0.10760949 -0.21414107 0.21558198 0.15087368 0.2562497
0.7141926 0.16214041 0.090021335 0.3007581 -0.12869921 0.14999361 -0.10565725 0.078827865
0.20418008 -0.040972337 0.4964374 -0.12931238 0.120882936 0.09393238 0.28907982 0.2058066
0.09044474 0.13665165 0.10590154 0.13870662 0.2923011 0.15203 0.23767471 -0.045361042
0.19407755 0.22067076 0.2920193 0.23741408 0.24789803 0.27406958 -0.0881622 -0.09032272
-0.20625277 -0.12970343 -0.098193966 0.009823721 0.145696 0.17699462 0.2406401 -0.06376993
-0.153352 0.14792651 -0.021574639 0.7804194 -0.0918776 0.28228363 -0.1957347 0.3041284
-0.06500507 0.1539105 0.21176083 0.16998933 0.26544538 0.44994646 0.3330528 -0.20138285
0.060380053 0.14865248 0.2256959 0.48539516 0.29820043 0.20508614 0.49508882 0.35556796
0.19868988 0.26969442 0.19162089 -0.104275174 0.24835265 0.10658812 0.29758644 0.16082779
-0.07535812 0.15023392 -0.19436416 -0.09028456 0.26432553 -0.107344136 0.10134325 0.6075306
0.19516997 -0.014804448 0.37735066 -0.17311318 0.66783047 0.099248044 0.26941872 0.1715347
00000000: ac0f cbbd 504c 573e 72d8 8abe 62e6 223e
00000010: d4e2 16be c5c7 133e 6c92 093e 5989 ab3d
00000020: 3dab c73e 7557 a93e a12d 133f 6c4f 153e
00000030: 8bf7 0b3e 5599 2c3f f512 72bc 633b 943e
00000040: 1e53 073e 223d 333e 3308 153d e9a4 153e
00000050: 1611 3b3e 0508 ecbd 9a0c ff3d f0b9 5b3e
00000060: 965d 7fbd cc1a 28bd af55 7d3e 8ca9 503e
00000070: 5f4a 423e 8eab 1a3e c137 2b3e fb5a a43e
00000080: 73ab 753e 3225 943e dbb5 b83e f057 c9bd
00000090: a728 92bd cd2a e03e cad7 9c3e 69d9 0fbe
000000a0: 5042 663e 6445 7b3e 53a2 683e 1b82 02be
000000b0: a2a1 6b3e 7212 2f3e d17c e33d 01d7 3a3e
000000c0: 1fbe a13e 945a 333d 09e3 903e 250d 1b3e
000000d0: 6ed0 7d3e bd38 203e 03a3 5e3e 0def 96bd
000000e0: 5464 573e ac78 233e cb84 83bd a323 463e
000000f0: b00c 3e3f c3bb 8abd 6472 1f3e f8b0 463e
00000100: d483 55be 77d2 903e f3b1 223e 15e7 633e
00000110: dc4d 64be f92f 073f bc70 3b3e feb4 853e
00000120: b2b5 f23e e30d 5a3e b07b eb3e 3ec3 4c3e
00000130: 8d6f 003e 9259 7f3d 441e 4e3e d6a0 a43d
00000140: 2607 383f a3cf a43e fd47 613e b034 0a3e
00000150: 3af1 063e f17a 0b3e 85df 703e cbb1 603e
00000160: fca3 3f3f cb2d d23d dfd3 24bd 4472 023f
00000170: 604e 2c3e bcff 3ebe 07cc ed3d 78d1 9f3e
00000180: 5db4 123e a875 713e 07dc 2d3e 2e52 343e
00000190: d427 563e 3183 263e c02c 3a3e 01b1 533e
000001a0: 3536 d73e e645 833e 217b 9d3e 978b 22be
000001b0: d46a 023f e3bf c13e 6a0a f13e 8c85 3c3e
000001c0: ab64 ac3e a83a 58be b704 1bbd 5e83 ab3e
000001d0: edcb 443e 7669 423e 409b 15be 9512 1e3e
000001e0: de6a 993e 5ea3 143e 4c20 0bbe aad9 823d
000001f0: e4dc 2a3e 324a 8a3e a9b0 513e 4915 1b3d
00000200: 2aa7 7a3e 2f3f 85bd 390d d3bd ad3c a63e
00000210: 6e98 593f feaa 5f3e ec20 dd3d 0b96 18be
00000220: d912 223e 6bc6 ba3e d2f4 8c3d 7308 393e
00000230: 2fe2 d5bd 3ff4 89be 3621 0fbe 332a 8e3d
00000240: 5e1c 3a3d a6ce b63e a7c0 df3d bc7e 313e
00000250: 2dcd 163e e526 3b3e d246 303d 48de 29be
00000260: 67c0 f83d 2479 123e fbe5 c43d 08ae e63d
00000270: 2986 a73e a57a 35be 120d 4d3e 2a9a 5d3e
00000280: d2ad f33e ff50 0f3e b1d1 c23e 5d62 dc3d
00000290: cc47 5bbe 86c1 5c3e a17e 1a3e 2933 833e
000002a0: 54d5 363f 2308 263e 1b5d b83d f7fc 993e
000002b0: bac9 03be ed97 193e d462 d8bd 8170 a13d
000002c0: 9514 513e 9cd2 27bd 0b2d fe3e 776a 04be
000002d0: 7991 f73d 9f5f c03d 4502 943e f7be 523e
000002e0: 183b b93d 69ee 0b3e e8e2 d83d 1c09 0e3e
000002f0: 7da8 953e c1ad 1b3e 0061 733e 80cc 39bd
00000300: 44bc 463e 84f7 613e 8e83 953e ad1c 733e
00000310: fbd8 7d3e d952 8c3e 628e b4bd 1efb b8bd
00000320: ed33 53be fad0 04be eb19 c9bd acf3 203c
00000330: 5531 153e 143e 353e 5c6a 763e cf99 82bd
00000340: 4f08 1dbe 0c7a 173e 4cbd b0bc 91c9 473f
00000350: 532a bcbd 7b87 903e ad6e 48be b8b6 9b3e
00000360: 6121 85bd b79a 1d3e d5d7 583e af11 2e3e
00000370: 75e8 873e 625f e63e e685 aa3e 4e37 4ebe
00000380: 1351 773d 5b38 183e d31c 673e b785 f83e
00000390: baad 983e 1a02 523e 487c fd3e 010d b63e
000003a0: 5c75 4b3e 6315 8a3e 4438 443e 398e d5bd
000003b0: 2850 7e3e df4a da3d 405d 983e 0ab0 243e
000003c0: 5c55 9abd ecd6 193e 6607 47be 1de7 b8bd
000003d0: ad55 873e 3ed7 dbbd 0d8d cf3d 2087 1b3f
000003e0: a3da 473e 5b8e 72bc 1b34 c13e 9544 31be
000003f0: f0f6 2a3f 8f42 cb3d 40f1 893e cba6 2f3e

proxy_b_raw.weight f4 [17671, 1]
-0.17400041 -0.28143483 -0.2854987 -0.3006575 -0.16393392 -0.20274632 -0.1974631 -0.18682209
-0.36898348 -0.32702503 -0.56664944 -0.18940149 -0.17056443 -0.65970075 -0.21425767 -0.3690974
-0.21548912 -0.21616967 -0.21484421 -0.24959232 -0.26887748 -0.15076664 -0.26016745 -0.27406436
-0.22361812 -0.20878114 -0.27171916 -0.266996 -0.2754798 -0.23199038 -0.18751578 -0.29885444
-0.282732 -0.36487183 -0.30903178 -0.24558687 -0.18843323 -0.37674567 -0.27102363 -0.20289429
-0.26171365 -0.23006335 -0.24928172 -0.21984069 -0.2450094 -0.21748205 -0.1613441 -0.2362201
-0.25559497 -0.22669306 -0.28993383 -0.22540161 -0.2434816 -0.20760189 -0.2727891 -0.3251924
-0.2434406 -0.22257237 -0.20589907 -0.18537617 -0.7185 -0.26482934 -0.25084633 -0.21847968
-0.24904901 -0.26781884 -0.2469094 -0.21405244 -0.2802352 -0.5673435 -0.23700857 -0.25601456
-0.54061174 -0.2395958 -0.4480696 -0.23245412 -0.25300685 -0.15379791 -0.2773721 -0.21324256
-0.7007948 -0.37316528 -0.23506549 -0.27597687 -0.22300571 -0.20160057 -0.25499 -0.28204188
-0.7110863 -0.19160159 -0.15339477 -0.5643345 -0.17866439 -0.1956884 -0.22400741 -0.31855205
-0.22551626 -0.24698843 -0.24541417 -0.28506988 -0.24805179 -0.21379767 -0.23966451 -0.27802992
-0.3054708 -0.29233164 -0.29771304 -0.2747639 -0.5658907 -0.3234858 -0.51077396 -0.3327221
-0.24586134 -0.23253748 -0.19629027 -0.42285356 -0.206239 -0.23770294 -0.28942448 -0.21225968
-0.5125036 -0.17402333 -0.18009093 -0.23732926 -0.20363523 -0.2688227 -0.17445813 -0.22387727
-0.34371305 -0.17712177 -0.18011577 -0.28460404 -0.77093077 -0.25516653 -0.29244494 -0.22771469
-0.22682871 -0.35415533 -0.16741303 -0.23016797 -0.25231266 -0.18717164 -0.28873035 -0.3044843
-0.29811773 -0.40427864 -0.17687519 -0.21198301 -0.1894426 -0.2921537 -0.17549987 -0.26232174
-0.17483717 -0.17315087 -0.1801959 -0.23797102 -0.30355477 -0.314105 -0.18435903 -0.26744685
-0.3976441 -0.21218637 -0.4712233 -0.20843376 -0.22476427 -0.1933114 -0.19848897 -0.2672485
-0.69320595 -0.23161253 -0.20050739 -0.29524064 -0.26143318 -0.21439114 -0.20170595 -0.2519385
-0.26530117 -0.23387821 -0.3189258 -0.26571348 -0.19750579 -0.19798724 -0.24039228 -0.29534677
-0.22821753 -0.25208437 -0.22916394 -0.21792822 -0.35904288 -0.21614449 -0.31196123 -0.20389643
-0.19211175 -0.25789744 -0.44059986 -0.2511312 -0.2249171 -0.3527202 -0.28386128 -0.21422398
-0.2848071 -0.17979749 -0.18664296 -0.24340542 -0.19664773 -0.21768647 -0.2487801 -0.18688117
-0.26407608 -0.22558667 -0.32528332 -0.7906561 -0.23228632 -0.299634 -0.20647398 -0.2878325
-0.19879113 -0.24565631 -0.23624691 -0.20964806 -0.3205405 -0.52423275 -0.30686706 -0.22800016
-0.19729498 -0.2291534 -0.21346381 -0.5655746 -0.27387148 -0.22807914 -0.5321379 -0.28939313
-0.26774496 -0.29251134 -0.30349472 -0.24800944 -0.26304102 -0.18628511 -0.27337813 -0.20490806
-0.2686351 -0.22489169 -0.3344917 -0.18494801 -0.19156747 -0.19576575 -0.1982056 -0.65371716
-0.25981614 -0.33477625 -0.4858462 -0.26070607 -0.68119377 -0.21209773 -0.2269435 -0.23008832
00000000: 2a2d 32be 3a18 90be e32c 92be c8ef 99be
00000010: 4bde 27be bb9c 4fbe c433 4abe 4a4e 3fbe
00000020: 67eb bcbe d36f a7be f00f 11bf 77f2 41be
00000030: 71a8 2ebe 26e2 28bf 5d66 5bbe 56fa bcbe
00000040: 2ea9 5cbe 955b 5dbe 1f00 5cbe 2195 7fbe
00000050: 4faa 89be 9262 1abe ab34 85be 2a52 8cbe
00000060: 26fc 64be b9ca 55be c61e 8bbe b3b3 88be
00000070: b00b 8dbe e38e 6dbe 2304 40be 7303 99be
00000080: 40c2 90be 7bd0 babe 6a39 9ebe 207b 7bbe
00000090: a4f4 40be cfe4 c0be 9cc3 8abe 85c3 4fbe
000000a0: 55ff 85be ba95 6bbe b543 7fbe eb1d 61be
000000b0: bfe3 7abe 9db3 5ebe 6337 25be afe3 71be
000000c0: 58dd 82be 3a22 68be 3572 94be aecf 66be
000000d0: 3e53 79be 9795 54be 03ab 8bbe 9e7f a6be
000000e0: 7e48 79be 03ea 63be 35d7 52be 40d3 3dbe
000000f0: 9eef 37bf b697 87be ee6e 80be 23b9 5fbe
00000100: b406 7fbe 8d1f 89be d1d5 7cbe 9030 5bbe
00000110: fd7a 8fbe 6c3d 11bf 60b2 72be 5714 83be
00000120: 8865 0abf 9a58 75be 6169 e5be 7408 6ebe
00000130: 1d8a 81be 337d 1dbe b703 8ebe 425c 5abe
00000140: 4a67 33bf 850f bfbe 02b5 70be d74c 8dbe
00000150: 9c5b 64be 6170 4ebe 0d8e 82be cb67 90be
00000160: c009 36bf 3533 44be 8513 1dbe 3a78 10bf
00000170: ccf3 36be 8a62 48be 3362 65be 4119 a3be
00000180: bced 66be 89ea 7cbe da4d 7bbe aef4 91be
00000190: 4a01 7ebe c7ed 5abe 9d6a 75be f059 8ebe
000001a0: ab66 9cbe 7eac 95be d86d 98be dbad 8cbe
000001b0: 37de 10bf ee9f a5be 15c2 02bf 8d5a aabe
000001c0: 13c3 7bbe 4e1e 6ebe 5100 49be 4380 d8be
000001d0: 5130 53be 6668 73be 722f 94be 9a5a 59be
000001e0: 7033 03bf 2c33 32be c269 38be 7106 73be
000001f0: c185 50be 21a3 89be 27a5 32be 1540 65be
00000200: 28fb afbe 695f 35be 4570 38be 9fb7 91be
00000210: b85b 45bf 30a5 82be 58bb 95be 0a2e 69be
00000220: c945 68be d953 b5be 526e 2bbe 27b1 6bbe
00000230: 202f 81be eca9 3fbe 77d4 93be 5ee5 9bbe
00000240: e3a2 98be 9cfd cebe c51e 35be 1312 59be
00000250: 3efd 41be 2b95 95be 3db6 33be 094f 86be
00000260: 8408 33be 764e 31be 4685 38be adae 73be
00000270: 886b 9bbe 5fd2 a0be 9dc8 3cbe cbee 88be
00000280: 0298 cbbe 6247 59be 2e44 f1be a96f 55be
00000290: 9b28 66be 6cf3 45be b140 4bbe ccd4 88be
000002a0: f275 31bf d62b 6dbe cf51 4dbe c829 97be
000002b0: 92da 85be 5a89 5bbe 018c 4ebe 15fe 80be
000002c0: 8ed5 87be c57d 6fbe 3e4a a3be 990b 88be
000002d0: f53e 4abe 2bbd 4abe 6529 76be b137 97be
000002e0: dbb1 69be 3411 81be f4a9 6abe 9328 5fbe
000002f0: 78d4 b7be fb54 5dbe 62b9 9fbe 3aca 50be
00000300: f1b8 44be 220b 84be 4e96 e1be 4594 80be
00000310: ab50 66be be97 b4be 4456 91be 885d 5bbe
00000320: 3cd2 91be d51c 38be 551f 3fbe 453f 79be
00000330: 065e 49be 34e9 5ebe 36c0 7ebe c75d 3fbe
00000340: fb34 87be 3100 67be 898b a6be 7068 4abf
00000350: 77dc 6dbe a169 99be ea6d 53be c85e 93be
00000360: e78f 4bbe 548d 7bbe b6ea 71be fbad 56be
00000370: e21d a4be 1e34 06bf ae1d 9dbe e078 69be
00000380: b207 4abe 30a7 6abe 4296 5abe 7fc9 10bf
00000390: e238 8cbe 948d 69be 303a 08bf 562b 94be
000003a0: de15 89be 0cc4 95be a963 9bbe 30f6 7dbe
000003b0: 50ad 86be 86c1 3ebe 38f8 8bbe 6bd3 51be
000003c0: 8a8a 89be 024a 66be 7f42 abbe 0363 3dbe
000003d0: 432a 44be d176 48be 69f6 4abe 025a 27bf
000003e0: 9f06 85be cb67 abbe d5c0 f8be 447b 85be
000003f0: b762 2ebf 2630 59be e063 68be 469c 6bbe

proxy_theta_raw.weight f4 [2493, 1]
1.2725362 0.71840036 0.88218486 0.9293032 0.7005617 1.0792449 1.3662564 1.1605628
1.0803405 1.222109 0.90395296 1.2246234 1.1065385 0.69725704 0.74303436 1.0470569
0.40722173 0.36215737 0.7692384 0.4501822 0.33058953 0.46515703 0.38182387 0.36399356
0.5041769 0.5006615 0.38092816 0.6382949 0.5166996 0.42882165 0.3518038 0.6384309
0.73213136 0.31398663 1.2773522 0.9542827 1.0594068 0.98653805 0.4556558 1.4554796
0.661966 0.6351348 0.605729 1.3576758 1.2212429 1.1512086 1.2468574 1.4263358
1.2937659 1.1183988 0.5606269 1.1685181 1.1892631 1.2359892 1.123447 1.1653574
1.2480966 1.1958569 1.2199926 1.3210793 1.1139575 1.2619845 1.2637227 1.3958162
1.4048193 1.2849203 1.37619 1.2959677 1.0416383 1.1129572 1.1934084 1.2511318
1.2570133 1.4758995 1.1647034 1.1140832 1.1455534 1.2788329 1.3519486 1.5249482
1.4585116 1.3979352 1.2134551 1.111907 1.1847687 1.2564977 1.2251054 0.88856363
1.4103879 1.2428097 1.390535 1.30774 1.2926662 1.2569363 1.3907348 1.3914137
1.3059403 1.157508 1.3841918 0.90276635 1.3300365 1.3835193 1.274319 1.5221967
1.4656999 1.3912001 1.1544635 1.2265482 1.3138987 1.405012 1.4525306 1.5438733
1.2291023 1.3880819 1.1962823 1.1662669 1.2097507 1.2219659 1.2434456 1.2356945
1.3926263 1.0892248 1.2654785 1.3007993 1.2540445 1.1922113 1.1990803 1.1879565
1.0786813 1.20035 1.1617067 1.0885532 1.149061 1.1898723 1.2691765 1.1546407
1.1991373 0.6568395 0.68141073 0.6912578 0.55441767 1.1517466 0.53930634 0.4145117
0.6291034 0.52359533 0.5582423 0.5132819 0.4835959 0.58519727 0.72425365 0.6161662
0.67894363 0.6619223 0.6710786 0.73509026 0.7309953 0.7754384 0.71615833 0.63804054
0.7566858 0.6830917 0.67417663 0.6475776 0.7477138 0.60758555 0.7516925 0.57403487
0.65827763 0.74405295 0.5036467 0.68725383 0.77781755 0.6648804 0.7656272 0.6321173
0.71618426 0.78205276 0.7305639 0.57469416 0.4415398 0.4588695 0.5938294 0.3741981
0.3214495 0.39661252 0.33664 0.67335075 0.46163124 0.61394244 0.63970494 0.59501165
0.46696353 0.7063349 0.5061757 0.42784533 0.7322879 0.68478364 0.37465787 0.44012672
0.42895123 0.40046287 0.4056814 1.2705775 0.40773365 0.36649603 0.41909468 0.50023514
0.32395372 0.47456104 0.6941652 0.544265 0.3117563 0.4638238 0.87495327 0.52578515
0.37455586 0.5164806 0.59551626 0.8418404 0.35688773 0.53031176 0.57706517 0.40384784
0.34601265 0.37087467 0.39056447 0.35240278 0.4074214 0.37185013 0.39982212 0.38922727
0.4288333 0.70902354 0.79416347 0.38320097 0.45327628 0.6537881 0.7367097 0.5557258
0.5062487 0.7398955 0.50990856 0.3481114 0.35563803 0.46902174 0.5064149 0.63740236
0.5256844 0.34546477 0.74551326 0.5362815 0.6576706 0.5278907 0.50776887 0.74313205
00000000: 77e2 a23f 16e9 373f ded6 613f d1e6 6d3f
00000010: 0358 333f b224 8a3f 7de1 ae3f 528d 943f
00000020: 9948 8a3f 116e 9c3f 7669 673f 76c0 9c3f
00000030: 0ea3 8d3f 707f 323f 8037 3e3f f605 863f
00000040: 5e7f d03e b16c b93e cfec 443f 487e e63e
00000050: 0843 a93e 1029 ee3e 6b7e c33e 5d5d ba3e
00000060: bd11 013f 5a2b 003f 0409 c33e 4b67 233f
00000070: 6d46 043f 838e db3e a11f b43e 3570 233f
00000080: f66c 3b3f dbc2 a03e 4780 a33f df4b 743f
00000090: a49a 873f c28d 7c3f b84b e93e 284d ba3f
000000a0: 9b76 293f 3298 223f 0e11 1b3f 52c8 ad3f
000000b0: b051 9c3f ce5a 933f 0699 9f3f 2c92 b63f
000000c0: 1f9a a53f b127 8f3f 3f85 0f3f 0092 953f
000000d0: c639 983f e534 9e3f 1ccd 8f3f 6e2a 953f
000000e0: a1c1 9f3f d711 993f b828 9c3f 2019 a93f
000000f0: 2996 8e3f b588 a13f aac1 a13f 1baa b23f
00000100: 1ed1 b33f 4578 a43f fe26 b03f 45e2 a53f
00000110: 6754 853f 6275 8e3f 9bc1 983f 1625 a03f
00000120: d0e5 a03f 46ea bc3f 0015 953f 479a 8e3f
00000130: 7ea1 923f ccb0 a33f a70c ad3f 8131 c33f
00000140: 82b0 ba3f 8aef b23f 7f52 9b3f f852 8e3f
00000150: 80a6 973f ebd4 a03f 41d0 9c3f e878 633f
00000160: 9787 b43f 6314 9f3f 0dfd b13f 0664 a73f
00000170: 1676 a53f 4ae3 a03f 9903 b23f d819 b23f
00000180: 0d29 a73f 3929 943f 322d b13f b21b 673f
00000190: a33e aa3f 2917 b13f e31c a33f 57d7 c23f
000001a0: 0e9c bb3f d812 b23f 76c5 933f 88ff 9c3f
000001b0: d52d a83f 6fd7 b33f 86ec b93f a49d c53f
000001c0: 3953 9d3f abac b13f c71f 993f 3c48 953f
000001d0: 1cd9 9a3f 6169 9c3f 3a29 9f3f 3d2b 9e3f
000001e0: 9441 b23f b86b 8b3f 33fb a13f 9780 a63f
000001f0: 8884 a03f 619a 983f 777b 993f f50e 983f
00000200: 3b12 8a3f 12a5 993f ceb2 943f b655 8b3f
00000210: 6e14 933f bc4d 983f 6074 a23f 44cb 933f
00000220: 557d 993f a226 283f ef70 2e3f 45f6 303f
00000230: 51ee 0d3f 6f6c 933f fb0f 0a3f e13a d43e
00000240: ec0c 213f 580a 063f f8e8 0e3f 7166 033f
00000250: e299 f73e 7dcf 153f b068 393f 11bd 1d3f
00000260: 40cf 2d3f bd73 293f cfcb 2b3f e02e 3c3f
00000270: 8222 3b3f 2283 463f 2756 373f a056 233f
00000280: 29b6 413f 19df 2e3f d796 2c3f a5c7 253f
00000290: 2c6a 3f3f ba8a 1b3f eb6e 403f f3f3 123f
000002a0: e284 283f 417a 3e3f fdee 003f deef 2f3f
000002b0: 0d1f 473f 9a35 2a3f 2500 443f 70d2 213f
000002c0: da57 373f 9c34 483f 3c06 3b3f 281f 133f
000002d0: 8111 e23e f1f0 ea3e 3405 183f e596 bf3e
000002e0: 0795 a43e cc10 cb3e 145c ac3e b760 2c3f
000002f0: ee5a ec3e 552b 1d3f b4c3 233f af52 183f
00000300: d815 ef3e 5dd2 343f bb94 013f 8b0e db3e
00000310: 3877 3b3f fb4d 2f3f 28d3 bf3e 4a58 e13e
00000320: 7f9f db3e 7809 cd3e 79b5 cf3e 49a2 a23f
00000330: 77c2 d03e 5ea5 bb3e 9493 d63e 690f 003f
00000340: 43dd a53e aaf9 f23e d0b4 313f f354 0b3f
00000350: 869e 9f3e 507a ed3e f0fc 5f3f db99 063f
00000360: c9c5 bf3e 1338 043f c173 183f da82 573f
00000370: fdb9 b63e 83c2 073f 8bba 133f 25c5 ce3e
00000380: 9228 b13e 49e3 bd3e 11f8 c73e 236e b43e
00000390: 8a99 d03e 2463 be3e 7cb5 cc3e cc48 c73e
000003a0: 0a90 db3e 9182 353f 4c4e 4b3f eb32 c43e
000003b0: d413 e83e a85e 273f 0299 3c3f 0c44 0e3f
000003c0: 8499 013f cb69 3d3f 5e89 023f a83b b23e
000003d0: 3016 b63e 9e23 f03e 68a4 013f cd2c 233f
000003e0: 4193 063f c2e0 b03e f5d9 3e3f bf49 093f
000003f0: 1a5d 283f d823 073f 24fd 013f e73d 3e3f
