GIRT/checkpoint/girt2pl-assist0910-random-split/checkpoint-epoch-15.pt (torch, 153997 bytes, 3 tensors)

proxy_a_raw.weight f4 [17671, 1]
000000 25 0d 33 be 91 dc 6a 3e ed 49 cf be dc 5e e9 3e
       -0.17485483 0.22935702 -0.40486088 0.45580184
000010 ab 46 7b be e0 21 50 3e fe f2 1b 3e a4 37 c0 3d
       -0.24538676 0.20325422 0.15229413 0.093856126
000020 a5 36 fe 3e 42 fd a9 3e f4 b4 0d 3f 99 3b 82 3e
       0.49651065 0.33201033 0.5535424 0.25436094
000030 a8 bb 0d 3e 3d 86 2b 3f e5 7d 1e 3e 16 a6 bd 3e
       0.13841116 0.67001706 0.15477712 0.37040776
000040 08 49 31 3e e9 cd 7d 3e 1c 6c ac 3c 04 1d 4c 3e
       0.17313015 0.2478558 0.021047644 0.19932944
000050 ae 1b 80 3e ed a2 12 be 67 27 0b 3e 92 e5 85 3e
       0.25021118 -0.14319964 0.1358925 0.2615171
000060 99 7d a9 bd 95 5b 44 bd e6 2d 8d 3e 1e cf 99 3e
       -0.08275909 -0.047938902 0.2757408 0.3004083
000070 d8 43 82 3e e5 85 6f 3e e7 b8 80 3e ae 0d d8 3e
       0.25442386 0.2339092 0.2514107 0.42197937
000080 15 23 77 3e dd 60 bd 3e 67 cd ae 3e 19 f7 ca bd
       0.24134476 0.36987963 0.34141085 -0.099104114
000090 ac 3e 1b bd 90 07 e0 3e be bd dd 3e 62 a8 82 be
       -0.037901565 0.4375577 0.43308824 -0.2551909
0000a0 95 f6 a6 3e 13 13 98 3e 3d 7e bd 3e 8b aa e5 bd
       0.32610002 0.29702052 0.37010375 -0.11214169
0000b0 24 aa d6 3e c6 69 89 3e 2a 74 20 3e be 13 39 3e
       0.41926682 0.2683851 0.15669313 0.18073937
0000c0 9f fa 9b 3e 9d a7 c6 3d 64 79 c7 3e 9c e5 3b 3e
       0.30464646 0.096999384 0.389598 0.18349308
0000d0 3d 44 a4 3e 5e f0 62 3e 6a 08 88 3e d3 0f 0e be
       0.32083312 0.22162005 0.2656892 -0.13873224
0000e0 2c df 9d 3e d6 f4 63 3e d1 8d b2 bd e8 03 59 3e
       0.3083433 0.22261366 -0.087184556 0.21192896
0000f0 56 12 3f 3f dc 40 98 bd b3 44 63 3e 31 a1 98 3e
       0.74637353 -0.07434246 0.22194175 0.2981048
000100 35 d0 77 be 53 54 ad 3e 10 ab 74 3e 2b 57 b8 3e
       -0.24200518 0.33853397 0.2389338 0.36004004
000110 92 ab 93 be 1f 99 1d 3f 5c a3 97 3e 45 10 ca 3e
       -0.28841835 0.6156177 0.2961682 0.39465538
000120 00 d4 0e 3f 2f 9a a3 3e eb 8b 17 3f 84 3d 92 3e
       0.55792236 0.3195357 0.5919787 0.28562558
000130 60 1a 30 3e d6 c0 1b 3e e9 5f 8d 3e 10 a3 f4 3d
       0.17197561 0.1521028 0.27612236 0.11945164
000140 68 e1 3e 3f 95 70 a0 3e 03 10 b1 3e a2 e1 31 3e
       0.7456269 0.31335893 0.34582528 0.17371228
000150 59 d4 5f 3e b5 f0 4a 3e 94 61 a7 3e 7c 26 a3 3e
       0.21858348 0.19818385 0.32691634 0.318653
000160 65 59 2d 3f 7a 3a 20 3e 22 48 5a bd 15 6b 2f 3f
       0.6771453 0.15647307 -0.053291447 0.6852277
000170 ba c4 31 3e 4b b8 99 be f2 59 90 3e 61 74 95 3e
       0.17360201 -0.30023417 0.28193623 0.29190353
000180 27 a8 88 3e f9 e6 d0 3e 8b ca a3 3e a8 65 82 3e
       0.2669079 0.40801218 0.31990466 0.25468183
000190 0b a7 a1 3e 98 37 54 3e 4b 5a 98 3e 96 2a 82 3e
       0.31572756 0.20724332 0.29756388 0.25423115
0001a0 9c 0c bd 3e 09 70 b9 3e 35 9a da 3e 89 23 9e be
       0.36923683 0.3621829 0.42695776 -0.30886486
0001b0 86 ac 2a 3f 8c 71 06 3f 8f 04 12 3f bf 89 03 3e
       0.666695 0.5251701 0.57038206 0.12845515
0001c0 c1 7e 99 3e 85 22 8d be 57 17 41 bd 13 f6 00 3f
       0.29979518 -0.275654 -0.0471414 0.5037548
0001d0 6c fc 7e 3e 86 70 95 3e e1 04 45 be 41 8f 64 3e
       0.24900979 0.2918741 -0.19240142 0.22320272
0001e0 a9 a6 da 3e 7e 04 8a 3e 0d 47 89 be ba 69 d8 3d
       0.42705277 0.26956552 -0.2681202 0.10567041
0001f0 c4 4b 8d 3e 72 d8 b0 3e fc c0 45 3e 10 3b ed 3c
       0.27596867 0.34540135 0.19311899 0.028958827
000200 5a 08 ce 3e c5 a4 e2 bd 16 4a 37 be 1d cf f6 3e
       0.40240747 -0.110665835 -0.17899355 0.4820489
000210 03 0f 3f 3f b8 7f 74 3e 0d 27 06 3e 29 a7 70 be
       0.7463228 0.23876846 0.13100834 -0.23501267
000220 72 09 83 3e 4e 36 f9 3e f5 de 79 3d 00 4a a1 3e
       0.25593144 0.48674244 0.061003644 0.3150177
000230 29 c8 75 bd 62 cd f5 be 18 54 75 be 49 21 d5 3d
       -0.06000534 -0.48008257 -0.2395786 0.10406739
000240 bf a5 86 3e 7f 9e a8 3e 0e 7d 41 3e 9a dc 99 3e
       0.2629833 0.32933423 0.18895361 0.30051118
000250 1a 5b 1a 3e 2a da 87 3e 75 51 6f 3d 6e 34 35 be
       0.15073815 0.26533633 0.058427293 -0.17695782
000260 04 52 22 3e ca bb 8a 3e 80 ba 1e 3e 95 56 55 3e
       0.15851599 0.27096397 0.15500832 0.2083381
000270 54 ed d2 3e 88 67 76 be c5 6e 81 3e b2 23 8a 3e
       0.41196692 -0.24062932 0.25279823 0.26980358
000280 18 f7 fe 3e 6d 21 79 3e 38 ca 11 3f b9 14 45 3e
       0.49797893 0.24329157 0.56949186 0.19246186
000290 1e 49 c8 be 79 74 c3 3e f0 8c 80 3e 94 ef 8f 3e
       -0.39118284 0.381748 0.25107527 0.2811247
0002a0 ca 77 40 3f 8a 7b 5e 3e 3b d3 13 3e b7 15 d4 3e
       0.75182784 0.21726814 0.14436047 0.41422817
0002b0 77 ac 55 be 38 24 76 3e 2c b4 30 be 6b 04 1a 3e
       -0.20866571 0.24037254 -0.1725623 0.15040748
0002c0 57 f2 77 3e 61 e4 9f bd 4b 88 2f 3f 65 ef fb bd
       0.24213539 -0.07807232 0.6856734 -0.1230152
0002d0 d6 c6 38 3e 96 46 64 3d 54 bf 9d 3e 96 32 49 3e
       0.180446 0.05573138 0.30810034 0.19648203
0002e0 c3 1c 38 3e 12 1b 62 3e f7 f8 21 3e 3f 8b 3e 3e
       0.17979722 0.22080639 0.15817629 0.18607806
0002f0 ba 37 92 3e f4 f0 55 3e b8 ce 5f 3e 8f b5 70 3d
       0.2855814 0.20892698 0.218562 0.058766898
000300 87 9f a2 3e 1d c9 7b 3e ef ff a4 3e 9f 99 8e 3e
       0.31762335 0.24588437 0.32226512 0.2785158
000310 16 6e cf 3e 03 42 b0 3e 2d 1b 6c bd 56 a4 13 be
       0.40513676 0.34425363 -0.057643104 -0.14418158
000320 f6 67 96 be 74 52 80 be c8 99 25 be 56 3d 94 bc
       -0.2937619 -0.25062907 -0.16171944 -0.018095654
000330 f6 19 8a 3e be 57 8a 3e c1 2d 8e 3e 20 48 97 bd
       0.26972932 0.27020067 0.27769282 -0.073868036
000340 c0 23 4a be bb c9 28 3e 56 e8 1a be a3 4d 7b 3f
       -0.197402 0.16483204 -0.15127692 0.9816534
000350 5b ab 82 bd 2e fe d6 3e 98 88 87 be 04 65 f0 3e
       -0.0638034 0.419908 -0.264714 0.4695207
000360 a1 31 53 bd a8 be 0b 3e bc a5 9e 3e 00 e3 9d 3e
       -0.051561 0.13646948 0.3098582 0.3083725
000370 27 33 b3 3e 4d 11 25 3f ec 29 c5 3e ff b6 8f be
       0.34999964 0.64479524 0.38508546 -0.28069302
000380 d6 42 24 3e 44 d9 5b 3e e0 3d 6a 3e bc 79 3b 3f
       0.16041121 0.21469599 0.22875166 0.73232627
000390 6f 15 ac 3e 8f 93 a6 3e 17 d7 06 3f a7 4c ff 3e
       0.33610103 0.32534453 0.5267195 0.4986317
0003a0 62 20 a4 3e 0f 5c c4 3e 1d a2 9f 3e 1e 06 25 be
       0.32055956 0.38351485 0.3117837 -0.16115615
0003b0 c3 75 cb 3e c8 e8 2a 3e f7 86 da 3e b3 aa 3b 3e
       0.39738283 0.16690361 0.42681095 0.18326835
0003c0 5c dd d2 bd 08 e9 46 3e 1c 1a 60 be cc 26 e4 bd
       -0.10296127 0.19424832 -0.2188496 -0.111402124
0003d0 cc a3 de 3e 6b 55 bf bd 9a f9 1a 3e c9 03 49 3f
       0.43484342 -0.09342464 0.15134278 0.785214
0003e0 30 8a 91 3e 0e 6d 16 3e 59 b1 fc 3e 52 66 8b be
       0.2842574 0.14690039 0.49354056 -0.27226502
0003f0 82 62 48 3f 62 85 2a 3e b4 9d cb 3e 80 b8 89 3e
       0.7827531 0.16652444 0.39768755 0.26898575

proxy_b_raw.weight f4 [17671, 1]
000000 c6 44 7d be 9c 99 b7 be 3d 79 83 be 6e 42 d7 be
       -0.24733266 -0.35859382 -0.25678435 -0.4204287
000010 7d 8d 41 be 10 d5 80 be 8e 30 39 be 05 71 0a be
       -0.1890163 -0.25162554 -0.18084928 -0.13519676
000020 58 9f ca be 7d 16 b4 be d1 82 04 bf 6d 7a 7c be
       -0.39574695 -0.35173407 -0.5176211 -0.24656077
000030 19 ef 62 be e9 54 16 bf da 07 60 be 01 a0 d5 be
       -0.22161521 -0.5872331 -0.21877995 -0.41723636
000040 e2 55 85 be 09 1f 97 be 5a 30 83 be 0d 8c ac be
       -0.26042086 -0.29515865 -0.25622827 -0.337006
000050 38 b4 c0 be 69 64 6f bd fd 05 b4 be 6a 20 a3 be
       -0.37637496 -0.058445368 -0.3516082 -0.31860667
000060 8f 67 a9 be 22 96 4f be e3 dd a6 be 18 82 9e be
       -0.3308682 -0.20272115 -0.3259116 -0.3095863
000070 c0 d1 ab be 7c c0 93 be 9d 12 6c be 4f 05 b0 be
       -0.33558464 -0.2885779 -0.23053975 -0.3437905
000080 6a 99 77 be 8b 3a d1 be 19 d3 58 be fc 30 a6 be
       -0.24179617 -0.40864977 -0.21174277 -0.32459247
000090 ba 3b 2d be 2f 12 af be 76 47 95 be 1b a1 99 be
       -0.16917315 -0.3419356 -0.29156083 -0.30005726
0000a0 e2 9e 9a be 45 2a 97 be a9 53 bf be f0 de 71 be
       -0.30199343 -0.29524437 -0.37368515 -0.236202
0000b0 91 47 93 be cf 90 74 be d1 1a 4d be 93 9b 77 be
       -0.28765538 -0.23883365 -0.20029761 -0.2418044
0000c0 41 de 42 be f9 1b 83 be 1f d2 a8 be 2d 10 7d be
       -0.19030096 -0.2560728 -0.3297281 -0.24713202
0000d0 23 ba 91 be 6e 31 75 be ba c9 c4 be 3d 45 ba be
       -0.28462324 -0.23944637 -0.38435155 -0.3638095
0000e0 7e 93 5d be 4a 6c 85 be 4c b1 a0 be 73 82 50 be
       -0.21638295 -0.2605918 -0.31385267 -0.20362262
0000f0 cc 01 26 bf ce ab 7d be a5 c9 94 be c9 34 5d be
       -0.6484649 -0.2477257 -0.29060093 -0.21602167
000100 75 60 78 be 6c 83 97 be c9 4e a9 be f3 1a 93 be
       -0.24255545 -0.29592454 -0.3306792 -0.28731498
000110 b0 62 85 be cf e8 0d bf 97 c0 a3 be e5 86 ad be
       -0.26051855 -0.5543336 -0.31982872 -0.3389198
000120 5e e8 02 bf a7 c9 9f be 76 bc f7 be b8 69 8f be
       -0.51135814 -0.31208536 -0.48385972 -0.28010345
000130 f1 fd 8c be 2c 6d 26 be 47 74 9f be 3f e4 97 be
       -0.27537492 -0.16252583 -0.311434 -0.29666325
000140 ee 34 25 bf 3d c2 b0 be 66 08 85 be 6f be 99 be
       -0.6453389 -0.34523192 -0.2598297 -0.30028102
000150 e6 54 94 be 4b 38 7d be 1e b8 91 be 8c 71 ba be
       -0.28971022 -0.24728505 -0.28460783 -0.36414754
000160 b0 7d 11 bf 74 1b 71 be 94 ec 2c be 29 30 21 bf
       -0.5683241 -0.23545629 -0.16887122 -0.6296411
000170 42 fd 22 be c8 21 e2 bd b9 e2 8b be 89 a6 c2 be
       -0.15916923 -0.110415995 -0.27321413 -0.3801768
000180 39 ba 8c be 96 65 ad be d1 01 a6 be 87 78 d7 be
       -0.27485827 -0.33866566 -0.3242326 -0.42084143
000190 61 a6 9f be 8b ba 46 be 26 7c a3 be 3b a4 b4 be
       -0.31181625 -0.19407098 -0.31930655 -0.35281548
0001a0 5c 7a 78 be cb bb a7 be 2e ba c7 be dc 71 9f be
       -0.24265426 -0.32760462 -0.3900923 -0.31141555
0001b0 7b f1 1f bf 4a 19 d1 be 1c bc 01 bf f3 54 e7 be
       -0.62477845 -0.40839607 -0.5067766 -0.45182
0001c0 d9 98 39 be b3 72 79 be 9d ba 48 be e1 a6 04 bf
       -0.18124713 -0.2436016 -0.19602437 -0.51817137
0001d0 cf 78 74 be 05 24 93 be c3 8d ac be 8f b0 7d be
       -0.2387421 -0.28738418 -0.33701906 -0.24774383
0001e0 6f dc 17 bf b4 28 37 be 59 b6 7d be ed cd 98 be
       -0.5932073 -0.17886621 -0.24776591 -0.2984461
0001f0 cc 01 9b be 77 a0 bc be 5a 2a 9d bd 51 dc 8d be
       -0.30274808 -0.36841175 -0.076740935 -0.2770715
000200 c4 4c f1 be ec 2d 6d be bd 0f 7d be 88 c8 cd be
       -0.4712888 -0.23162049 -0.24713035 -0.40192056
000210 db 92 24 bf 04 f8 2a be 5a 11 9b be cf fd 9c be
       -0.64286584 -0.16696173 -0.30286676 -0.3066239
000220 4d 5c a3 be c8 40 db be c8 9a 4e be 9b 17 74 be
       -0.31906357 -0.42822862 -0.20176232 -0.2383713
000230 6a 3c a9 be df f3 83 be 0e e8 d6 be 00 01 b1 be
       -0.33053905 -0.25771996 -0.4197392 -0.34571075
000240 33 7e e0 be c4 9b bd be eb dd 57 be 54 e3 97 be
       -0.43846282 -0.37032902 -0.21080749 -0.29665625
000250 90 51 46 be 93 4f b8 be 46 ef 52 be 87 4a 79 be
       -0.19367051 -0.3599821 -0.20599088 -0.24344836
000260 02 cd 25 be 12 10 2a be 31 a2 66 be b5 b0 ad be
       -0.16191486 -0.16607693 -0.22522809 -0.3392388
000270 1d f6 a6 be cd fd eb be d1 12 3c be 4c c2 91 be
       -0.32609645 -0.46092072 -0.18366553 -0.2846855
000280 49 aa ac be 22 b3 8e be be 17 18 bf ba 16 a1 be
       -0.33723667 -0.27871042 -0.5941123 -0.31462651
000290 5b f5 a1 be 31 81 5b be 5e 1c 68 be 21 5d 87 be
       -0.31632504 -0.21436001 -0.22667071 -0.2643824
0002a0 6b d3 26 bf 4f d8 96 be c6 b0 2e be 01 c3 be be
       -0.6516635 -0.29461905 -0.17059621 -0.3725815
0002b0 c3 cd af be 6a c5 85 be 22 3f 9c be f7 31 b8 be
       -0.3433667 -0.26127177 -0.30516917 -0.3597562
0002c0 43 03 7d be 43 ef 88 be 98 49 bb be 79 e6 9e be
       -0.24708275 -0.26745042 -0.36579585 -0.31035212
0002d0 6f 5e 60 be 95 9d 2d be cd d2 30 be 6e d5 a9 be
       -0.21911024 -0.16954644 -0.17267914 -0.33170646
0002e0 66 18 a2 be 7a 6b 9a be 84 5f 97 be b0 76 8a be
       -0.3165924 -0.30160123 -0.2956506 -0.27043676
0002f0 57 fb a4 be 6d f2 85 be 2c 7c d1 be 7d 8c 7d be
       -0.32223007 -0.2616152 -0.40915048 -0.24760623
000300 07 35 6d be 94 f3 8d be b1 36 e2 be e9 a0 89 be
       -0.2316476 -0.27724898 -0.4418235 -0.26880577
000310 a7 30 9f be 8d 69 c7 be ab a0 d4 be 35 5d 86 be
       -0.31091806 -0.38947716 -0.4152883 -0.26242986
000320 93 5f b9 be b8 8b 6d be 54 c9 7d be 2a c0 a6 be
       -0.3620573 -0.2319783 -0.24783832 -0.32568485
000330 2a 04 7e be 06 15 8d be 42 3c 78 be a0 47 76 be
       -0.24806276 -0.27555102 -0.24241737 -0.2405076
000340 b5 0a 9e be b5 70 94 be 5c bc d3 be b2 35 54 bf
       -0.30867544 -0.2899224 -0.41354644 -0.8289443
000350 e4 e8 8b be 19 d5 e0 be 6f f3 45 be 17 88 d2 be
       -0.2732612 -0.4391258 -0.19331144 -0.41119453
000360 4f a7 69 be 09 6a 4f be 1a 01 8a be 07 8d 98 be
       -0.2281773 -0.20255293 -0.26953965 -0.29795095
000370 35 03 b8 be 41 93 1c bf eb 7d a6 be 79 c6 32 be
       -0.35939947 -0.6116219 -0.32517943 -0.17458524
000380 b7 ec 91 be 65 be 93 be f3 b2 c6 bd bd 6d 30 bf
       -0.28500912 -0.28856197 -0.097021006 -0.6891745
000390 20 e7 8b be 05 d1 93 be c5 bd fc be 71 f2 ab be
       -0.27324772 -0.28870407 -0.49363533 -0.33583406
0003a0 40 f0 b1 be 77 39 a5 be 80 77 cf be bf 14 b1 be
       -0.3475361 -0.32270405 -0.4052086 -0.3458614
0003b0 9d 50 91 be 92 ef 89 be 00 1b 9d be a0 b9 59 be
       -0.28381816 -0.2694059 -0.30684662 -0.21262217
0003c0 57 14 bc be 20 be 89 be 0c b4 f2 be 90 3f 28 be
       -0.36734268 -0.26902866 -0.4740299 -0.16430497
0003d0 23 70 7c be 82 94 65 be 2b 77 91 be ed ae 33 bf
       -0.24652152 -0.22419932 -0.2841123 -0.7018879
0003e0 d2 2b ae be f0 81 fa be 54 69 ea be c6 c6 6b be
       -0.34017807 -0.4892726 -0.45783484 -0.23025045
0003f0 b8 67 32 bf 70 c0 8e be 9e 09 8f be 51 fc 9f be
       -0.6968951 -0.27881193 -0.27937025 -0.3124719

proxy_theta_raw.weight f4 [2493, 1]
000000 df b6 f8 3f 57 97 8f 3f d5 63 aa 3f 07 a4 b7 3f
       1.9430808 1.121806 1.3311716 1.4346932
000010 05 fc 87 3f 99 d4 dd 3f 33 bc 05 40 5c 8c eb 3f
       1.0623785 1.7330505 2.0896118 1.8402209
000020 33 91 dd 3f b1 e2 f2 3f d2 a1 ac 3f 5f 09 f4 3f
       1.7309936 1.8975431 1.3486884 1.906536
000030 eb 4b d9 3f 63 9d 7b 3f cb 79 89 3f 2a f2 ce 3f
       1.6976293 0.9828703 1.0740293 1.6167653
000040 f5 d1 20 3f 81 20 07 3f 2f 06 93 3f 1c f2 2a 3f
       0.6282037 0.5278397 1.1486262 0.6677568
000050 d5 26 d6 3e 8a 99 33 3f e7 a8 15 3f 27 6e 09 3f
       0.418265 0.70156157 0.5846085 0.53683704
000060 e0 bd 4c 3f 1b c1 40 3f 67 ee 11 3f 10 43 80 3f
       0.79977226 0.75294656 0.570044 1.0020466
000070 5c f5 40 3f 3c 6f 2e 3f 03 3e 05 3f d2 f5 65 3f
       0.7537439 0.6813848 0.5204775 0.8982822
000080 2b d9 8c 3f 23 97 f1 3e e2 e5 ee 3f 28 f4 b0 3f
       1.1003774 0.4718562 1.8663905 1.382451
000090 97 29 d2 3f 69 23 c5 3f fc 6e 2b 3f ea a4 11 40
       1.6418942 1.5401431 0.66966224 2.2756906
0000a0 b2 f7 82 3f 51 7d 7b 3f 1f ef 6a 3f d4 b0 05 40
       1.0231841 0.9823809 0.9177112 2.0889177
0000b0 68 7f f1 3f 1b 9b ea 3f 84 55 ec 3f 98 46 10 40
       1.8867006 1.8328584 1.8463597 2.2543087
0000c0 38 4f e8 3f f0 ed d9 3f 2a 56 4d 3f 0c a7 cb 3f
       1.8149176 1.7025738 0.802096 1.5910354
0000d0 f9 4a da 3f f1 81 e6 3f 01 7e d6 3f b6 59 d3 3f
       1.705413 1.8008405 1.6757203 1.6511753
0000e0 1f f3 e4 3f 55 f4 dc 3f 06 fb d9 3f e7 e5 e4 3f
       1.7886695 1.7262064 1.7029731 1.7882661
0000f0 de a2 cf 3f a1 81 dc 3f b9 fa e3 3f 0c ae f3 3f
       1.6221578 1.722706 1.781089 1.903749
000100 97 02 f5 3f fd 53 eb 3f 94 0c ed 3f 9b 2d ee 3f
       1.9141415 1.8385006 1.8519464 1.8607668
000110 b2 6c c0 3f 97 3d ce 3f 2a 6d dd 3f cd 9e e7 3f
       1.5033171 1.6112546 1.7298939 1.8095337
000120 2f 3b de 3f 5d 88 03 40 05 e1 c5 3f c1 7e cf 3f
       1.7361811 2.055198 1.5459296 1.6210557
000130 db c0 cd 3f 22 f2 dd 3f f3 3e ee 3f ca 52 03 40
       1.607448 1.7339518 1.861296 2.051928
000140 35 90 f5 3f aa d7 fc 3f 31 64 e1 3f c4 9b d0 3f
       1.9184633 1.9753315 1.7608701 1.6297536
000150 02 13 d3 3f 7a 30 e7 3f 05 de d9 3f a4 f5 9c 3f
       1.6490176 1.8061669 1.702088 1.2262464
000160 6c 85 fa 3f b1 4b e1 3f da 89 f7 3f 93 c2 eb 3f
       1.9571967 1.7601224 1.9338944 1.8418754
000170 76 d4 ed 3f de cd e3 3f 53 9c e3 3f 57 2a f6 3f
       1.8580463 1.7797201 1.7782081 1.9231671
000180 a4 97 e8 3f 45 d6 ce 3f 26 cb f8 3f ce 52 a4 3f
       1.8171277 1.615914 1.9436996 1.283777
000190 e9 8b f0 3f 21 19 fb 3f 42 cc e4 3f f4 31 fb 3f
       1.8792697 1.9617044 1.7874835 1.962462
0001a0 b6 2c 01 40 0f 6f f3 3f d9 63 d2 3f d1 b5 d2 3f
       2.018354 1.9018267 1.6436721 1.6461736
0001b0 83 81 ea 3f c4 61 e3 3f dd 8f 00 40 0d a0 f5 3f
       1.8320774 1.7764211 2.0087807 1.9189469
0001c0 53 0b e0 3f 41 eb fd 3f 49 90 db 3f cb fa d7 3f
       1.7503456 1.9837419 1.7153407 1.6873411
0001d0 f0 ec de 3f 2a 6e db 3f 92 4a e5 3f a8 b6 e4 3f
       1.7416058 1.7142994 1.7913382 1.7868242
0001e0 d3 13 f3 3f 49 f2 cd 3f 70 c0 e9 3f 66 2a ea 3f
       1.8990425 1.6089565 1.8261852 1.8294189
0001f0 31 a0 e4 3f e8 ea d6 3f f5 e2 e1 3f 52 72 d9 3f
       1.7861387 1.6790438 1.7647387 1.6988013
000200 e9 94 cb 3f a6 d3 e2 3f d9 42 df 3f 62 bf c9 3f
       1.5904819 1.772084 1.7442275 1.576153
000210 56 9b d1 3f 58 76 db 3f c1 6c e5 3f 0b b4 cb 3f
       1.637553 1.7145491 1.7923814 1.591432
000220 b1 5f e4 3f 51 ca 7b 3f 88 08 7e 3f 35 98 88 3f
       1.7841703 0.98355585 0.9923177 1.067145
000230 b8 34 68 3f 88 d0 c7 3f 01 44 50 3f 23 68 22 3f
       0.9070544 1.5610514 0.81353766 0.6344015
000240 b2 c4 87 3f 7c 51 4d 3f 59 21 66 3f 0d de 37 3f
       1.0606902 0.8020246 0.89894634 0.718232
000250 3c 58 4d 3f cd 30 71 3f 59 d4 90 3f ee 31 70 3f
       0.8021276 0.9421509 1.1314803 0.93826187
000260 7c 53 88 3f 0b 08 88 3f b8 e0 89 3f 66 47 99 3f
       1.0650477 1.0627455 1.0771704 1.1974914
000270 31 30 99 3f 5d d4 9f 3f 37 c7 8f 3f a4 f4 83 3f
       1.1967832 1.2486683 1.123267 1.0309033
000280 f3 53 98 3f 75 fa 87 3f 0b ff 86 3f 93 5d 83 3f
       1.1900619 1.0623308 1.0546583 1.0262932
000290 4b 4a 9d 3f 9b 6f 7a 3f 72 77 98 3f 35 e8 74 3f
       1.2288297 0.97826546 1.1911452 0.9566682
0002a0 58 07 88 3f 28 3c 99 3f 43 60 50 3f 56 9f 8b 3f
       1.0627241 1.1971483 0.81396884 1.0908
0002b0 56 3b a3 3f 61 15 85 3f e0 13 98 3f 11 21 78 3f
       1.2752483 1.0397149 1.1881065 0.96925455
0002c0 9c 31 8e 3f cb 89 a4 3f 0a b0 92 3f 56 0b 60 3f
       1.110889 1.2854551 1.1459973 0.875173
0002d0 24 ab 23 3f e9 89 33 3f 32 dd 6d 3f 6f e5 09 3f
       0.63933015 0.7013231 0.9291564 0.5386571
0002e0 4e da e0 3e f2 05 16 3f 7a ef 04 3f 4d f0 7e 3f
       0.43916553 0.5860282 0.5192791 0.9958542
0002f0 5e c1 27 3f 6f 39 6f 3f 1f c8 80 3f 67 d9 78 3f
       0.6552943 0.9344701 1.0061072 0.9720673
000300 df 23 2f 3f d9 2e 89 3f d7 22 3e 3f a8 d3 19 3f
       0.6841411 1.0717422 0.7427191 0.60088587
000310 b4 99 8f 3f 58 43 84 3f a6 f7 17 3f 2c 8e 21 3f
       1.1218781 1.0333052 0.59362257 0.6310756
000320 ad 15 2d 3f 43 a7 17 3f 8b c2 12 3f 5c 91 03 40
       0.676112 0.59239596 0.573281 2.055747
000330 1e cd 1b 3f cb da 0c 3f 00 eb 27 3f 73 4b 46 3f
       0.6085986 0.5502135 0.65592957 0.77458876
000340 b4 e7 e7 3e 44 fd 25 3f e9 c3 97 3f aa 6e 5f 3f
       0.45293963 0.6483958 1.1856662 0.87278235
000350 78 62 ef 3e 5b 1f 34 3f df 4b ab 3f 9e d7 4c 3f
       0.46754813 0.70360345 1.3382529 0.80016506
000360 f1 be 0a 3f 39 69 3c 3f af 54 70 3f 54 6c 98 3f
       0.54197603 0.7359806 0.93879217 1.1908059
000370 6d 5d 04 3f 2f 6c 5b 3f e7 bc 6a 3f 51 bd 1d 3f
       0.51705056 0.8571195 0.9169449 0.61617
000380 5f e0 09 3f 12 d6 0a 3f 8d 98 19 3f e5 72 0d 3f
       0.5385799 0.54232895 0.599984 0.5525344
000390 96 07 25 3f 7e 46 09 3f 1a 35 1f 3f c6 28 17 3f
       0.644647 0.5362319 0.621904 0.5904659
0003a0 2a 6d 2e 3f 82 a0 93 3f 6b eb 93 3f 71 bf 13 3f
       0.6813532 1.1533358 1.1556219 0.5771399
0003b0 fe 08 26 3f 97 14 6b 3f 57 fa 90 3f 89 71 57 3f
       0.6485747 0.9182829 1.1326398 0.84157616
0003c0 47 70 44 3f 6c 57 8f 3f 0a 7e 42 3f f3 a4 fc 3e
       0.7673382 1.1198554 0.7597357 0.49344596
0003d0 a5 b6 02 3f ae 02 38 3f 11 34 56 3f 1d 84 69 3f
       0.51059943 0.7187909 0.836732 0.91217214
0003e0 9f 58 55 3f 8f 38 fe 3e d7 2c 8f 3f 6c c3 5b 3f
       0.8333835 0.49652526 1.1185559 0.85845065
0003f0 0e bd 99 3f cc e2 5a 3f c6 67 46 3f 52 99 8a 3f
       1.201082 0.85502315 0.77502096 1.082804
