GIRT/checkpoint/girt2pl-assist0910-random-split/checkpoint-epoch-8.pt (torch, 153924 bytes, 3 tensors)

proxy_a_raw.weight f4 [17671, 1]
-0.110196844 0.22063163 -0.2930768 0.19737327 -0.1605254 0.1490941 0.1431274 0.08721095
0.41162792 0.34470367 0.5914737 0.16500951 0.14212951 0.69560564 0.0044272635 0.31446427
0.13978289 0.18905014 0.036771007 0.15819094 0.19665703 -0.11989054 0.13148655 0.22710429
-0.06638945 -0.043406263 0.26079583 0.22480288 0.20393886 0.17036688 0.1822945 0.34535912
0.24848387 0.31417724 0.37368205 -0.10053414 -0.06811401 0.4536442 0.33020365 -0.1611125
0.24375252 0.26247096 0.25262636 -0.12830904 0.25906906 0.19040431 0.119011395 0.19051047
0.33018273 0.051664516 0.29958802 0.15938796 0.2628053 0.16969158 0.2329616 -0.08050049
0.2306585 0.17010847 -0.067839675 0.20334983 0.7664232 -0.06942373 0.16871524 0.214564
-0.21497351 0.29784852 0.17668208 0.24600382 -0.23559642 0.5576593 0.20552626 0.28716233
0.5033115 0.23640026 0.4826683 0.21213096 0.13666986 0.07258537 0.21773891 0.08852797
0.7461687 0.3318258 0.24236767 0.14348906 0.14889914 0.14716525 0.25950328 0.23871648
0.76080424 0.11421065 -0.040440988 0.5523007 0.17315209 -0.20626225 0.14014825 0.32141536
0.16100946 0.26530546 0.18997104 0.19011328 0.230221 0.17320056 0.20521419 0.21896818
0.43260852 0.27725843 0.33374843 -0.17869093 0.55186325 0.40989003 0.4939904 0.18673202
0.3470252 -0.22401959 -0.037691742 0.36645368 0.20831682 0.2034375 -0.15389743 0.1687108
0.32898593 0.1644235 -0.15369728 0.072159536 0.18350242 0.28752965 0.21312335 0.039991915
0.26955742 -0.072796434 -0.114861175 0.35465664 0.8509905 0.22885942 0.116862215 -0.16343167
0.17600769 0.39302927 0.07313944 0.20272206 -0.10302152 -0.30080643 -0.1552919 0.079701774
0.06989143 0.36143085 0.12397578 0.19636102 0.1522511 0.19835436 0.04613975 -0.1713837
0.13177869 0.1632311 0.10604218 0.12830772 0.3509608 -0.19211796 0.21471117 0.22852981
0.49400517 0.15727614 0.41657558 0.12445808 -0.24009068 0.24021786 0.16380624 0.2718853
0.7420314 0.1738131 0.1007469 0.3245655 -0.1409282 0.16494797 -0.11706437 0.0896016
0.21732074 -0.04371317 0.5384781 -0.13262135 0.13442051 0.09794786 0.30958232 0.21003969
0.10411428 0.15128142 0.11431041 0.15002438 0.30162168 0.16226597 0.24678467 -0.03482151
0.2182696 0.22978112 0.30948612 0.25105995 0.27465016 0.29511434 -0.086720936 -0.09885915
-0.2249359 -0.14667714 -0.109812684 0.007915468 0.16471404 0.19848344 0.25673813 -0.0662721
-0.16259262 0.1536027 -0.035923004 0.8424577 -0.09494889 0.30831346 -0.20569617 0.33583483
-0.065658785 0.15828271 0.22251815 0.19402452 0.27909917 0.49102718 0.3453003 -0.21709754
0.07326889 0.15898381 0.23717323 0.53540945 0.31592625 0.22909348 0.5155413 0.38488933
0.21487394 0.28531924 0.21060087 -0.11352447 0.27789313 0.1173449 0.32117227 0.17090832
-0.08002784 0.1632862 -0.20273243 -0.094510525 0.30024987 -0.108138256 0.11025387 0.65311635
0.21293777 0.0013102371 0.41669747 -0.18966568 0.7091387 0.1102391 0.2936164 0.19325088
00000000: e2ae e1bd 42ed 613e 2a0e 96be 381c 4a3e
00000010: c560 24be 20ac 183e fd8f 123e a89b b23d
00000020: e5c0 d23e 007d b03e d26a 173f 41f8 283e
00000030: 668a 113e 3613 323f 9412 913b 7601 a13e
00000040: 3f23 0f3e 5c96 413e 329d 163d cefc 213e
00000050: 7660 493e 2c89 f5bd 69a4 063e 078e 683e
00000060: 31f7 87bd c4ca 31bd 0887 853e ba32 663e
00000070: 59d5 503e a874 2e3e 69ab 3a3e e9d2 b03e
00000080: 8e72 7e3e d7db a03e 4153 bf3e d8e4 cdbd
00000090: 5c7f 8bbd 0d44 e83e 7410 a93e adfa 24be
000000a0: 439a 793e 9862 863e 3e58 813e 7263 03be
000000b0: b3a4 843e 59f9 423e 3fbc f33d 2d15 433e
000000c0: b60d a93e 2c9e 533d 9a63 993e 9936 233e
000000d0: 6b8e 863e a1c3 2d3e 7c8d 6e3e 71dd a4bd
000000e0: be31 6c3e ea30 2e3e 87ef 8abd f03a 503e
000000f0: 5034 443f 072e 8ebd b0c3 2c3e aab6 5b3e
00000100: 0422 5cbe 9a7f 983e 26ec 343e 6de8 7b3e
00000110: 3040 71be c3c2 0e3f 7a75 523e f106 933e
00000120: 06d9 003f e912 723e 4d20 f73e dc38 593e
00000130: 2ff3 0b3e a3a7 943d f3f6 5e3e 274e b53d
00000140: e904 3f3f 12e5 a93e 3b2f 783e ccee 123e
00000150: 0479 183e 7db2 163e 9ddd 843e 1872 743e
00000160: 11c4 423f 46e7 e93d 73a5 25bd 9463 0d3f
00000170: c84e 313e 6936 53be 0683 0f3e 8e90 a43e
00000180: aadf 243e 1ed6 873e c587 423e 0ead 423e
00000190: 0ebf 6b3e 7d5b 313e ab23 523e 3239 603e
000001a0: dd7e dd3e d1f4 8d3e 13e1 aa3e c1fa 36be
000001b0: e946 0d3f 1bdd d13e 4fec fc3e ae36 3f3e
000001c0: 49ad b13e 6465 65be a862 1abd d19f bb3e
000001d0: 0151 553e ec51 503e 4a97 1dbe 86c2 2c3e
000001e0: d870 a83e a25e 283e d262 1dbe 61c8 933d
000001f0: 0fe8 3b3e 1637 933e 023d 5a3e 90ce 233d
00000200: 6e03 8a3e 4c16 95bd 563c ebbd 8e95 b53e
00000210: 83da 593f 205a 6a3e 7555 ef3d a25a 27be
00000220: 5c3b 343e 223b c93e 21ca 953d 5f96 4f3e
00000230: f2fc d2bd 4d03 9abe d704 1fbe af3a a33d
00000240: 3d23 8f3d 770d b93e 04e7 fd3d dd12 493e
00000250: b6e7 1b3e 681d 4b3e 09fd 3c3d 357f 2fbe
00000260: fef0 063e 0e26 273e a42c d93d 1963 033e
00000270: 22b1 b33e 92ba 44be 3fdd 5b3e b803 6a3e
00000280: 3fee fc3e ff0c 213e 6549 d53e e1e3 fe3d
00000290: 55da 75be acfb 753e d3bc 273e 8d34 8b3e
000002a0: c5f5 3d3f 10fc 313e 6454 ce3d 732d a63e
000002b0: 7b4f 10be 1fe8 283e 72bf efbd 0b81 b73d
000002c0: 5489 5e3e 950c 33bd b3d9 093f e4cd 07be
000002d0: 88a5 093e e398 c83d 9381 9e3e a514 573e
000002e0: de39 d53d 84e9 1a3e 941b ea3d fe9f 193e
000002f0: 286e 9a3e 0d29 263e 1fb5 7c3e 00a1 0ebd
00000300: 1182 5f3e be4b 6b3e f774 9e3e ee8a 803e
00000310: f29e 8c3e 3a19 973e bf9a b1bd ab76 cabd
00000320: 9955 66be 8832 16be 79e5 e0bd e1af 013c
00000330: ccaa 283e 3e3f 4b3e 2e73 833e abb9 87bd
00000340: ae7e 26be 074a 1d3e 0024 13bd 4fab 573f
00000350: 9074 c2bd 43db 9d3e 04a2 52be 8bf2 ab3e
00000360: 1d78 86bd dd14 223e ccdb 633e 5dae 463e
00000370: 16e6 8e3e ea67 fb3e 33cb b03e d14e 5ebe
00000380: 000e 963d a7cc 223e 8add 723e 9810 093f
00000390: 16c1 a13e 7b97 6a3e 84fa 033f 3710 c53e
000003a0: ea07 5c3e 5d15 923e c1a7 573e 847f e8bd
000003b0: 0248 8e3e 8652 f03d b170 a43e 9702 2f3e
000003c0: a3e5 a3bd 7f34 273e 1799 4fbe bc8e c1bd
000003d0: 5aba 993e 9777 ddbd c8cc e13d a232 273f
000003e0: 5c0c 5a3e 43bc ab3a 5f59 d53e b837 42be
000003f0: 1d8a 353f 0ac5 e13d e454 963e 8fe3 453e

proxy_b_raw.weight f4 [17671, 1]
-0.18397424 -0.29649824 -0.28964877 -0.32061723 -0.16999127 -0.20701112 -0.20313568 -0.18590795
-0.37619248 -0.3421471 -0.571157 -0.20036438 -0.17682302 -0.66349655 -0.2197453 -0.38451996
-0.22154959 -0.23094198 -0.21929964 -0.26943812 -0.28495964 -0.14490762 -0.2778112 -0.2882377
-0.23779188 -0.21195632 -0.28583443 -0.28044564 -0.2882908 -0.24458979 -0.19751483 -0.3141962
-0.28361896 -0.3765817 -0.31080827 -0.25934032 -0.19005263 -0.38235536 -0.27656558 -0.21777363
-0.2734195 -0.24462932 -0.2666055 -0.2313984 -0.25391454 -0.22811064 -0.16753061 -0.2443927
-0.2596699 -0.23487906 -0.2975735 -0.23230278 -0.2514891 -0.21616006 -0.29261026 -0.3426366
-0.24978401 -0.2301215 -0.2199169 -0.19244935 -0.72525203 -0.27161834 -0.25804737 -0.22330518
-0.25430623 -0.2753642 -0.26055533 -0.22682814 -0.28484908 -0.5783911 -0.25190553 -0.2734716
-0.5539057 -0.25781113 -0.45764813 -0.23936482 -0.26184863 -0.15574189 -0.2905987 -0.22912098
-0.70767903 -0.37402076 -0.24652445 -0.27983922 -0.23357528 -0.20836884 -0.26478842 -0.29614702
-0.70635945 -0.19801347 -0.1549852 -0.5807512 -0.18016423 -0.18946202 -0.23345837 -0.33446783
-0.23645718 -0.26721326 -0.2547413 -0.30594742 -0.26133576 -0.21452431 -0.253236 -0.28900608
-0.31096455 -0.30416545 -0.31751657 -0.28417408 -0.5904741 -0.3399145 -0.52042824 -0.35668
-0.24887268 -0.23796287 -0.20120811 -0.4452998 -0.21549292 -0.2442687 -0.30602092 -0.22191507
-0.53987694 -0.18045324 -0.18783376 -0.24882868 -0.2169801 -0.283209 -0.168522 -0.234242
-0.3669639 -0.18431577 -0.19034207 -0.30483457 -0.7654051 -0.25347713 -0.2997966 -0.24008271
-0.24099678 -0.3726902 -0.17347962 -0.23791282 -0.26526374 -0.19907625 -0.30973914 -0.31138238
-0.3217866 -0.404682 -0.18130767 -0.22823203 -0.19385931 -0.30370823 -0.18260467 -0.26457953
-0.1763916 -0.17662168 -0.18693687 -0.2548161 -0.3194826 -0.34985465 -0.19001062 -0.27235833
-0.4040956 -0.22443606 -0.50015724 -0.22306636 -0.23848741 -0.20095718 -0.20227252 -0.277989
-0.7017444 -0.24122018 -0.20355712 -0.3100917 -0.2778554 -0.2227076 -0.21744198 -0.27171814
-0.27312505 -0.23953287 -0.3379163 -0.27579162 -0.20415641 -0.20117545 -0.2497065 -0.3044087
-0.24267654 -0.26217124 -0.24202423 -0.22767457 -0.36355695 -0.22345616 -0.3323632 -0.2107324
-0.20176725 -0.26532522 -0.44734246 -0.2573941 -0.24151987 -0.3727668 -0.30331978 -0.224633
-0.30425966 -0.18738432 -0.1954094 -0.2571091 -0.20536597 -0.22945744 -0.25732616 -0.19477285
-0.27198035 -0.23555255 -0.34734315 -0.8210438 -0.23876812 -0.32175386 -0.21046863 -0.31237912
-0.20524098 -0.24540986 -0.24034835 -0.22580396 -0.3250505 -0.5495487 -0.31171057 -0.22455335
-0.20769326 -0.23870227 -0.21156114 -0.59919953 -0.2815819 -0.24360974 -0.5394359 -0.30088827
-0.27719006 -0.29731917 -0.32502759 -0.2646325 -0.2775493 -0.19727366 -0.28250733 -0.21053638
-0.2860821 -0.23625721 -0.3611403 -0.18777378 -0.207842 -0.20469797 -0.2097387 -0.67452466
-0.2759077 -0.35971594 -0.4989556 -0.26523727 -0.6999637 -0.22343889 -0.2378076 -0.2456227
00000000: be63 3cbe 9ece 97be d84c 94be f127 a4be
00000010: 3112 2ebe b9fa 53be cd02 50be a75e 3ebe
00000020: 4d9c c0be e82d afbe 5837 12bf 522c 4dbe
00000030: 1811 35be e9da 29bf e904 61be cddf c4be
00000040: e5dd 62be 0e7c 6cbe 1690 60be cbf3 89be
00000050: 3be6 91be aa62 14be 453d 8ebe e493 93be
00000060: b77f 73be 140b 59be e458 92be 9296 8fbe
00000070: da9a 93be bf75 7abe 5441 4abe 53de a0be
00000080: 8136 91be 51cf c0be 4322 9fbe 41c8 84be
00000090: 289d 42be 15c4 c3be 019a 8dbe 0d00 5fbe
000000a0: a4fd 8bbe 1c80 7abe 8480 88be b4f3 6cbe
000000b0: 1601 82be d695 69be 258d 2bbe 1442 7abe
000000c0: 74f3 84be 2384 70be 8e5b 98be c8e0 6dbe
000000d0: 2ec3 80be 1059 5dbe 03d1 95be 106e afbe
000000e0: 61c7 7fbe f8a4 6bbe e531 61be 7111 45be
000000f0: 1eaa 39bf 8f11 8bbe c91e 84be 1daa 64be
00000100: 6d34 82be 89fc 8cbe 8267 85be a345 68be
00000110: bdd7 91be 7011 14bf c3f9 80be 7804 8cbe
00000120: c4cc 0dbf d2ff 83be db50 eabe 0d1c 75be
00000130: 0611 86be cd7a 1fbe 5ac9 94be b19e 6abe
00000140: 742a 35bf a67f bfbe e870 7cbe 1647 8fbe
00000150: 5c2e 6fbe a45e 55be 5992 87be 95a0 97be
00000160: f9d3 34bf 0bc4 4abe 71b4 1ebe 1cac 14bf
00000170: f97c 38be 5502 42be b60f 6fbe 5e3f abbe
00000180: d521 72be 2dd0 88be 746d 82be 24a5 9cbe
00000190: cdcd 85be 43ac 5bbe 26a8 81be 9bf8 93be
000001a0: bf36 9fbe 93bb 9bbe 8891 a2be 447f 91be
000001b0: 5029 17bf 4609 aebe c93a 05bf c39e b6be
000001c0: 7bd8 7ebe 8aac 73be 8009 4ebe 56fe e3be
000001d0: 2daa 5cbe 9321 7abe c6ae 9cbe b43d 63be
000001e0: 6035 0abf bcc8 38be 7e57 40be f2cc 7ebe
000001f0: 0830 5ebe c500 91be 0891 2cbe 23dd 6fbe
00000200: b1e2 bbbe 46bd 3cbe 08e9 42be 4713 9cbe
00000210: 97f1 43bf c1c7 81be f17e 99be 3ed8 75be
00000220: dcc7 76be 40d1 bebe a4a4 31be 6b9f 73be
00000230: a6d0 87be a5da 4bbe 2196 9ebe 836d 9fbe
00000240: 37c1 a4be 7b32 cfbe b8a8 39be a8b5 69be
00000250: 0e83 46be a57f 9bbe b8fc 3abe f876 87be
00000260: 00a0 34be 50dc 34be 616c 3fbe 4177 82be
00000270: 3993 a3be 2620 b3be 2592 42be 8d72 8bbe
00000280: 9ee5 cebe 91d2 65be 4e0a 00bf 826b 64be
00000290: 0b36 74be b8c7 4dbe 8720 4fbe 9354 8ebe
000002a0: 85a5 33bf 6c02 77be 4771 50be 57c4 9ebe
000002b0: 1043 8ebe 760d 64be 1ca9 5ebe a41e 8bbe
000002c0: 0cd7 8bbe 1b48 75be 5e03 adbe 8f34 8dbe
000002d0: 610e 51be f000 4ebe 10b3 7fbe 75db 9bbe
000002e0: 3380 78be 4f3b 86be 33d5 77be 8623 69be
000002f0: 2324 babe b1d1 64be 822b aabe 3cca 57be
00000300: 139c 4ebe b5d8 87be 120a e5be 29c9 83be
00000310: fc50 77be 4adb bebe bb4c 9bbe 3106 66be
00000320: ecc7 9bbe ade1 3fbe 6719 48be cea3 83be
00000330: 754b 52be e4f6 6abe 41c0 83be 8972 47be
00000340: 0241 8bbe b034 71be f6d6 b1be ed2f 52bf
00000350: a17f 74be ecbc a4be 1785 57be 28f0 9fbe
00000360: b12a 52be b94c 7bbe e11d 76be 2739 67be
00000370: 056d a6be 39af 0cbf 8798 9fbe 50f1 65be
00000380: 8bad 54be 5e6e 74be 7ca3 58be 2465 19bf
00000390: 812b 90be d574 79be 7918 0abf 070e 9abe
000003a0: dbeb 8dbe 383a 98be 046a a6be e97d 87be
000003b0: f11a 8ebe 1b02 4abe cda4 90be d996 57be
000003c0: 5a79 92be 69ed 71be 62e7 b8be c547 40be
000003d0: 89d4 54be 589c 51be bec5 56be a6ad 2cbf
000003e0: c643 8dbe b02c b8be 1c77 ffbe 2ecd 87be
000003f0: d230 33bf 2acd 64be d683 73be 8484 7bbe

proxy_theta_raw.weight f4 [2493, 1]
1.3925208 0.78266406 0.9625343 1.025083 0.7587575 1.1891885 1.4999017 1.2828915
1.1840599 1.3482326 0.98359233 1.3431636 1.2152604 0.7541892 0.80867094 1.1472294
0.4431781 0.39110607 0.83541113 0.48883367 0.3528582 0.50486845 0.41591147 0.39373916
0.5527982 0.5435434 0.41343158 0.6992152 0.55943716 0.46845275 0.38033178 0.6923242
0.79754984 0.3391929 1.3898789 1.0360028 1.1613363 1.0828092 0.49176386 1.5955491
0.7231108 0.6924115 0.6542012 1.4891454 1.3391186 1.2691306 1.3612896 1.5708394
1.3993937 1.2177936 0.6061349 1.2625049 1.2913606 1.344063 1.2209347 1.2623852
1.3545135 1.2995898 1.3206525 1.4260975 1.2076234 1.3597876 1.3741705 1.5054015
1.5175606 1.3944435 1.4830629 1.408902 1.1275157 1.2108458 1.2910501 1.3557787
1.3560143 1.6006068 1.2494137 1.214629 1.2369772 1.3786672 1.4595187 1.6484767
1.5705585 1.5143732 1.3117006 1.205937 1.283209 1.3632897 1.3259197 0.95626044
1.5287088 1.3518809 1.506212 1.4143909 1.4030769 1.3633597 1.4932686 1.5036373
1.4106057 1.2510636 1.5000612 0.97549015 1.4444314 1.502908 1.3809417 1.6352565
1.5843418 1.5036976 1.2494053 1.3167763 1.4243304 1.5021003 1.5694667 1.6498852
1.3350806 1.507644 1.2957207 1.2680401 1.3132201 1.3227621 1.3472509 1.3423163
1.5049165 1.1881423 1.3752251 1.409297 1.3605877 1.2883841 1.309562 1.2955983
1.1808785 1.3041048 1.2666715 1.179746 1.2458663 1.29687 1.3735743 1.2473301
1.3038672 0.7112001 0.7388587 0.75526595 0.60229653 1.2406238 0.5828667 0.44221452
0.690623 0.5695121 0.6079331 0.5517073 0.53179187 0.6394708 0.79178107 0.65907055
0.7385119 0.7238169 0.7338208 0.80660194 0.80289525 0.8537662 0.7841639 0.69585645
0.8299799 0.7370305 0.74280393 0.707195 0.82439774 0.66620505 0.8228588 0.63249975
0.7232951 0.81584585 0.54769343 0.75086933 0.8536646 0.7267307 0.83612925 0.68549323
0.78457975 0.8608285 0.80027235 0.6258186 0.4767953 0.4982762 0.6502522 0.40354905
0.34505168 0.42883712 0.3646248 0.72461385 0.4954145 0.6661615 0.69650483 0.6527424
0.50488293 0.7674863 0.5434478 0.46154863 0.7974427 0.7386036 0.40054488 0.47309855
0.47415626 0.43990454 0.43613455 1.4006861 0.4437437 0.39663163 0.45488223 0.54864496
0.34803155 0.5101722 0.7665155 0.59344006 0.33330745 0.50345683 0.95675486 0.56890553
0.40518144 0.5529689 0.65147895 0.9121468 0.38445035 0.57745254 0.63015145 0.43919164
0.37627196 0.39962602 0.42393553 0.38440657 0.44409084 0.4012878 0.435285 0.42244306
0.46976143 0.78237 0.8648161 0.41776127 0.4897056 0.70202744 0.79955596 0.60041434
0.5495409 0.8068984 0.5509246 0.37917623 0.37826863 0.50897914 0.55881804 0.6914364
0.5783817 0.36861748 0.81248814 0.584952 0.7338414 0.57751167 0.55089843 0.8099499
00000000: 1f3e b23f ac5c 483f a668 763f eb35 833f
00000010: ee3d 423f 5437 983f c7fc bf3f ca35 a43f
00000020: 468f 973f e392 ac3f b5cc 7b3f c9ec ab3f
00000030: a78d 9b3f 8b12 413f 0f05 4f3f 6ad8 923f
00000040: 3de8 e23e 0e3f c83e 81dd 553f 6848 fa3e
00000050: d4a9 b43e 0f3f 013f 59f2 d43e 2e98 c93e
00000060: 2f84 0d3f a925 0b3f 4ead d33e c4ff 323f
00000070: 4637 0f3f 0ad9 ef3e d9ba c23e 293c 313f
00000080: 3a2c 4c3f b1aa ad3e 8de7 b13f bd9b 843f
00000090: aba6 943f 7e99 8a3f 79c8 fb3e f43a cc3f
000000a0: ca1d 393f e141 313f bb79 273f 519c be3f
000000b0: 3d68 ab3f df72 a23f bd3e ae3f 4411 c93f
000000c0: 551f b33f a9e0 9b3f a82b 1b3f c399 a13f
000000d0: 4e4b a53f 420a ac3f 9747 9c3f d795 a13f
000000e0: b360 ad3f f558 a63f 240b a93f 5d8a b63f
000000f0: 6793 9a3f 850d ae3f d2e4 af3f ffb0 c03f
00000100: 6d3f c23f 207d b23f 01d5 bd3f e756 b43f
00000110: 6f52 903f fffc 9a3f 2141 a53f 288a ad3f
00000120: e091 ad3f afe0 cc3f caec 9f3f f778 9b3f
00000130: 4555 9e3f 2b78 b03f 82d1 ba3f 4901 d33f
00000140: 1008 c93f fbd6 c13f cee5 a73f 255c 9a3f
00000150: 3140 a43f 4780 ae3f bdb7 a93f 7ccd 743f
00000160: bbac c33f 6f0a ad3f 8ecb c03f c30a b53f
00000170: 0698 b33f 9282 ae3f 6d23 bf3f 3077 c03f
00000180: ba8e b43f da22 a03f 0102 c03f b9b9 793f
00000190: 21e3 b83f 4a5f c03f b3c2 b03f 1650 d13f
000001a0: b6cb ca3f 2a79 c03f 83ec 9f3f 208c a83f
000001b0: 7550 b63f d344 c03f 49e4 c83f 702f d33f
000001c0: ece3 aa3f 7bfa c03f 2dda a53f 234f a23f
000001d0: 9917 a83f 4550 a93f b872 ac3f 05d1 ab3f
000001e0: 1ba1 c03f 0c15 983f 6007 b03f d863 b43f
000001f0: bd27 ae3f c5e9 a43f ba9f a73f 2ad6 a53f
00000200: 0727 973f e8ec a63f 4b22 a23f eb01 973f
00000210: 8c78 9f3f d6ff a53f 48d1 af3f 83a8 9f3f
00000220: 1fe5 a63f 3611 363f d825 3d3f 1c59 413f
00000230: 1b30 1a3f c3cc 9e3f c136 153f f169 e23e
00000240: abcc 303f 8ccb 113f 81a1 1b3f b13c 0d3f
00000250: 8323 083f 5cb4 233f 2ab2 4a3f d9b8 283f
00000260: 1e0f 3d3f 104c 393f aedb 3b3f 777d 4e3f
00000270: 8b8a 4d3f 6c90 5a3f f7be 483f a623 323f
00000280: 9079 543f 08ae 3c3f 6628 3e3f bb0a 353f
00000290: bb0b 533f 6a8c 2a3f e0a6 523f 81eb 213f
000002a0: de29 393f 46db 503f a335 0c3f f938 403f
000002b0: c389 5a3f 060b 3a3f 910c 563f 7c7c 2f3f
000002c0: 38da 483f 425f 5c3f a6de 4c3f a635 203f
000002d0: 831e f43e 0f1e ff3e ee76 263f fb9d ce3e
000002e0: 9daa b03e 8a90 db3e 1ab0 ba3e 4b80 393f
000002f0: f8a6 fd3e 8f89 2a3f 244e 323f 201a 273f
00000300: 0240 013f fb79 443f 651f 0b3f 1a50 ec3e
00000310: 3425 4c3f 2015 3d3f 3814 cd3e f939 f23e
00000320: 9cc4 f23e 2b3b e13e 074d df3e af49 b33f
00000330: 6032 e33e 4d13 cb3e 53e6 e83e ff73 0c3f
00000340: 3131 b23e a59a 023f 5c3a 443f b0eb 173f
00000350: 46a7 aa3e 8ce2 003f e3ed 743f cba3 113f
00000360: f173 cf3e 5f8f 0d3f 53c7 263f 7482 693f
00000370: add6 c43e eed3 133f 9b51 213f badd e03e
00000380: b8a6 c03e c89b cc3e 140e d93e f0d0 c43e
00000390: e05f e33e 9875 cd3e addd de3e 754a d83e
000003a0: 9284 f03e 6649 483f 9764 5d3f cee4 d53e
000003b0: b1ba fa3e 12b8 333f b3af 4c3f c1b4 193f
000003c0: b6ae 0c3f e590 4e3f 6509 0d3f 6323 c23e
000003d0: 6dac c13e 754c 023f b30e 0f3f fa01 313f
000003e0: d310 143f 6ebb bc3e 39ff 4f3f 6abf 153f
000003f0: 08dd 3b3f ced7 133f ae07 0d3f e058 4f3f
