GIRT/checkpoint/girt2pl-assist0910-random-split/checkpoint-epoch-19.pt (torch, 153997 bytes, 3 tensors)

proxy_a_raw.weight f4 [17671, 1]
0	0xbe53bf2e	-0.20678398
1	0x3e5caae9	0.21549572
2	0xbeea13a6	-0.45718116
3	0x3f181a03	0.5941469
4	0xbe91089c	-0.2832688
5	0x3e60addc	0.21941322
6	0x3e18e6f4	0.14931852
7	0x3dae869f	0.08521771
8	0x3f009884	0.5023272
9	0x3e953731	0.2914367
10	0x3f00272c	0.5005977
11	0x3e942e8b	0.2894176
12	0x3dedbcec	0.116082996
13	0x3f1d1921	0.6136647
14	0x3e7e2b14	0.2482112
15	0x3eb4905c	0.35266387
16	0x3e3d4e67	0.1848694
17	0x3e83d53f	0.2574863
18	0xbc101ec7	-0.0087964
19	0x3e545933	0.20737152
20	0x3e86a88a	0.2630046
21	0xbe1d1119	-0.15338553
22	0x3dfa38c2	0.12217857
23	0x3e8590bc	0.26086986
24	0xbdaabf6e	-0.083372936
25	0xbd41f0b4	-0.047348693
26	0x3e836529	0.25663117
27	0x3ea15f21	0.3151789
28	0x3e84c2c7	0.25929853
29	0x3e7f6f94	0.24944907
30	0x3e831bed	0.25607243
31	0x3eda9c6b	0.42697462
32	0x3e5df54f	0.21675609
33	0x3eb3ff73	0.3515583
34	0x3e9435f4	0.28947413
35	0xbdb9fad5	-0.090810455
36	0xbc87d1a6	-0.01657946
37	0x3ec509a0	0.38483906
38	0x3ee568e1	0.4480658
39	0xbe994089	-0.2993205
40	0x3eb1dc33	0.3473831
41	0x3e8d671a	0.27617723
42	0x3ed3bf2d	0.41356793
43	0xbdd177d8	-0.102279365
44	0x3ef592e2	0.47963625
45	0x3e959d39	0.29221514
46	0x3e2d6d70	0.16936278
47	0x3e2667be	0.16250512
48	0x3e845e1c	0.2585305
49	0x3df8c0f7	0.1214618
50	0x3ed354be	0.4127559
51	0x3e34b95d	0.17648835
52	0x3ea537cf	0.3226914
53	0x3e6db126	0.23212108
54	0x3e81e770	0.25371885
55	0xbe3a55e7	-0.18196832
56	0x3ea8f7a4	0.33001435
57	0x3e704a35	0.23465808
58	0xbdc4d71f	-0.096113436
59	0x3e4ab11c	0.19794124
60	0x3f3077c6	0.6893276
61	0xbda2548e	-0.07926284
62	0x3e6f13b6	0.23347363
63	0x3ea39272	0.31947666
64	0xbe6fd2f6	-0.23420319
65	0x3eab054c	0.3340248
66	0x3e8516bf	0.25993916
67	0x3ec6d4a0	0.38834095
68	0xbe9cc73c	-0.30620754
69	0x3f187e35	0.59567577
70	0x3ea79feb	0.32739195
71	0x3ed8c3aa	0.4233678
72	0x3f09d6ab	0.5384318
73	0x3eac3ee1	0.33641723
74	0x3f1945e0	0.59872246
75	0x3e9e1803	0.30877694
76	0x3e355ae3	0.17710452
77	0x3e3260c9	0.17419733
78	0x3e95b0a2	0.29236323
79	0x3e01aa44	0.12662607
80	0x3f32d2fc	0.69853187
81	0x3e913343	0.28359422
82	0x3ec07548	0.37589478
83	0x3e37c4a8	0.17946112
84	0x3e7b4221	0.24536945
85	0x3e5a85dc	0.21340126
86	0x3eabf283	0.3358346
87	0x3eae942b	0.34097418
88	0x3f15ce7b	0.5851819
89	0x3e25de51	0.16198088
90	0xbd705a45	-0.058679838
91	0x3f318156	0.69337976
92	0x3e13b94a	0.14426151
93	0xbeaf6903	-0.34259805
94	0x3eb5ec8e	0.3553204
95	0x3e7d6ca7	0.24748479
96	0x3e9ffacb	0.31246027
97	0x3ee8ef00	0.45494843
98	0x3ec30486	0.3808939
99	0x3e8ef7e9	0.27923515
100	0x3eade7f2	0.33966023
101	0x3e5b4ef9	0.21416844
102	0x3ea7cbac	0.32772577
103	0x3e80f50e	0.25186962
104	0x3e9a2900	0.30109406
105	0x3ec0fe46	0.37693995
106	0x3ee15d6d	0.4401659
107	0xbec0ad72	-0.37632328
108	0x3f2b5f0e	0.66941917
109	0x3f0a421e	0.54007137
110	0x3f0f4e14	0.5597851
111	0x3d8b0689	0.06788356
112	0x3e743f5f	0.23852299
113	0xbe9a591d	-0.30146113
114	0xbd4d7351	-0.050158802
115	0x3f0b37ad	0.5438183
116	0x3e8117b2	0.2521339
117	0x3ea669bd	0.32502547
118	0xbe4c96cb	-0.19979398
119	0x3e6c3ffb	0.23071282
120	0x3ee19b3a	0.4406374
121	0x3e9e9f8d	0.30981103
122	0xbea54989	-0.32282665
123	0x3de5d8d2	0.11222996
124	0x3e9a3c99	0.30124357
125	0x3eadd65a	0.339526
126	0x3e218ab7	0.15775572
127	0x3bf24ba6	0.007394272
128	0x3ee5ce40	0.4488392
129	0xbdfbc513	-0.12293448
130	0xbe520457	-0.20509468
131	0x3f0311b6	0.511989
132	0x3f27bd1e	0.65522945
133	0x3e5fc8eb	0.21853988
134	0x3e028b95	0.12748559
135	0xbe888063	-0.2666045
136	0x3e917730	0.28411245
137	0x3efc9dfd	0.49339285
138	0x3d40e476	0.047092877
139	0x3eb52604	0.35380566
140	0xbd003ac1	-0.031306032
141	0xbf11153d	-0.5667303
142	0xbe8c838b	-0.2744411
143	0x3ddc6746	0.10761885
144	0x3ec22a2a	0.37922794
145	0x3e945d9a	0.28977662
146	0x3e5b29f1	0.21402718
147	0x3ead9d4a	0.33909065
148	0x3e094084	0.13403517
149	0x3e8de3f3	0.27712974
150	0x3d641252	0.055681534
151	0xbe2b71dc	-0.16742653
152	0x3e209dfe	0.15685269
153	0x3e9e247d	0.30887213
154	0x3e2f88c6	0.17142019
155	0x3e6fd7eb	0.2342221
156	0x3ed06c28	0.40707517
157	0xbe816e14	-0.25279295
158	0x3e7ffd86	0.24999055
159	0x3e8c8d0a	0.27451354
160	0x3ee9eadb	0.45686993
161	0x3e8cb2e3	0.2748023
162	0x3f1b55b1	0.6067763
163	0x3e6162b7	0.22010313
164	0xbeecaa3b	-0.46223626
165	0x3ee245c8	0.44193864
166	0x3e8f697b	0.28010163
167	0x3e84cf10	0.25939226
168	0x3f358d7d	0.7091902
169	0x3e5e1e70	0.21691298
170	0x3e1d7650	0.15377164
171	0x3ece7ff2	0.4033199
172	0xbe6d0c43	-0.23149209
173	0x3e8d666a	0.27617198
174	0xbe45a297	-0.19300304
175	0x3e308cb8	0.1724118
176	0x3e7537a9	0.23947014
177	0xbdcc5eae	-0.09978996
178	0x3f2ed8f8	0.6829982
179	0xbde185b6	-0.110118315
180	0x3e390b82	0.18070796
181	0x3c42d4e8	0.011891581
182	0x3e88fbf9	0.2675474
183	0x3e2ed813	0.17074613
184	0x3e514c9b	0.20439379
185	0x3e77f723	0.24215369
186	0x3e306d9f	0.17229317
187	0x3e444fc2	0.1917105
188	0x3e815512	0.25260216
189	0x3e65e16d	0.22449274
190	0x3e3008ca	0.17190853
191	0x3de6cc80	0.11269474
192	0x3eb32890	0.34991884
193	0x3e713525	0.2355543
194	0x3e99c747	0.3003485
195	0x3e8eb7a9	0.27874497
196	0x3edcd3f9	0.43130472
197	0x3eade58f	0.33964202
198	0xbd0f0fe9	-0.034927282
199	0xbe2b15a7	-0.16707478
200	0xbea31454	-0.31851447
201	0xbe9b1bb4	-0.30294573
202	0xbe3ba609	-0.18325056
203	0xbd256375	-0.040378053
204	0x3e9faf92	0.31188637
205	0x3e95f4f6	0.29288453
206	0x3e857c14	0.26071227
207	0xbd9a4838	-0.07533306
208	0xbe4fc3fd	-0.20289607
209	0x3e21f6f0	0.15816855
210	0xbe6162d2	-0.22010353
211	0x3f77b93c	0.9676702
212	0xbd1edaab	-0.038782757
213	0x3ee35809	0.44403103
214	0xbe91bd92	-0.28464943
215	0x3f00076c	0.50011325
216	0xbd293e6f	-0.041319307
217	0x3dcca17f	0.099917404
218	0x3eaba258	0.33522296
219	0x3eb7bfcd	0.3588852
220	0x3ebfc0ad	0.37451687
221	0x3f2aabb6	0.6666826
222	0x3ebfcd82	0.37461478
223	0xbe9bb990	-0.3041501
224	0x3e4e0038	0.20117271
225	0x3e67dfef	0.22644018
226	0x3e4ce79f	0.20010231
227	0x3f47ff63	0.78124064
228	0x3e9d9d8a	0.30784255
229	0x3eb25bfa	0.34835798
230	0x3efc02bb	0.49220833
231	0x3f04951b	0.51790017
232	0x3eb2c848	0.34918427
233	0x3ecfe045	0.40600792
234	0x3eb6a3ae	0.35671753
235	0xbe3e6fc4	-0.18597323
236	0x3eda44d4	0.42630637
237	0x3e3499de	0.1763682
238	0x3ee3aa9d	0.44466105
239	0x3e3640ca	0.17798153
240	0xbde2b6a3	-0.110699914
241	0x3e433461	0.1906295
242	0xbe59d0eb	-0.21271102
243	0xbde8f5b2	-0.11374988
244	0x3ef26f50	0.4735055
245	0xbda131c6	-0.07870822
246	0x3e29dcad	0.16588087
247	0x3f4b3c7e	0.7938918
248	0x3e97ee4c	0.29673994
249	0x3e703ea9	0.23461403
250	0x3efb7e98	0.4912002
251	0xbe9b9c92	-0.3039289
252	0x3f434e55	0.762914
253	0x3e380cb9	0.17973603
254	0x3ed1eb55	0.40999857
255	0x3e9125e7	0.2834923

proxy_b_raw.weight f4 [17671, 1]
0	0xbe8e1d7d	-0.27756873
1	0xbebcec82	-0.3689919
2	0xbe5a50d1	-0.21319892
3	0xbee9b675	-0.45647016
4	0xbe42dbbe	-0.19029137
5	0xbe88c816	-0.26715153
6	0xbe22ee44	-0.15911204
7	0xbdc094c5	-0.094033755
8	0xbec5c8a1	-0.3862963
9	0xbea366b2	-0.31914288
10	0xbeedd0b6	-0.46448296
11	0xbe829611	-0.25505117
12	0xbe6e93cb	-0.23298566
13	0xbf054ba9	-0.52068573
14	0xbe5c26a6	-0.21499118
15	0xbeccdc47	-0.40011808
16	0xbe8e1215	-0.2774817
17	0xbe9b61d1	-0.30348065
18	0xbe85a1ec	-0.261001
19	0xbeb4683e	-0.3523578
20	0xbed5be0d	-0.4174656
21	0x3c165209	0.009174832
22	0xbec03715	-0.37542024
23	0xbe9c0acd	-0.3047699
24	0xbebd7a0f	-0.37007186
25	0xbe384e76	-0.1799868
26	0xbea16393	-0.31521282
27	0xbe965a01	-0.29365543
28	0xbeac4c2f	-0.33651873
29	0xbe9724d9	-0.295203
30	0xbe6133b9	-0.21992387
31	0xbeacc4e2	-0.3374396
32	0xbe4f18a3	-0.20224242
33	0xbec72bb3	-0.38900527
34	0xbdf79f4d	-0.12090931
35	0xbeaf52ec	-0.34242952
36	0xbe135eb1	-0.1439159
37	0xbe920e87	-0.28526708
38	0xbe88ea52	-0.26741272
39	0xbea5288c	-0.32257497
40	0xbe977829	-0.29583862
41	0xbe969827	-0.29412958
42	0xbedbbafa	-0.4291609
43	0xbe528569	-0.20558704
44	0xbe937dfe	-0.28807062
45	0xbe5af165	-0.21381147
46	0xbe585579	-0.21126355
47	0xbe63a2e6	-0.2223011
48	0xbdf7937f	-0.120886795
49	0xbe84098b	-0.2578853
50	0xbea85ef0	-0.32884932
51	0xbe6f30a4	-0.23358399
52	0xbe943945	-0.28949943
53	0xbe740f65	-0.23833998
54	0xbed66921	-0.41877082
55	0xbeb00d9a	-0.34385377
56	0xbe34bbdb	-0.17649786
57	0xbe7f4f7c	-0.24932665
58	0xbeb8e521	-0.3611231
59	0xbe4ed219	-0.20197333
60	0xbf13ee94	-0.57785916
61	0xbe5a7f81	-0.21337701
62	0xbe96096d	-0.29304066
63	0xbe3a5b09	-0.1819879
64	0xbe6adf7b	-0.22936814
65	0xbe924fd1	-0.2857652
66	0xbeb78fe1	-0.35851958
67	0xbe96f194	-0.29481184
68	0xbe625958	-0.22104394
69	0xbf0147c5	-0.50500137
70	0xbeb11d7b	-0.34592804
71	0xbeb59a4a	-0.35469276
72	0xbee41972	-0.44550663
73	0xbe9e5525	-0.30924335
74	0xbeea9bf8	-0.4582212
75	0xbe95df19	-0.29271773
76	0xbe875f88	-0.26440072
77	0xbe1e68c3	-0.15469651
78	0xbe97405c	-0.2954129
79	0xbea3f17e	-0.3202018
80	0xbf1566e3	-0.5836012
81	0xbea04ce7	-0.31308672
82	0xbe7b5680	-0.24544716
83	0xbe9c2a89	-0.30501202
84	0xbea1772c	-0.31536233
85	0xbe817b9e	-0.25289625
86	0xbe90dc9e	-0.28293318
87	0xbec367e7	-0.3816521
88	0xbee9e308	-0.45681024
89	0xbe778660	-0.24172354
90	0xbe33a001	-0.17541505
91	0xbf1e311e	-0.61793697
92	0xbdf84780	-0.121230125
93	0xbd637976	-0.055535756
94	0xbe92749b	-0.28604588
95	0xbec1fd0a	-0.37888366
96	0xbe8dba76	-0.2768132
97	0xbeb335dc	-0.3500203
98	0xbeb6ce09	-0.35704067
99	0xbeee752b	-0.46573767
100	0xbea07284	-0.31337368
101	0xbe280536	-0.16408238
102	0xbeae3daf	-0.34031436
103	0xbebf8a9a	-0.37410432
104	0xbe3dc8ae	-0.18533584
105	0xbe9fd469	-0.31216744
106	0xbecb925e	-0.39760107
107	0xbe98be14	-0.29832518
108	0xbf1a81d5	-0.6035436
109	0xbed17b9d	-0.40914622
110	0xbeef330e	-0.4671864
111	0xbeef89a3	-0.46784696
112	0xbde1b4d9	-0.11020822
113	0xbe642cd1	-0.22282721
114	0xbe324807	-0.17410289
115	0xbf05550e	-0.5208291
116	0xbe7583af	-0.23976015
117	0xbe9c3ef2	-0.30516773
118	0xbea6e0f7	-0.3259351
119	0xbe6c02b1	-0.23047902
120	0xbf140f8e	-0.57836235
121	0xbe223bf1	-0.15843178
122	0xbe8c9fb7	-0.27465603
123	0xbe9a20ec	-0.30103242
124	0xbea84546	-0.3286535
125	0xbec83d7a	-0.39109403
126	0xbb11d1e2	-0.0022250344
127	0xbe9026e7	-0.2815468
128	0xbefeccab	-0.49765524
129	0xbe81edeb	-0.2537683
130	0xbe8b0f59	-0.27160147
131	0xbedacd7d	-0.427349
132	0xbf0c6730	-0.5484495
133	0xbdc1a1ea	-0.09454711
134	0xbe942871	-0.28937104
135	0xbea8b31f	-0.3294916
136	0xbeb2abe2	-0.3489676
137	0xbed6d201	-0.41957095
138	0xbe4ecfbd	-0.20196433
139	0xbe614096	-0.21997294
140	0xbeb53f4f	-0.35399863
141	0xbe9270e5	-0.28601757
142	0xbee81349	-0.45327213
143	0xbeb48ebc	-0.35265148
144	0xbef6406d	-0.48096028
145	0xbead0eeb	-0.33800444
146	0xbe584316	-0.21119341
147	0xbea27558	-0.3173015
148	0xbe37253f	-0.17885302
149	0xbeba73cd	-0.36416474
150	0xbe553e4e	-0.20824549
151	0xbe62a2f4	-0.22132474
152	0xbe0cbf28	-0.13744795
153	0xbe13e79b	-0.14443819
154	0xbe73ad1c	-0.23796505
155	0xbebdb96e	-0.37055534
156	0xbe982972	-0.2971912
157	0xbef4754a	-0.47745734
158	0xbe236b28	-0.15958846
159	0xbe8c881a	-0.27447587
160	0xbe830f40	-0.25597572
161	0xbe922ee1	-0.2855139
162	0xbf1a8f9a	-0.6037537
163	0xbeb47f68	-0.35253453
164	0xbeaf194d	-0.3419899
165	0xbe59a61b	-0.2125477
166	0xbe6f01b9	-0.23340501
167	0xbe6dff69	-0.23241962
168	0xbf1825d1	-0.59432703
169	0xbe9aff5e	-0.30272955
170	0xbe04bb3d	-0.1296205
171	0xbeb341e1	-0.350112
172	0xbebbdbf1	-0.3669124
173	0xbe8daa0b	-0.27668795
174	0xbeb26551	-0.34842923
175	0xbec9c79b	-0.394101
176	0xbe597f6c	-0.21240014
177	0xbe8ddced	-0.27707615
178	0xbea47cd6	-0.32126492
179	0xbea0777e	-0.31341165
180	0xbe5b4d79	-0.21416272
181	0xbe0e2eb6	-0.13885006
182	0xbd9fae56	-0.07796924
183	0xbea87465	-0.32901302
184	0xbeae1184	-0.33997738
185	0xbe9dcc16	-0.30819768
186	0xbe9bed5f	-0.30454537
187	0xbe8f1507	-0.2794573
188	0xbe8ce8a0	-0.2752123
189	0xbe890316	-0.26760167
190	0xbedbffeb	-0.42968687
191	0xbe85b92d	-0.2611784
192	0xbe6cc69c	-0.23122638
193	0xbe884226	-0.26612967
194	0xbed5e1ef	-0.41773936
195	0xbe86954d	-0.26285782
196	0xbe9f19f7	-0.31074497
197	0xbeb314af	-0.34976718
198	0xbeeb6c6f	-0.45981166
199	0xbe834780	-0.25640488
200	0xbebc2c51	-0.3675256
201	0xbe8479c4	-0.2587415
202	0xbe8ba70d	-0.27275887
203	0xbeb19336	-0.34682626
204	0xbe82837d	-0.25490943
205	0xbe931003	-0.28723153
206	0xbe4daeb9	-0.20086183
207	0xbe829b73	-0.25509223
208	0xbea23286	-0.3167917
209	0xbe9bf84a	-0.30462867
210	0xbed75da0	-0.42063618
211	0xbf47a601	-0.77987677
212	0xbe92f5cb	-0.2870315
213	0xbef3b2e2	-0.47597414
214	0xbe31a66d	-0.17348643
215	0xbedc7dec	-0.4306482
216	0xbe6b0edc	-0.22954887
217	0xbe20b466	-0.15693817
218	0xbe8ff436	-0.28116006
219	0xbea80295	-0.3281447
220	0xbebe0233	-0.37111053
221	0xbf19f706	-0.6014255
222	0xbe9eef1e	-0.31041807
223	0xbe0a3896	-0.13498148
224	0xbea2eee6	-0.3182289
225	0xbe9a3771	-0.30120423
226	0xbc13e2f6	-0.00902628
227	0xbf340c43	-0.7033121
228	0xbe7e8903	-0.24856953
229	0xbe918128	-0.2841885
230	0xbee0eb16	-0.43929356
231	0xbeac73f2	-0.3368221
232	0xbebae642	-0.36503798
233	0xbea59da3	-0.3234683
234	0xbed8f7fc	-0.42376697
235	0xbebd8e68	-0.3702271
236	0xbe80218e	-0.250256
237	0xbe99b318	-0.3001945
238	0xbe977614	-0.29582274
239	0xbe4eec50	-0.20207334
240	0xbec4976e	-0.38396782
241	0xbe8d9520	-0.27652836
242	0xbf02a79e	-0.51037014
243	0xbe0f225d	-0.13977952
244	0xbe76f6dd	-0.24117608
245	0xbe5767da	-0.2103571
246	0xbea63bb1	-0.32467416
247	0xbf2d88be	-0.67786777
248	0xbeb1dac0	-0.34737206
249	0xbf0aaa6c	-0.54166293
250	0xbecb4ef6	-0.3970868
251	0xbe466983	-0.19376187
252	0xbf2a6e07	-0.6657414
253	0xbe993d75	-0.299297
254	0xbe825663	-0.25456533
255	0xbea7e044	-0.3278829

proxy_theta_raw.weight f4 [2493, 1]
0	0x40072814	2.1118212
1	0x3fa168e7	1.2610139
2	0x3fb8ae43	1.442818
3	0x3fc6cc7a	1.5531151
4	0x3f96240d	1.1729752
5	0x3ff81a4c	1.9383025
6	0x40113eab	2.26945
7	0x4002143d	2.0324852
8	0x3ff66853	1.9250587
9	0x4004892a	2.0708718
10	0x3fbb2af9	1.4622489
11	0x4006307c	2.0967093
12	0x3fec44b9	1.8458472
13	0x3f85e9ba	1.0461953
14	0x3f932267	1.1494874
15	0x3fe3aa49	1.7786342
16	0x3f324f78	0.6965251
17	0x3f148214	0.58010983
18	0x3f9ebe94	1.240191
19	0x3f38cb0d	0.7218483
20	0x3ed49ed1	0.41527417
21	0x3f42d80a	0.761109
22	0x3f22d6f2	0.6360923
23	0x3f157f11	0.5839701
24	0x3f6331f6	0.8874811
25	0x3f50e194	0.81594205
26	0x3f1ea6da	0.61973345
27	0x3f8e45ba	1.1115029
28	0x3f4f4c6d	0.8097599
29	0x3f43cfe8	0.76489115
30	0x3f12b982	0.5731431
31	0x3f759310	0.95927525
32	0x3f985957	1.1902264
33	0x3f0673d3	0.52520484
34	0x3fff5253	1.9946998
35	0x3fbc3203	1.4702762
36	0x3fe6391e	1.7986181
37	0x3fd860a0	1.6904488
38	0x3f3ab5cc	0.7293365
39	0x4020d0d1	2.5127451
40	0x3f903423	1.1265911
41	0x3f8a6e95	1.0814997
42	0x3f81edea	1.0150731
43	0x40125911	2.2866862
44	0x4004058f	2.0628393
45	0x4001c00d	2.0273468
46	0x3ffb4712	1.9631064
47	0x40208563	2.5081413
48	0x3ff5c953	1.9202064
49	0x3feeeda9	1.8666278
50	0x3f5f9728	0.8734002
51	0x3fd34be7	1.6507539
52	0x3fe96563	1.8234066
53	0x3ff737b1	1.9313871
54	0x3fea989a	1.832782
55	0x3fdfcdf2	1.7484725
56	0x3ff48bb3	1.9105133
57	0x3fec43c1	1.8458177
58	0x3fe64a38	1.79914
59	0x3fedf2d2	1.8589728
60	0x3fdf7fb4	1.7460847
61	0x3fe6febd	1.804649
62	0x3ff06c85	1.8783118
63	0x3ffefc22	1.9920695
64	0x3ffef190	1.9917469
65	0x3ffb05e7	1.9611176
66	0x3ff583f5	1.9180895
67	0x3fff68fd	1.9953915
68	0x3fcf9b33	1.6219238
69	0x3fdd6a7b	1.729812
70	0x3fef9aef	1.8719157
71	0x3ff9ee5c	1.9525867
72	0x3fea1a0a	1.8289196
73	0x400993c3	2.1496437
74	0x3fcc7911	1.5974447
75	0x3fe077c9	1.7536556
76	0x3fda46f6	1.7052906
77	0x3fe63981	1.7986299
78	0x3ff92a5c	1.9466052
79	0x4007eb77	2.1237466
80	0x3ffaf635	1.9606386
81	0x4006124f	2.0948675
82	0x3ff2d172	1.8970168
83	0x3fe1cedd	1.7641255
84	0x3fde3d99	1.7362548
85	0x3ff7b791	1.9352895
86	0x3fe697b6	1.8015049
87	0x3fa5ef34	1.2963624
88	0x40033b63	2.0504997
89	0x3fef749f	1.8707465
90	0x40023730	2.0346184
91	0x3ffa5f9e	1.956043
92	0x3ffe2468	1.985486
93	0x3ff25bba	1.8934243
94	0x3fe63318	1.7984343
95	0x40019eec	2.0253248
96	0x3ff55ec0	1.916954
97	0x3fd9d8dc	1.7019305
98	0x40030cb7	2.047651
99	0x3faee823	1.3664593
100	0x3ffdcbff	1.982788
101	0x4004caa5	2.0748684
102	0x3ff1f8b9	1.8904029
103	0x3ffe2175	1.985396
104	0x40072524	2.111642
105	0x3ffd58af	1.9792689
106	0x3fe0f569	1.7574893
107	0x3fdae41e	1.7100866
108	0x3ff5fd75	1.9217974
109	0x3fe52e8d	1.7904831
110	0x4007317b	2.112395
111	0x3ff4ee96	1.9135311
112	0x3fee9f6c	1.8642402
113	0x40072f7b	2.112273
114	0x3feb151a	1.8365815
115	0x3fe7629d	1.8076969
116	0x3feef6d0	1.8669071
117	0x3fe7f44b	1.8121427
118	0x3ff639ae	1.9236352
119	0x3ff5be25	1.9198653
120	0x3ffc2dd4	1.9701486
121	0x3fdfa7c4	1.7473073
122	0x3ff9d18e	1.9517076
123	0x3ff85445	1.9400717
124	0x3ff2d2a8	1.8970537
125	0x3fe4a05f	1.7861441
126	0x3ff3f642	1.9059527
127	0x3fe740e3	1.8066677
128	0x3fdc9ad3	1.7234749
129	0x3ff62ea5	1.9232985
130	0x3ff43bde	1.908077
131	0x3fd98360	1.6993217
132	0x3fdf3fad	1.7441307
133	0x3fe98f41	1.8246843
134	0x3ff35e9a	1.9013245
135	0x3fd51c26	1.6649215
136	0x3ff77792	1.9333365
137	0x3f89c545	1.0763327
138	0x3f891036	1.0708072
139	0x3f98565a	1.1901352
140	0x3f877972	1.0583937
141	0x3fcf3d41	1.6190568
142	0x3f69c415	0.9131482
143	0x3f38d42b	0.7219874
144	0x3f9f0f88	1.2426615
145	0x3f6346eb	0.8878009
146	0x3f8475c4	1.0348439
147	0x3f440a41	0.76578146
148	0x3f6f7651	0.9353991
149	0x3f87faec	1.062345
150	0x3fa00d0c	1.2503982
151	0x3f85bfee	1.0449197
152	0x3f972d14	1.1810632
153	0x3f99a54b	1.2003568
154	0x3f9b3ffc	1.2128901
155	0x3fae2017	1.3603543
156	0x3fae27f6	1.3605945
157	0x3fb2a42f	1.3956355
158	0x3f9f79a7	1.2459
159	0x3f968370	1.1758862
160	0x3fa7ef68	1.3119936
161	0x3f98eb2d	1.194677
162	0x3f976443	1.1827472
163	0x3f92c03a	1.1464913
164	0x3fb1c314	1.3887658
165	0x3f8d360a	1.1032116
166	0x3fa9889f	1.3244818
167	0x3f8d4a52	1.1038306
168	0x3f987e85	1.1913611
169	0x3fac5b96	1.346545
170	0x3f6f1308	0.93388414
171	0x3f9bdb8a	1.2176373
172	0x3fb8f0e2	1.4448512
173	0x3f945a33	1.1590027
174	0x3fa8b88f	1.3181323
175	0x3f8aacfe	1.0834043
176	0x3f9d499f	1.2288092
177	0x3fb9a174	1.4502397
178	0x3fa34f62	1.2758601
179	0x3f76b264	0.9636595
180	0x3f2f25b9	0.68416935
181	0x3f43f128	0.7653985
182	0x3f832e7f	1.0248564
183	0x3f153935	0.58290416
184	0x3ee93cdc	0.45554245
185	0x3f21f904	0.6327059
186	0x3f14c90b	0.5811927
187	0x3f8bce5e	1.0922353
188	0x3f3723d0	0.7153902
189	0x3f85f5d8	1.046565
190	0x3f929517	1.1451749
191	0x3f8eb7ef	1.1149882
192	0x3f3ed0cf	0.74537367
193	0x3f97f87b	1.1872705
194	0x3f531fab	0.82470196
195	0x3f2330db	0.6374642
196	0x3f9ffe91	1.2499563
197	0x3f9452ae	1.1587732
198	0x3f30ec67	0.6911072
199	0x3f2db9a5	0.67861396
200	0x3f469be1	0.775816
201	0x3f293f8e	0.661126
202	0x3f1d2196	0.61379373
203	0x40132a2e	2.2994494
204	0x3f2a4e71	0.6652594
205	0x3f1b4a7c	0.6066053
206	0x3f3b727d	0.7322157
207	0x3f593429	0.84845215
208	0x3ef6c5da	0.48197824
209	0x3f2cc64e	0.6749009
210	0x3fb0937a	1.3795006
211	0x3f802a5f	1.0012931
212	0x3f075c63	0.52875346
213	0x3f4798b3	0.77967376
214	0x3fba73fe	1.4566648
215	0x3f656d7c	0.89620185
216	0x3f17c547	0.59285396
217	0x3f4dc4c0	0.8037834
218	0x3f87990b	1.059358
219	0x3fa00153	1.2500404
220	0x3f102213	0.56301993
221	0x3f7deb73	0.9918739
222	0x3f854a3f	1.0413283
223	0x3f2e22f9	0.68022114
224	0x3f1af4b3	0.6052963
225	0x3f16ed00	0.58955383
226	0x3f2c2ed6	0.67258966
227	0x3f1e53a2	0.61846364
228	0x3f39c51a	0.7256638
229	0x3f1486de	0.5801829
230	0x3f344c50	0.70428944
231	0x3f27a977	0.6549296
232	0x3f44f384	0.76934075
233	0x3fa6de5e	1.3036611
234	0x3f9d85e3	1.2306484
235	0x3f22b3fc	0.63555884
236	0x3f361d8a	0.71138823
237	0x3f7c2bfd	0.9850462
238	0x3fa1be78	1.2636251
239	0x3f6dc4d2	0.9287845
240	0x3f5957c3	0.8489954
241	0x3f9d5102	1.2290347
242	0x3f57dfd1	0.8432589
243	0x3f09e031	0.53857714
244	0x3f116e70	0.5680914
245	0x3f4ab1c7	0.79177517
246	0x3f78cd79	0.97188526
247	0x3f76020a	0.9609686
248	0x3f728e9f	0.9474887
249	0x3f0d89f1	0.55288607
250	0x3f9bedbf	1.2181929
251	0x3f7b4f8f	0.9816827
252	0x3fb7b2cc	1.435144
253	0x3f79045b	0.9727227
254	0x3f5aef16	0.85521066
255	0x3f93bba0	1.1541634
