GIRT/checkpoint/girt2pl-assist0910-random-split/checkpoint-epoch-16.pt (torch, 153997 bytes, 3 tensors)

proxy_a_raw.weight f4 [17671, 1]
000000 93 83 3b be 9e 10 68 3e f2 3c d6 be fc bf fb 3e
       -0.1831191 0.22662589 -0.41843373 0.4916991
000010 4d 5e 82 be 61 c2 55 3e 22 28 1b 3e 55 ae bb 3d
       -0.2546257 0.20874931 0.15152028 0.091641106
000020 19 33 00 3f 49 ec a4 3e c0 9f 0a 3f 04 9f 88 3e
       0.5007797 0.3221152 0.5415001 0.2668382
000030 f3 04 09 3e 24 22 28 3f 20 76 37 3e d4 c5 bc 3e
       0.13380794 0.65677094 0.17916155 0.3686968
000040 ed 57 34 3e 6d 77 80 3e 4a 29 0e 3c 5d 27 4e 3e
       0.17611666 0.25091115 0.008676836 0.20132203
000050 c5 19 82 3e 6d 6c 14 be 99 fe 06 3e bc 63 86 3e
       0.25410286 -0.14494486 0.13183059 0.26247966
000060 7a 9a a9 bd 05 74 49 bd e4 1b 8b 3e a9 8a 9c 3e
       -0.08281417 -0.04918291 0.27169716 0.3057454
000070 54 6a 83 3e 56 8c 74 3e 0e 89 82 3e 20 2c d9 3e
       0.2566706 0.23881659 0.2549519 0.42416477
000080 b5 4d 72 3e 6d ae bc 3e 2d 9f a8 3e 8d ed c6 bd
       0.23662455 0.36851826 0.3293394 -0.09713278
000090 5c ae 03 bd 5a c7 d7 3e 2b e5 e0 3e 5a dc 88 be
       -0.032148704 0.4214428 0.4392484 -0.26730615
0000a0 33 4f aa 3e eb 53 96 3e be 1c c3 3e 33 c4 df bd
       0.3326355 0.293609 0.38107866 -0.10926094
0000b0 36 9b de 3e 64 45 8d 3e 78 94 24 3e d0 45 36 3e
       0.43477792 0.27592003 0.16072261 0.17800069
0000c0 d4 6a 97 3e d7 6b d3 3d 82 b0 cc 3e 25 8e 3b 3e
       0.2957369 0.10323303 0.39978415 0.18315943
0000d0 a6 b5 a4 3e 3a e7 66 3e 99 85 86 3e 47 e1 18 be
       0.32169837 0.22549143 0.26273802 -0.14929686
0000e0 d6 71 a1 3e ed 51 68 3e db 56 b7 bd 57 b6 56 3e
       0.31532162 0.22687502 -0.08952113 0.20967995
0000f0 7a 1c 3c 3f 04 c1 99 bd 08 48 67 3e 63 fc 9b 3e
       0.7348095 -0.07507518 0.22586071 0.30465993
000100 6b a6 75 be b8 6a ae 3e 75 7d 7b 3e 47 57 bc 3e
       -0.23989265 0.34065795 0.24559577 0.36785337
000110 74 37 96 be 01 f7 1c 3f c6 9f 9b 3e 30 62 ce 3e
       -0.29339182 0.613144 0.30395335 0.40309286
000120 95 cc 0d 3f c0 c2 a5 3e 82 80 18 3f 80 8e 95 3e
       0.5539029 0.32375145 0.5957109 0.2921028
000130 61 b9 33 3e 3d 7a 23 3e ed d6 8e 3e 5f 0c fa 3d
       0.17551185 0.15964599 0.2789835 0.12209391
000140 73 b1 3c 3f 7b 41 9e 3e 0e 10 b7 3e fc 91 35 3e
       0.73708266 0.30909333 0.35754436 0.1773147
000150 a4 9c 67 3e 28 f2 4f 3e 46 56 a8 3e 92 27 a6 3e
       0.22618347 0.20307219 0.3287832 0.32452065
000160 69 f0 27 3f 7b 1c 21 3e 37 6c 69 bd 71 bc 30 3f
       0.6560121 0.1573352 -0.056987967 0.6903754
000170 6c e6 2e 3e d0 4a a0 be bb 11 99 3e 69 ff 8f 3e
       0.17080086 -0.31307077 0.2989634 0.2812455
000180 51 ef 8f 3e 0b 1b d8 3e 16 64 aa 3e 82 ea 85 3e
       0.2811227 0.42208132 0.33279485 0.26155478
000190 04 eb a4 3e 8e 93 56 3e 07 ca 9c 3e 90 f3 81 3e
       0.32210553 0.20954725 0.30622885 0.25381136
0001a0 4d e2 b5 3e cd 03 bb 3e 7a 2c dd 3e 50 bd a6 be
       0.35524216 0.36526337 0.43197995 -0.3256631
0001b0 c2 91 2b 3f 12 1f 08 3f 52 2e 12 3f cd 77 ea 3d
       0.67019284 0.5317241 0.5710193 0.114486314
0001c0 15 3b 92 3e 94 4d 95 be 01 42 41 bd 70 08 04 3f
       0.285607 -0.2916075 -0.047182087 0.51575375
0001d0 3a 7e 7f 3e ec 81 98 3e 8d ab 47 be 43 02 67 3e
       0.24950495 0.29786623 -0.19499035 0.22559457
0001e0 1e 77 dc 3e 31 60 8f 3e 85 78 90 be 98 70 de 3d
       0.4305963 0.28003076 -0.2821695 0.10861319
0001f0 07 48 92 3e 01 2e b1 3e cc 11 3c 3e b9 fb c5 3c
       0.28570578 0.3460541 0.18366164 0.024167882
000200 a0 b8 d4 3e 45 be e7 bd 52 4d 3e be c2 66 fb 3e
       0.41547108 -0.11315588 -0.18584183 0.49101835
000210 89 5a 39 3f 45 6e 70 3e 77 bb 03 3e 63 6d 79 be
       0.7240377 0.23479564 0.12864481 -0.24358134
000220 fe 0a 86 3e d4 d5 fa 3e 5b 1f 66 3d 09 90 a6 3e
       0.2618026 0.48991263 0.056182247 0.32531765
000230 1d 1c 59 bd a9 92 00 bf bd 41 7e be 8e 99 dc 3d
       -0.053005327 -0.50223786 -0.24829765 0.10771476
000240 2a 99 95 3e 59 a4 a4 3e db bb 47 3e 2d 1e a0 3e
       0.29218417 0.32156637 0.19505255 0.31273022
000250 4a 56 15 3e d3 0f 89 3e 3b 50 71 3d ed 63 32 be
       0.14583698 0.26769885 0.058914404 -0.17420931
000260 92 d3 22 3e 15 18 90 3e 2f 82 23 3e 48 2d 5d 3e
       0.1590102 0.28143373 0.1596763 0.21599305
000270 e2 e5 d2 3e 31 65 79 be 38 6a 82 3e 5c 5a 8a 3e
       0.41191012 -0.24355008 0.25471663 0.27022064
000280 4d d9 fa 3e 12 fa 80 3e 58 ad 14 3f f4 c6 4c 3e
       0.48993912 0.25190789 0.58077 0.1999777
000290 fc 11 d3 be 49 90 cc 3e 4f b4 84 3e 96 9d 8d 3e
       -0.41224658 0.3995383 0.25918815 0.2765929
0002a0 68 45 3e 3f c2 20 60 3e 0b 77 16 3e 19 d1 d2 3e
       0.74324656 0.21887496 0.14693849 0.41175154
0002b0 ef 9b 59 be dc 02 81 3e 89 70 37 be f7 17 20 3e
       -0.2125089 0.25197494 -0.17914023 0.15634142
0002c0 51 fe 77 3e 25 e7 b2 bd e4 1a 30 3f e9 d0 f7 bd
       0.24218108 -0.087354936 0.6879103 -0.12100393
0002d0 25 c7 3a 3e 10 56 3c 3d a3 15 98 3e 7d 81 45 3e
       0.1824003 0.045980513 0.29704008 0.19287677
0002e0 83 37 3d 3e ff 54 69 3e cd 8a 25 3e ca 5d 3e 3e
       0.18478207 0.2278633 0.1616623 0.18590465
0002f0 e0 52 8f 3e 37 45 5b 3e 09 19 55 3e 30 98 96 3d
       0.27992916 0.21413122 0.20810331 0.07353246
000300 f3 3b a7 3e 73 d3 7a 3e 4e 08 a3 3e e5 99 8f 3e
       0.32662925 0.24494724 0.31842273 0.280471
000310 95 0e d3 3e 3e 1c b0 3e 84 b9 4f bd 38 e6 18 be
       0.41222063 0.34396547 -0.05071403 -0.14931571
000320 54 2a 9a be 2d 3d 87 be fe 95 2c be 7d ba ba bc
       -0.3011042 -0.2641386 -0.16854092 -0.022794003
000330 00 9f 90 3e 49 69 8e 3e 93 65 8c 3e 81 4c 98 bd
       0.28246307 0.278147 0.27421245 -0.07436467
000340 27 28 4b be cb 0e 27 3e b5 93 2c be fe 4d 7b 3f
       -0.19839536 0.16314237 -0.16853221 0.9816588
000350 ed a3 68 bd cd a8 db 3e f0 86 89 be 3b 57 f5 3e
       -0.056796957 0.42902222 -0.26860762 0.47918114
000360 47 f6 43 bd 95 aa 03 3e 79 e0 a1 3e 29 48 a4 3e
       -0.04784229 0.1285804 0.31616572 0.32086304
000370 82 1b b4 3e 01 ec 26 3f c5 98 c3 3e f6 80 92 be
       0.35177237 0.65203863 0.3820249 -0.28614014
000380 4c 0f 2f 3e f5 7f 5f 3e 8a 1e 63 3e 4b 53 3f 3f
       0.17095679 0.21826155 0.22179618 0.7473647
000390 da 34 a9 3e 7f b7 a9 3e 1b 44 05 3f 96 83 01 3f
       0.33048135 0.3314781 0.52057046 0.5059141
0003a0 0e e4 a7 3e 82 d9 c8 3e fe 8c a5 3e ac 23 2b be
       0.3279118 0.39228445 0.3233413 -0.16712826
0003b0 63 ec d0 3e 12 5e 2e 3e fe d2 dd 3e 03 36 3a 3e
       0.4080535 0.17028072 0.43325037 0.18184666
0003c0 5e e9 d8 bd 27 72 44 3e a7 3f 5e be 7e 00 e7 bd
       -0.10591386 0.1918417 -0.21703969 -0.11279391
0003d0 59 85 e5 3e 78 49 b6 bd 37 8d 20 3e cb ad 49 3f
       0.448283 -0.08900732 0.15678869 0.7878081
0003e0 9d 5f 93 3e 64 51 2c 3e 46 ec fe 3e a9 fe 90 be
       0.28783885 0.16827923 0.49789637 -0.2831929
0003f0 11 b8 47 3f 03 44 2f 3e ac f3 cc 3e b9 b3 8c 3e
       0.7801524 0.17115788 0.40029657 0.27480868

proxy_b_raw.weight f4 [17671, 1]
000000 fc 96 82 be 4d 1b b9 be bd 7f 7d be ce ba dc be
       -0.25505817 -0.3615364 -0.2475576 -0.4311127
000010 20 90 43 be 86 ee 82 be f8 ce 34 be a2 8e ff bd
       -0.19097948 -0.25572604 -0.17657077 -0.12478377
000020 06 2d c9 be e3 c5 b0 be 55 67 01 bf c0 6f 80 be
       -0.39292163 -0.34525976 -0.505483 -0.25085258
000030 fe 2f 5f be 29 41 12 bf bc dd 60 be 2a cb d4 be
       -0.21795651 -0.57130677 -0.21959585 -0.41561252
000040 3f f7 86 be 2f 57 9a be c3 e5 83 be 0b ee ae be
       -0.2636051 -0.3014464 -0.25761232 -0.34165987
000050 93 d9 c6 be b2 ef 20 bd b3 de b7 be e1 56 a2 be
       -0.3883787 -0.03929109 -0.35912094 -0.31706908
000060 2c aa ae be 6f d9 47 be 54 1b a6 be a5 b1 9d be
       -0.34114206 -0.19516538 -0.32442725 -0.30799595
000070 00 3c ac be ef 90 95 be da 9c 6b be 47 21 b0 be
       -0.33639526 -0.29212138 -0.23009053 -0.3440039
000080 9b ef 6f be 19 27 d0 be 0e f2 42 be e6 d6 a8 be
       -0.23431246 -0.4065483 -0.19037649 -0.32976454
000090 be da 26 be ac cd a6 be 84 aa 94 be ac 2b 9c be
       -0.16294381 -0.3257879 -0.29036343 -0.3050207
0000a0 8d b2 9a be 6e 40 97 be c4 7b c6 be cd 90 69 be
       -0.30214348 -0.29541343 -0.387663 -0.22809143
0000b0 cb 53 93 be cc da 6e be df cc 4d be 12 6a 76 be
       -0.28774866 -0.23325652 -0.20097683 -0.240639
0000c0 f3 ed 34 be 58 3d 84 be 66 af a7 be ab c9 7a be
       -0.17668895 -0.25828052 -0.32751006 -0.24490993
0000d0 8a 8a 92 be 4a 3f 77 be e5 a8 c8 be 9d 7c b8 be
       -0.28621322 -0.24145237 -0.39191356 -0.36032572
0000e0 14 0e 53 be 06 96 84 be 12 89 a6 be 39 44 51 be
       -0.20610839 -0.2589571 -0.3252645 -0.20436181
0000f0 6d 03 22 bf 38 65 75 be 9a bd 95 be 70 bc 55 be
       -0.6328648 -0.23964393 -0.29246217 -0.20872664
000100 c1 f7 74 be 0b 56 97 be 64 48 ac be 1f 72 94 be
       -0.23922636 -0.29557833 -0.3364898 -0.28993317
000110 c2 bf 80 be 1b 40 0b bf 40 0f a7 be 9d 4a b0 be
       -0.251463 -0.5439469 -0.32628822 -0.34431925
000120 01 d4 fd be e3 d0 9f be 72 b2 f4 be e4 71 91 be
       -0.4957581 -0.31214055 -0.47792393 -0.28407204
000130 da 2b 8c be f2 03 25 be d5 e8 9d be bd 17 9b be
       -0.27377206 -0.16114786 -0.308417 -0.30291548
000140 cc c7 21 bf 3d 3d ae be 1b 1e 85 be d5 55 9a be
       -0.6319549 -0.34031096 -0.2599953 -0.3014361
000150 a9 ee 97 be f3 c2 7f be 3c d3 91 be 53 25 bc be
       -0.2967427 -0.24976711 -0.28481472 -0.36747226
000160 61 89 0a bf 71 66 72 be a3 d9 2e be 96 c3 20 bf
       -0.54115874 -0.23671891 -0.1707521 -0.6279844
000170 66 fa 18 be 6f 80 c7 bd 02 d6 8d be ca c7 c2 be
       -0.1493927 -0.09741294 -0.27702338 -0.38043052
000180 2a 9b 8c be 24 6b b0 be 35 17 aa be d8 86 dd be
       -0.2746213 -0.34456742 -0.3322083 -0.4326694
000190 b4 6b a0 be 92 1e 41 be 2a af a6 be 6b ed b6 be
       -0.3133217 -0.18859318 -0.32555515 -0.3572801
0001a0 71 60 6c be 86 25 a5 be c6 93 c9 be 61 ac 9e be
       -0.23083664 -0.3225519 -0.39370555 -0.3099089
0001b0 b0 f0 1e bf 43 3e d3 be 4f 9a ff be 54 1e ea be
       -0.6208601 -0.4125844 -0.49922416 -0.45726264
0001c0 d7 fd 28 be 3c 0d 6b be e5 a9 45 be ee 45 05 bf
       -0.16503082 -0.22954267 -0.19303091 -0.5205983
0001d0 b4 40 75 be e9 37 94 be dc 7d a9 be de ed 79 be
       -0.23950464 -0.28948906 -0.33103836 -0.24407145
0001e0 aa 6d 17 bf 0c 08 30 be e3 51 82 be e5 dc 9a be
       -0.5915171 -0.1719057 -0.254531 -0.30246654
0001f0 c4 3c 9f be 6b 0d c0 be 66 51 68 bd 57 d6 8f be
       -0.31101048 -0.37510237 -0.056718253 -0.28093216
000200 76 ba f5 be d8 80 72 be 4f 1a 82 be 50 c3 d1 be
       -0.4799382 -0.23681962 -0.25410697 -0.40969324
000210 64 a6 1e bf cf 48 1a be 46 fc 98 be ad 40 a1 be
       -0.6197264 -0.15066837 -0.2987997 -0.31494656
000220 84 d5 a6 be a6 a0 da be 67 34 4e be be 09 70 be
       -0.32584774 -0.4270069 -0.20137177 -0.23441216
000230 f8 c3 ac be a3 79 87 be 61 16 dc be f4 24 b3 be
       -0.33743262 -0.2645999 -0.42985824 -0.3498913
000240 bc 00 e6 be 73 5f ba be 2f 8f 58 be ad a8 9a be
       -0.44922435 -0.36400947 -0.2114837 -0.30206814
000250 b5 bb 42 be fc 77 b8 be 63 d9 57 be ef ae 75 be
       -0.19016917 -0.3602904 -0.2107902 -0.23992513
000260 27 64 20 be 46 fd 24 be 40 d3 6a be 81 62 b2 be
       -0.15663205 -0.16112241 -0.22932148 -0.34840778
000270 0b 54 a3 be ce 5e ef be db 73 38 be 62 64 8f be
       -0.31900057 -0.46752018 -0.18012945 -0.28006274
000280 12 53 a3 be 35 87 90 be 9a 13 19 bf bb e1 a6 be
       -0.31899315 -0.28228155 -0.59795535 -0.32594094
000290 25 89 a6 be 72 2d 5b be f8 4f 69 be 2d b9 83 be
       -0.32526508 -0.21404055 -0.22784412 -0.25727215
0002a0 24 7d 23 bf 14 1f 99 be 23 41 24 be ba 72 bc be
       -0.63862824 -0.29906523 -0.16040473 -0.3680628
0002b0 f7 3d b2 be 31 90 89 be 6b a4 a2 be 55 00 bd be
       -0.348129 -0.26867822 -0.31766066 -0.36914316
0002c0 dd 8d 76 be 38 0e 8b be fe 88 b7 be 09 4f 9e be
       -0.24077554 -0.27159286 -0.35846704 -0.30919674
0002d0 69 2a 61 be ee 62 27 be b8 0c 1a be 86 c1 aa be
       -0.21988834 -0.16346332 -0.15043914 -0.33350772
0002e0 d3 3f a5 be fa 0c 9c be 94 a1 98 be 54 e5 8a be
       -0.32275257 -0.3047865 -0.29810774 -0.27128088
0002f0 4b 04 a0 be 7d d9 87 be 1e 4c d4 be 47 a6 7f be
       -0.31253275 -0.26533118 -0.41464323 -0.24965774
000300 9c 8a 6e be 19 32 8d be cc e3 df be 1c a8 8a be
       -0.23295063 -0.27577284 -0.43728483 -0.27081382
000310 1e 42 a0 be d4 68 c3 be ce 97 db be d6 74 86 be
       -0.31300443 -0.38165915 -0.42889255 -0.26261014
000320 a1 fb ba be 3c 8a 74 be c1 aa 82 be 8e f5 a8 be
       -0.36520103 -0.23880857 -0.255209 -0.32999843
000330 e9 e7 80 be 35 35 8e be 55 9d 6b be b6 b7 79 be
       -0.25176933 -0.2777497 -0.23009236 -0.24386486
000340 56 5b 9f be b5 21 97 be 91 10 d5 be df 8d 51 bf
       -0.3112437 -0.29517904 -0.41614202 -0.81857103
000350 b3 70 8e be 09 aa e6 be da 1e 43 be e8 c2 d5 be
       -0.27820358 -0.45051602 -0.19054738 -0.41750264
000360 95 9b 6c be b5 dd 44 be a1 6a 8b be be 6e 9c be
       -0.23106225 -0.192252 -0.2722979 -0.3055324
000370 f8 7d b8 be e6 3b 1c bf bc a9 a4 be c2 db 27 be
       -0.36033607 -0.610289 -0.32160747 -0.16392425
000380 dd 37 95 be 0f 3c 95 be f7 80 98 bd 55 7f 31 bf
       -0.29144183 -0.29147384 -0.07446473 -0.6933492
000390 80 7c 89 be c4 bd 93 be fc dc f6 be 9d 79 ac be
       -0.26852798 -0.28855717 -0.48215473 -0.33686534
0003a0 54 51 b4 be 0e 35 a4 be d2 fc d1 be 36 ac b4 be
       -0.35218298 -0.32071728 -0.410132 -0.35287637
0003b0 2c 50 8e be 51 e2 8d be 94 88 9c be c6 99 59 be
       -0.2779554 -0.27711728 -0.3057295 -0.21250066
0003c0 99 fd bc be 9f 90 89 be 54 74 f7 be 8d e2 20 be
       -0.3691223 -0.2686815 -0.4833094 -0.15711422
0003d0 a5 60 7e be 5c d6 64 be a8 36 97 be 10 dc 31 bf
       -0.24841554 -0.22347397 -0.29533887 -0.69476414
0003e0 9b 31 b0 be f0 f4 00 bf fb ad e4 be 4a e5 62 be
       -0.34412846 -0.50373745 -0.44663987 -0.2215778
0003f0 93 d2 30 bf 83 73 92 be 6c 54 8c be 4a 6a a2 be
       -0.6907131 -0.28603753 -0.2740816 -0.31721717

proxy_theta_raw.weight f4 [2493, 1]
000000 b7 ef fe 3f 25 65 94 3f b1 69 ae 3f 57 d4 bb 3f
       1.9916905 1.1593367 1.3626004 1.4674176
000010 7d 21 8c 3f 67 2b e5 3f 20 09 09 40 5b 42 f2 3f
       1.094772 1.790387 2.141182 1.89265
000020 5a cb e4 3f d8 10 f9 3f b3 e8 b0 3f a4 b7 fa 3f
       1.7874558 1.9458265 1.3821014 1.9587293
000030 cf f0 de 3f 5c 8c 80 3f 0c 8d 8c 3f de 1e d5 3f
       1.7417239 1.0042834 1.0980544 1.6650045
000040 12 e3 25 3f db dc 0a 3f 95 62 96 3f db 55 2e 3f
       0.64799607 0.5424325 1.1748835 0.68099755
000050 c8 31 d7 3e 91 da 37 3f e2 50 19 3f c0 ec 0c 3f
       0.42030168 0.7181788 0.5988904 0.5504875
000060 35 49 53 3f 24 b9 45 3f 71 44 15 3f 7c 35 84 3f
       0.8253358 0.7723563 0.5830756 1.0328822
000070 67 4f 45 3f a3 64 34 3f 2e 3c 09 3f a1 e4 6a 3f
       0.77074283 0.7046606 0.5360745 0.9175511
000080 be 20 90 3f eb b2 f8 3e 26 e9 f3 3f dc 4f b4 3f
       1.1259992 0.48574004 1.9055526 1.4086871
000090 af dc d7 3f 90 9d ca 3f 0e 8d 2f 3f b0 ba 15 40
       1.6864222 1.5829334 0.6857461 2.3395195
0000a0 4e 5a 86 3f 77 41 81 3f 01 cb 71 3f 9f 44 09 40
       1.0496309 1.0098103 0.94450384 2.1448133
0000b0 35 fa f7 3f 1c d1 f1 3f d9 f1 f0 3f 9e c1 14 40
       1.9373232 1.889194 1.8823806 2.3243175
0000c0 53 62 ec 3f b2 cf df 3f 61 d2 52 3f a7 2b ce 3f
       1.8467506 1.7485259 0.8235226 1.6107072
0000d0 a9 ac de 3f 37 3b eb 3f 9d 48 dc 3f a0 19 d7 3f
       1.7396442 1.8377446 1.720966 1.6804695
0000e0 a8 7f e9 3f 3b 91 e1 3f b2 a6 dd 3f aa cd e7 3f
       1.8242083 1.7622446 1.7316496 1.8109639
0000f0 3d 4c d4 3f 96 ca df 3f 47 cb e7 3f d6 3d f7 3f
       1.6585766 1.7483699 1.810891 1.9315746
000100 89 4a f8 3f 23 dd ef 3f 98 e5 ef 3f 2e 39 f3 3f
       1.9397746 1.873936 1.8741941 1.9001825
000110 26 cf c4 3f 6c 7f d2 3f ba b8 e2 3f 79 e3 ec 3f
       1.5375717 1.6445136 1.7712624 1.8506919
000120 8f dc e1 3f ed 72 05 40 ef 1b c8 3f de 90 d4 3f
       1.7645434 2.0851395 1.5633525 1.660671
000130 b3 57 d1 3f 6a a7 e0 3f 0f ac f1 3f d5 df 04 40
       1.6354889 1.7551091 1.8880633 2.0761616
000140 5e 85 f7 3f 5c b0 00 40 f6 5b e6 3f ff 88 d5 3f
       1.9337575 2.0107641 1.7996814 1.6682433
000150 72 60 d6 3f f0 c1 eb 3f bb b4 dd 3f 43 c8 9f 3f
       1.6748183 1.841856 1.732078 1.248299
000160 da 3d fe 3f 8c 5e e5 3f f7 70 fb 3f 7d 1b f0 3f
       1.9862626 1.7919478 1.9643849 1.8758389
000170 f7 96 f2 3f 42 2a e8 3f e5 de e4 3f 97 07 fa 3f
       1.8952321 1.8137896 1.7880522 1.9533566
000180 8f 67 ec 3f 95 14 d2 3f ad e7 fc 3f 19 79 a7 3f
       1.8469104 1.6412531 1.9758202 1.3083831
000190 c5 a8 f4 3f df 55 ff 3f a8 91 e8 3f e9 a4 fc 3f
       1.9114004 1.9948081 1.8169451 1.9737827
0001a0 11 0b 03 40 04 95 f6 3f d8 9a d6 3f 7b 39 d5 3f
       2.0475504 1.9264226 1.6766005 1.6658167
0001b0 bb f3 ed 3f d4 6c e4 3f ce 8c 02 40 f1 10 f6 3f
       1.8590006 1.7845712 2.039844 1.922392
0001c0 bb 24 e4 3f a9 67 01 40 92 fb df 3f 31 7f dc 3f
       1.7823709 2.021952 1.7498648 1.7226316
0001d0 d9 93 e3 3f 3a 46 df 3f 3b 17 ea 3f bf 68 e9 3f
       1.7779495 1.7443306 1.8288339 1.8235091
0001e0 c4 27 f6 3f eb d6 d2 3f 08 5a ee 3f 4a 6a ee 3f
       1.9230886 1.6471838 1.8621225 1.8626187
0001f0 61 d8 e8 3f 18 00 db 3f e8 23 e7 3f 65 6d dd 3f
       1.8191034 1.7109404 1.8057833 1.729901
000200 22 3f d0 3f 21 46 e8 3f 50 12 e5 3f 10 30 ce 3f
       1.6269267 1.8146402 1.7896214 1.6108418
000210 bc 77 d5 3f 0c b8 df 3f ce 77 e9 3f 26 aa ce 3f
       1.6677165 1.7478042 1.8239686 1.6145675
000220 69 20 ea 3f 77 67 81 3f 53 fd 81 3f 17 f1 8c 3f
       1.8291141 1.01097 1.0155433 1.1011075
000230 c2 64 72 3f 1a 40 ca 3f 3c b0 57 3f 28 15 29 3f
       0.94684994 1.5800812 0.8425329 0.66047907
000240 7f d4 8d 3f 3c 08 53 3f b3 10 6f 3f ab b1 3b 3f
       1.1080474 0.8243444 0.93384856 0.73317975
000250 a8 57 56 3f b5 63 79 3f e1 30 95 3f 61 39 76 3f
       0.837275 0.97417766 1.1655542 0.96181303
000260 15 6c 8c 3f 0b e2 8c 3f 20 8b 8e 3f ee ed 9e 3f
       1.0970484 1.1006483 1.1136208 1.241636
000270 03 07 9f 3f 87 f4 a4 3f 52 40 94 3f 00 1f 89 3f
       1.2424015 1.2887124 1.1582129 1.0712585
000280 34 a4 9c 3f ee a0 8c 3f ad 0b 8b 3f 0b b7 87 3f
       1.2237611 1.0986612 1.0862938 1.0602735
000290 67 bb a2 3f 86 6f 81 3f d1 35 9d 3f 94 f4 7e 3f
       1.2713441 1.0112159 1.2282048 0.99591947
0002a0 8b 77 8c 3f 7c ac 9e 3f 1e 7c 58 3f 0a dc 8f 3f
       1.0973982 1.2396388 0.8456439 1.1239026
0002b0 8b 3c a9 3f a8 29 89 3f d8 10 9d 3f ce 09 80 3f
       1.3221601 1.0715837 1.2270765 1.0002992
0002c0 4b 72 92 3f 2d 57 aa 3f 41 3f 97 3f 40 73 66 3f
       1.144113 1.3307854 1.1816179 0.9001961
0002d0 0f f8 26 3f 1b 64 38 3f b3 fb 74 3f 51 ef 0c 3f
       0.6522226 0.7202775 0.9569656 0.5505267
0002e0 5a 84 e2 3e ad 66 19 3f 2d 45 09 3f c7 d2 82 3f
       0.442416 0.59922296 0.5362118 1.0220574
0002f0 c6 27 2c 3f 14 31 77 3f 1c a6 85 3f 49 50 81 3f
       0.6724819 0.9655926 1.0441318 1.0102626
000300 c2 62 33 3f 17 2c 8d 3f f3 8e 43 3f 7e 48 1c 3f
       0.7007257 1.102908 0.7639 0.61048114
000310 66 f8 93 3f 0a ae 88 3f 43 b9 1d 3f de df 25 3f
       1.156018 1.0678113 0.6161081 0.6479472
000320 19 38 34 3f 83 99 1c 3f ae 42 16 3f ed cd 07 40
       0.703981 0.6117174 0.58695495 2.1219437
000330 ed cd 1f 3f 38 1c 11 3f 0f 7f 2d 3f 78 da 4b 3f
       0.6242359 0.56683683 0.67772 0.7963023
000340 8e c1 ec 3e f4 89 28 3f a7 9e 9e 3f 84 20 68 3f
       0.4624142 0.658355 1.2392167 0.90674615
000350 52 95 f7 3e f2 6a 39 3f 34 a4 af 3f 6b 79 53 3f
       0.4835611 0.7242881 1.3721986 0.82607144
000360 cd fe 0e 3f 4b 0d 41 3f cb 40 79 3f c3 e4 9a 3f
       0.55857545 0.7541091 0.9736449 1.2101063
000370 3c b2 07 3f 66 7e 64 3f 52 1c 73 3f 81 66 22 3f
       0.5300634 0.8925537 0.9496509 0.6343766
000380 04 70 0e 3f 25 7d 0e 3f c6 ad 1e 3f e4 05 12 3f
       0.5563967 0.55659705 0.6198391 0.5704024
000390 4c 38 2a 3f 6e 93 0c 3f f6 92 24 3f 80 b6 1b 3f
       0.6649215 0.5491246 0.64286745 0.6082535
0003a0 df 67 34 3f 54 1f 99 3f e1 c8 96 3f 32 e0 17 3f
       0.70470995 1.1962686 1.1780053 0.5932647
0003b0 c7 cd 29 3f d0 f9 6f 3f d4 66 95 3f 0a da 5d 3f
       0.66329616 0.9374056 1.1672006 0.86660826
0003c0 6e 1c 4a 3f 64 2f 93 3f 99 3a 48 3f 09 84 01 3f
       0.7894963 1.1498837 0.7821441 0.50592095
0003d0 ee 6a 06 3f 3a 4a 3d 3f 03 5b 5f 3f 54 d3 6d 3f
       0.5250691 0.73941386 0.8724825 0.92900586
0003e0 11 cc 5c 3f 4d 4f 03 3f ed b6 92 3f dc 34 64 3f
       0.8624888 0.5129288 1.1462075 0.89143157
0003f0 ba 78 a1 3f 0a 55 63 3f ca 53 4c 3f ca 68 8d 3f
       1.2614968 0.88801634 0.7981535 1.1047604
