GIRT/checkpoint/girt2pl-assist0910-random-split/checkpoint-epoch-2.pt (torch, 153924 bytes, 3 tensors)

proxy_a_raw.weight f4 [17671, 1]
-0.032776617 0.08097143 -0.10471752 0.008239351 -0.050489288 0.056290634 0.04876219 0.025554515
0.20043358 0.12657379 0.33470365 0.04658788 0.062177822 0.2904277 -0.043060128 0.094390705
0.058788218 0.07320926 0.0111339195 0.05321347 0.07271565 -0.044762053 0.04655062 0.077332065
-0.0282943 -0.018087436 0.09276581 0.07556829 0.061044235 0.053448126 0.052715734 0.10469172
0.1294868 0.09439082 0.15906252 -0.04822181 -0.047837965 0.23712015 0.1134977 -0.048898436
0.08686541 0.095546134 0.077871375 -0.061642125 0.05546766 0.039172277 0.0405584 0.07419406
0.11215862 0.0039630723 0.10267673 0.056211494 0.13574758 0.054074567 0.078524694 -0.033388115
0.066362426 0.06453449 -0.027814552 0.075321235 0.3028624 -0.03830215 0.065467566 0.050606605
-0.09341529 0.13293384 0.06763932 0.07752842 -0.09713584 0.20638543 0.06816172 0.086139426
0.17683108 0.0669204 0.19522303 0.08438192 0.036741164 -0.0011987844 0.06504083 0.02535769
0.27915946 0.20054154 0.08058786 0.048743777 0.043973725 0.057099905 0.101227336 0.07570113
0.31223214 0.037905205 -0.018948069 0.1683904 0.06906786 -0.07118055 0.009220635 0.136689
0.035223357 0.06429491 0.047289725 0.0652556 0.06946197 0.058878683 0.05707954 0.098643325
0.19707942 0.10709321 0.11251758 -0.04961387 0.17260133 0.14965448 0.1879977 0.080341615
0.12852328 -0.10114687 -0.024675095 0.11696699 0.07776584 0.08369979 -0.05723023 0.052485894
0.10872082 0.037963305 -0.036196094 0.012419743 0.050168965 0.09635093 0.07992919 0.010333299
0.07455863 -0.017206961 -0.037414752 0.12482648 0.45312157 0.071665674 0.04068969 -0.053422537
0.050887313 0.14658675 0.026989944 0.038675737 -0.05467159 -0.08591115 -0.043294095 0.019205997
-0.02081837 0.2161502 0.032247335 0.045750763 0.062155385 0.076657206 0.011638036 -0.078121565
0.039839655 0.031081935 0.03355686 0.027943645 0.11141689 -0.0656381 0.069171086 0.09332116
0.19397318 0.034642942 0.12696783 0.035032645 -0.0717031 0.06035793 0.06039885 0.106406316
0.28204983 0.057489775 0.018050658 0.1275889 -0.046868287 0.050212327 -0.034743186 0.017814798
0.0746991 -0.026458584 0.15654247 -0.059779707 0.0336852 0.035881918 0.10429171 0.11130849
0.020026622 0.04568559 0.03642979 0.04809657 0.1625293 0.0612978 0.09424337 -0.04953791
0.06056582 0.11862854 0.16658506 0.091755785 0.07981173 0.08797911 -0.048655715 -0.031472493
-0.07412858 -0.036231417 -0.03579512 0.001949316 0.039006963 0.057705022 0.08997193 -0.032503806
-0.0688488 0.06867628 0.013494088 0.25869402 -0.057457794 0.08839009 -0.07170858 0.09963705
-0.031415913 0.06610174 0.06873365 0.0527468 0.12693648 0.14848553 0.16237618 -0.083350874
0.0027186978 0.049307823 0.08048374 0.14931032 0.10521813 0.059083536 0.20014194 0.11540566
0.08442897 0.128478 0.06347311 -0.040660147 0.07992843 0.03598385 0.113495894 0.06381625
-0.030515755 0.055537447 -0.082893446 -0.038730267 0.11549688 -0.056432273 0.04001154 0.20282984
0.059211798 -0.03712607 0.106182896 -0.065978356 0.23639357 0.026078798 0.07906156 0.05946223
00000000: c640 06bd 59d4 a53d 2476 d6bd 58fe 063c
00000010: dbcd 4ebd 0291 663d ddba 473d b457 d13c
00000020: 763e 4d3e 8f9c 013e 475e ab3e efd2 3e3d
00000030: 2cae 7e3d f1b2 943e d15f 30bd ea4f c13d
00000040: eacb 703d bdee 953d 0b6b 363c 5ef6 593d
00000050: f1eb 943d 6a58 37bd ddab 3e3d 4660 9e3d
00000060: 73c9 e7bc 1a2c 94bc 00fc bd3d 8cc3 9a3d
00000070: 8509 7a3d 6cec 5a3d 74ec 573d 9d68 d63d
00000080: 3098 043e f94f c13d 49e1 223e 3c84 45bd
00000090: bef1 43bd a0cf 723e 7b71 e83d ba49 48bd
000000a0: 7ee6 b13d b1ad c33d 077b 9f3d 747c 7cbd
000000b0: 0f32 633d 1c73 203d 9120 263d 0ef3 973d
000000c0: 6bb3 e53d a9dc 813b 2d48 d23d 063e 663d
000000d0: 6a01 0b3e 4b7d 5d3d 8ed1 a03d fac1 08bd
000000e0: 06e9 873d a92a 843d 58db e3bc 0542 9a3d
000000f0: c810 9b3e b7e2 1cbd dc13 863d df48 4f3d
00000100: 8450 bfbd cf1f 083e 7c86 8a3d 38c7 9e3d
00000110: 28ef c6bd b456 533e 5f98 8b3d de69 b03d
00000120: 3513 353e 900d 893d 8ce8 473e 6ed0 ac3d
00000130: e77d 163d 8820 9dba 2034 853d eeba cf3c
00000140: fded 8e3e c35a 4d3e 3f0b a53d 8ea7 473d
00000150: cb1d 343d 97e1 693d 4750 cf3d 3209 9b3d
00000160: e4dc 9f3e 7d42 1b3d fb38 9bbc 886e 2c3e
00000170: 7373 8d3d 1cc7 91bd 2512 173c 34f8 0b3e
00000180: 5e46 103d 0dad 833d dfb2 413d baa4 853d
00000190: 1442 8e3d c62a 713d 3ccc 693d 8305 ca3d
000001a0: 30cf 493e af53 db3d 9e6f e63d ea37 4bbd
000001b0: 67be 303e 063f 193e 7882 403e 258a a43d
000001c0: 9b9b 033e 1726 cfbd 6d23 cabc 648c ef3d
000001d0: b243 9f3d cc6a ab3d 3f6a 6abd 73fb 563d
000001e0: 05a9 de3d 697f 1b3d 5b42 14bd 2e7c 4b3c
000001f0: f97d 4d3d a353 c53d eab1 a33d ff4c 293c
00000200: 32b2 983d 9df5 8cbc 3640 19bd 07a5 ff3d
00000210: 8dff e73e 74c5 923d 3baa 263d 97d1 5abd
00000220: 376f 503d d61a 163e 041a dd3c 736a 1e3d
00000230: 51ef 5fbd 2ff2 afbd 2655 31bd e555 9d3c
00000240: 498b aabc 7a56 5d3e c815 043d 2765 3b3d
00000250: a596 7e3d 74fe 9c3d 76ad 3e3c 33fe 9fbd
00000260: e82e 233d 8b9f fe3c eb72 093d 12ea e43c
00000270: 8a2e e43d 456d 86bd 92a9 8d3d 2a1f bf3d
00000280: e8a0 463e c2e5 0d3d db03 023e 647e 0f3d
00000290: 13d9 92bd e039 773d c964 773d 8eeb d93d
000002a0: d668 903e 667a 6b3d f9de 933c aaa6 023e
000002b0: f6f8 3fbd 71ab 4d3d df4e 0ebd 57f0 913c
000002c0: d7fb 983d acbf d8bc ab4c 203e 91db 74bd
000002d0: 7ef9 093d ebf8 123d e496 d53d b5f5 e33d
000002e0: df0e a43c d020 3b3d 6737 153d e900 453d
000002f0: 156e 263e 6713 7b3d ab02 c13d 43e8 4abd
00000300: de13 783d 85f3 f23d 4695 2a3e 75ea bb3d
00000310: 5574 a33d 642e b43d 374b 47bd 4de9 00bd
00000320: bad0 97bd 6567 14bd e79d 12bd 3180 ff3a
00000330: c4c5 1f3d 1a5c 6c3d 3443 b83d b622 05bd
00000340: 9a00 8dbd 26a6 8c3d 4f16 5d3c 8b73 843e
00000350: dd58 6bbd dd05 b53d f3db 92bd 820e cc3d
00000360: f9ad 00bd 5960 873d 3ac4 8c3d 070d 583d
00000370: a3fb 013e 970c 183e f145 263e ddb3 aabd
00000380: 2e2c 323b 00f7 493d a9d4 a43d cee4 183e
00000390: 9a7c d73d 9401 723d 02f2 4c3e cd59 ec3d
000003a0: 19e9 ac3d bd8f 033e 31fe 813d 418b 26bd
000003b0: 84b1 a33d cd63 133d 8970 e83d 18b2 823d
000003c0: 2dfc f9bc 3c7b 633d 0ac4 a9bd a1a3 1ebd
000003d0: a189 ec3d 8725 67bd 24e3 233d a0b2 4f3e
000003e0: 1288 723d 8211 18bd 6b76 d93d a91f 87bd
000003f0: 2811 723e 34a3 d53c 07eb a13d ab8e 733d

proxy_b_raw.weight f4 [17671, 1]
-0.124796584 -0.16471295 -0.17892157 -0.1560385 -0.12033523 -0.16659373 -0.14053002 -0.14705549
-0.30747482 -0.18471676 -0.47287884 -0.14380898 -0.120129116 -0.3928632 -0.15772116 -0.19466408
-0.17610641 -0.15766864 -0.18186046 -0.1503535 -0.18529914 -0.12217889 -0.15097636 -0.16218609
-0.13988961 -0.16380264 -0.16124816 -0.19828351 -0.17118962 -0.18451333 -0.12357357 -0.17204483
-0.23009838 -0.19466724 -0.21252875 -0.15889096 -0.1318756 -0.30619645 -0.20393908 -0.1385773
-0.18794596 -0.13709278 -0.1573749 -0.13877627 -0.1740975 -0.13586162 -0.11857784 -0.15464969
-0.14848574 -0.17707278 -0.22384277 -0.1549423 -0.19913214 -0.15142466 -0.15739168 -0.16713038
-0.17396225 -0.16082191 -0.13352722 -0.12438382 -0.40536416 -0.1567675 -0.20388947 -0.151062
-0.19195771 -0.21042404 -0.18010041 -0.14892027 -0.19628769 -0.30773404 -0.17046478 -0.15408777
-0.28428274 -0.13947998 -0.3295513 -0.19119462 -0.17798434 -0.11395139 -0.16636269 -0.13814303
-0.38174936 -0.3198883 -0.18136033 -0.23264225 -0.17177121 -0.16117531 -0.20840839 -0.18680367
-0.4140389 -0.15266334 -0.13170104 -0.2693058 -0.14728723 -0.15089186 -0.16511275 -0.19202235
-0.154385 -0.1395959 -0.19166116 -0.16627696 -0.1577168 -0.15437908 -0.16793877 -0.21231806
-0.22010453 -0.2163833 -0.1840196 -0.19399182 -0.273552 -0.20984657 -0.28941682 -0.16882363
-0.15450719 -0.17422125 -0.13888183 -0.217426 -0.15317489 -0.19875298 -0.16225678 -0.13706021
-0.23024674 -0.122095145 -0.1269794 -0.16303767 -0.12895206 -0.16023989 -0.13143434 -0.15096575
-0.17472292 -0.13073373 -0.13117313 -0.17198272 -0.55041945 -0.14635514 -0.23699646 -0.16027392
-0.14983438 -0.22877994 -0.12124007 -0.16220367 -0.15524319 -0.13497263 -0.16078275 -0.25610852
-0.16462152 -0.35421577 -0.14003544 -0.13149188 -0.13633616 -0.2234382 -0.12705566 -0.18359864
-0.13156399 -0.1241392 -0.13785565 -0.15266907 -0.17115174 -0.15437347 -0.12867182 -0.20613834
-0.26055786 -0.13669936 -0.2275103 -0.13712999 -0.15858085 -0.14032395 -0.17432046 -0.17932428
-0.38481113 -0.16106239 -0.13567571 -0.18431841 -0.1567548 -0.1587827 -0.1263302 -0.160813
-0.17884898 -0.21052803 -0.18724242 -0.15395048 -0.15993586 -0.13538766 -0.14436983 -0.22370411
-0.15803702 -0.19474842 -0.13584062 -0.14967307 -0.28932932 -0.15493834 -0.16688177 -0.1525876
-0.14088812 -0.20623787 -0.3867202 -0.18108952 -0.13964029 -0.17570335 -0.17082708 -0.13973567
-0.15478942 -0.13828391 -0.14264245 -0.14080803 -0.14249492 -0.15861036 -0.17353055 -0.13749161
-0.17592628 -0.15772639 -0.17104734 -0.36088076 -0.16964701 -0.1565097 -0.1601903 -0.16258158
-0.13686177 -0.16619992 -0.17083514 -0.13786118 -0.26720864 -0.24918883 -0.24900766 -0.18377998
-0.14276935 -0.15708183 -0.14984754 -0.2500595 -0.16773562 -0.13390365 -0.30073112 -0.16010271
-0.2099243 -0.25658053 -0.171429 -0.14778501 -0.16153789 -0.12658446 -0.20225021 -0.14997056
-0.15404324 -0.15056795 -0.16509171 -0.14641362 -0.14372376 -0.13689624 -0.14458467 -0.30426273
-0.15164542 -0.1820511 -0.20095861 -0.18594913 -0.33834785 -0.14296588 -0.13562211 -0.16759968
00000000: 5a95 ffbd 83aa 28be 3737 37be 8ec8 1fbe
00000010: 5172 f6bd 8c97 2abe 1ae7 0fbe b795 16be
00000020: 576d 9dbe 6426 3dbe 2d1d f2be a942 13be
00000030: 4106 f6bd 5e25 c9be a881 21be 0556 47be
00000040: 3d55 34be e373 21be a139 3abe 45f6 19be
00000050: 0fbf 3dbe ed38 fabd 8c99 1abe 1c14 26be
00000060: 393f 0fbe e1bb 27be 3d1e 25be d50a 4bbe
00000070: 554c 2fbe 10f1 3cbe 2414 fdbd 852c 30be
00000080: e99e 6bbe d956 47be 23a1 59be 50b4 22be
00000090: 660a 07be c8c5 9cbe 68d5 50be 35e7 0dbe
000000a0: e874 40be 0d62 0cbe e326 21be 5e1b 0ebe
000000b0: 9d46 32be 4f1f 0bbe f0d8 f2bd 7d5c 1ebe
000000c0: a50c 18be 9152 35be 0a37 65be 32a9 1ebe
000000d0: 4ce9 4bbe 110f 1bbe 492b 21be 3a24 2bbe
000000e0: 2923 32be 80ae 24be 5cbb 08be f2bc febd
000000f0: e48b cfbe a987 20be 67c8 50be ffaf 1abe
00000100: 9090 44be 6679 57be 3e6c 38be 8e7e 18be
00000110: a4ff 48be 518f 9dbe 528e 2ebe 2fc9 1dbe
00000120: 828d 91be d7d3 0ebe f3ba a8be 86c8 43be
00000130: 8741 36be 595f e9bd fb5a 2abe 5e75 0dbe
00000140: a774 c3be 66c8 a3be 86b6 39be c539 6ebe
00000150: cbe4 2fbe 240b 25be 0269 55be 7649 3fbe
00000160: e8fc d3be c753 1cbe a3dc 06be 73e2 89be
00000170: 77d2 16be 6583 1abe 5113 29be 82a1 44be
00000180: 1a17 1ebe 3af2 0ebe d342 44be 8244 2abe
00000190: 8380 21be 8d15 1ebe 24f8 2bbe e869 59be
000001a0: 1563 61be 9593 5dbe a26f 3cbe cba5 46be
000001b0: 020f 8cbe 05e2 56be 712e 94be 1ae0 2cbe
000001c0: 2237 1ebe 0e67 32be 0a37 0ebe eca4 5ebe
000001d0: e1d9 1cbe e785 4bbe a426 26be 8359 0cbe
000001e0: cdc5 6bbe 050d fabd e306 02be 59f3 26be
000001f0: 020c 04be ed15 24be b996 06be c496 1abe
00000200: 91ea 32be 10df 05be 4052 06be 3d1c 30be
00000210: 4ae8 0cbf 1fde 15be 33af 72be d91e 24be
00000220: 2f6e 19be 4a45 6abe b74c f8bd b818 26be
00000230: 12f8 1ebe 4436 0abe 3ca4 24be a820 83be
00000240: 8b92 28be c55b b5be 7365 0fbe cfa5 06be
00000250: b59b 0bbe fccc 64be e11a 02be 4801 3cbe
00000260: b6b8 06be b13c febd 082a 0dbe 4855 1cbe
00000270: 6742 2fbe 1414 1ebe 8cc2 03be ee15 53be
00000280: d767 85be ebfa 0bbe 76f8 68be ce6b 0cbe
00000290: 0563 22be 15b1 0fbe 1081 32be c9a0 37be
000002a0: f705 c5be 8aed 24be 93ee 0abe f7bd 3cbe
000002b0: 5584 20be ef97 22be b45c 01be 2aac 24be
000002c0: 3024 37be a994 57be 7abc 3fbe 32a5 1dbe
000002d0: 3ac6 23be 10a3 0abe afd5 13be b112 65be
000002e0: 75d4 21be 216c 47be ce19 0bbe e643 19be
000002f0: f922 94be 28a8 1ebe 0ee3 2abe ec3f 1cbe
00000300: fa44 10be 0530 53be 3100 c6be 886f 39be
00000310: ddfd 0ebe 94eb 33be 4bed 2ebe de16 0fbe
00000320: 1e81 1ebe 4c9a 0dbe dd10 12be fb2f 10be
00000330: 30ea 11be c16a 22be feb1 31be 9aca 0cbe
00000340: 0526 34be 0783 21be 0927 2fbe 5dc5 b8be
00000350: f2b7 2dbe 1444 20be ed08 24be c97b 26be
00000360: 7e25 0cbe 5030 2abe 68ef 2ebe 7b2b 0dbe
00000370: 92cf 88be 5b2b 7fbe ddfb 7ebe d230 3cbe
00000380: 2132 12be 0fda 20be a271 19be cc07 80be
00000390: e3c2 2bbe 0a1e 09be 6ef9 99be f7f1 23be
000003a0: 65f6 56be 865e 83be 158b 2fbe f454 17be
000003b0: 306a 25be 5b9f 01be ae1a 4fbe e291 19be
000003c0: 83bd 1dbe 7c2e 1abe cd0d 29be 74ed 15be
000003d0: 522c 13be 872e 0cbe 010e 14be 53c8 9bbe
000003e0: f048 1bbe 9b6b 3abe 18c8 4dbe 7369 3ebe
000003f0: ee3b adbe a665 12be 86e0 0abe 409f 2bbe

proxy_theta_raw.weight f4 [2493, 1]
0.47326994 0.30465344 0.35743475 0.36315942 0.30250973 0.40598717 0.49849263 0.4370717
0.38763916 0.45447 0.36306944 0.4510146 0.4149315 0.2985691 0.32810518 0.39996412
0.19362387 0.18691945 0.31702617 0.20537132 0.17373426 0.21590443 0.18418093 0.18698058
0.22228228 0.2249793 0.18064389 0.27094066 0.23166047 0.195921 0.17721944 0.28470722
0.30175775 0.1664455 0.4845715 0.38086623 0.4062301 0.38653377 0.21745779 0.5251379
0.28577095 0.284713 0.27150524 0.5016287 0.46095017 0.43511155 0.46805033 0.52729166
0.49215385 0.4376626 0.27415788 0.46182537 0.47100186 0.47581232 0.4428789 0.45503917
0.47948018 0.46324652 0.49070045 0.5248174 0.4433993 0.4966513 0.47922555 0.540712
0.53249484 0.49089798 0.5287324 0.48836643 0.42418712 0.43686795 0.4765925 0.47574687
0.49351797 0.54474705 0.4699496 0.45160052 0.45429528 0.5053193 0.5122868 0.58017707
0.54681313 0.5229631 0.46700904 0.45618394 0.46731585 0.48392302 0.4785261 0.3687721
0.5340469 0.49195492 0.53128314 0.49481213 0.48503134 0.49419177 0.54688513 0.5396226
0.50350434 0.46238324 0.53538597 0.37282962 0.49363923 0.51978284 0.49134713 0.5830939
0.55347717 0.5283761 0.4531965 0.48931366 0.50442445 0.5569445 0.5476437 0.58493996
0.47326303 0.52724236 0.47380126 0.45040336 0.4759795 0.47779104 0.4816826 0.47869197
0.52608705 0.4305808 0.4908281 0.5019753 0.4845095 0.47321287 0.47002947 0.46494955
0.42040592 0.46039274 0.45294878 0.44067585 0.4458382 0.45120198 0.48537153 0.44985473
0.4714878 0.28076476 0.30080825 0.30345505 0.2522498 0.44995937 0.25368384 0.19933751
0.2825392 0.2637447 0.26412496 0.2461934 0.22868347 0.25496143 0.29489487 0.30181122
0.28482482 0.2815013 0.286656 0.3005307 0.3049968 0.308155 0.2999347 0.2827076
0.3122669 0.29442483 0.3012535 0.27500463 0.29761103 0.26665774 0.30472344 0.2531389
0.27941552 0.30231443 0.2364887 0.2852092 0.30694437 0.3002203 0.32352725 0.27318546
0.30034286 0.31389973 0.30203515 0.25000572 0.20791888 0.20767574 0.24453448 0.18903024
0.17121975 0.19072442 0.16552427 0.28448454 0.23732956 0.2873501 0.28437626 0.25753108
0.21994747 0.30926296 0.2584127 0.20781738 0.31968766 0.30590314 0.1878144 0.21763048
0.21860439 0.21668215 0.21182074 0.4591612 0.19841824 0.1808487 0.19207087 0.21842855
0.17283602 0.23249613 0.28782395 0.24149372 0.1769733 0.21998315 0.35408014 0.24747375
0.19165036 0.25118482 0.27013475 0.34554198 0.18547137 0.2572231 0.26522964 0.19139671
0.171771 0.1827379 0.18658787 0.16924079 0.1886931 0.18346941 0.19086042 0.1917976
0.19652727 0.28856382 0.32910666 0.18500082 0.22257377 0.29858726 0.31294793 0.24276905
0.23492394 0.3077376 0.24811651 0.18600835 0.18934253 0.21442439 0.22964045 0.26897386
0.23589864 0.18758145 0.31857017 0.24622455 0.26509804 0.23727293 0.23214465 0.3148389
00000000: 7050 f23e 89fb 9b3e b001 b73e 08f0 b93e
00000010: 8ee2 9a3e 8ddd cf3e 6d3a ff3e ddc7 df3e
00000020: a478 c63e 4bb0 e83e 3de4 b93e 63eb e63e
00000030: e771 d43e 0dde 983e 67fd a73e 19c8 cc3e
00000040: 5645 463e d067 3f3e 4151 a23e dc4c 523e
00000050: 65e7 313e 0d16 5d3e ed99 3c3e d677 3f3e
00000060: f79d 633e f960 663e b6fa 383e bcb8 8a3e
00000070: 6738 6d3e 849f 483e 0379 353e 25c5 913e
00000080: fe7f 9a3e b070 2a3e c119 f83e e600 c33e
00000090: 64fd cf3e c1e7 c53e 41ad 5e3e 706f 063f
000000a0: 9250 923e e7c5 913e bc02 8b3e bd6a 003f
000000b0: a901 ec3e f1c6 de3e 4ba4 ef3e 96fc 063f
000000c0: 97fb fb3e 5015 e03e 6c5e 8c3e 6074 ec3e
000000d0: 2827 f13e ac9d f33e 06c1 e23e e5fa e83e
000000e0: 6d7e f53e a62e ed3e 173d fb3e 6f5a 063f
000000f0: 3c05 e33e 1449 fe3e 0d5d f53e 1a6c 0a3f
00000100: 9551 083f fb56 fb3e 025b 073f 2a0b fa3e
00000110: 0e2f d93e 28ad df3e ef03 f43e 1895 f33e
00000120: 63ae fc3e 8b74 0b3f 3c9d f03e 2f38 e73e
00000130: 6499 e83e 9b5c 013f 3a25 033f 7c86 143f
00000140: f2fb 0b3f e9e0 053f cf1b ef3e f190 e93e
00000150: 0644 ef3e c2c4 f73e 5f01 f53e b2cf bc3e
00000160: 4cb7 083f 84e1 fb3e 2c02 083f 0458 fd3e
00000170: 0756 f83e b406 fd3e aa00 0c3f b524 0a3f
00000180: a9e5 003f 7fbd ec3e 0e0f 093f 86e3 be3e
00000190: 48be fc3e 7d10 053f da91 fb3e a445 153f
000001a0: aeb0 0d3f a843 073f 5f09 e83e 5287 fa3e
000001b0: f621 013f ea93 0e3f 6132 0c3f a0be 153f
000001c0: 884f f23e 5bf9 063f 1496 f23e 459b e63e
000001d0: 96b3 f33e 07a1 f43e 1a9f f63e 1d17 f53e
000001e0: a4ad 063f 1675 dc3e d24d fb3e 7481 003f
000001f0: a111 f83e f548 f23e b4a7 f03e de0d ee3e
00000200: 723f d73e 99b8 eb3e e7e8 e73e 44a0 e13e
00000210: e844 e43e f203 e73e 9e82 f83e 5c53 e63e
00000220: d966 f13e 66c0 8f3e 8a03 9a3e 765e 9b3e
00000230: e326 813e 1361 e63e d9e2 813e 221f 4c3e
00000240: faa8 903e 8c09 873e 633b 873e 1f1a 7c3e
00000250: 002c 6a3e 4e8a 823e 76fc 963e 0087 9a3e
00000260: 8fd4 913e f020 903e 93c4 923e 29df 993e
00000270: 8a28 9c3e 7ec6 9d3e 0a91 993e 0dbf 903e
00000280: 72e1 9f3e dabe 963e e63d 9a3e 68cd 8c3e
00000290: 7960 983e 5d87 883e b604 9c3e 6c9b 813e
000002a0: 8d0f 8f3e f5c8 9a3e 182a 723e f106 923e
000002b0: d027 9d3e 7ab6 993e 5da5 a53e f7de 8b3e
000002c0: 8ac6 993e 77b7 a03e 5aa4 9a3e c000 803e
000002d0: b0e8 543e f3a8 543e 3f67 7a3e 2591 413e
000002e0: 3b54 2f3e 434d 433e 327f 293e f5a7 913e
000002f0: 8506 733e 8d1f 933e c499 913e 1ddb 833e
00000300: e939 613e b757 9e3e ab4e 843e 14ce 543e
00000310: 1aae a33e 569f 9c3e 6b52 403e 86da 5e3e
00000320: d4d9 5f3e ede1 5d3e 89e7 583e 2d17 eb3e
00000330: 272e 4b3e 6730 393e 3aae 443e bcab 5f3e
00000340: edfb 303e 7713 6e3e a95d 933e 214a 773e
00000350: 7d38 353e 4343 613e fe49 b53e c269 7d3e
00000360: fe3f 443e 4c9b 803e 1a4f 8a3e e1ea b03e
00000370: 35ec 3d3e bfb2 833e 2ecc 873e 80fd 433e
00000380: bde4 2f3e a51f 3b3e e410 3f3e 754d 2d3e
00000390: c438 413e 68df 3b3e ea70 433e 9766 443e
000003a0: 723e 493e a3be 933e ab80 a83e db70 3d3e
000003b0: 61ea 633e 6ee0 983e b63a a03e 7398 783e
000003c0: e78f 703e c88f 9d3e 4112 7e3e f978 3e3e
000003d0: 02e3 413e 1192 5b3e de26 6b3e f1b6 893e
000003e0: 6a8f 713e 5a15 403e a11b a33e 4a22 7c3e
000003f0: eeba 873e adf7 723e 54b7 6d3e 9032 a13e
