GIRT/checkpoint/girt2pl-assist0910-random-split/checkpoint-epoch-13.pt (torch, 153997 bytes, 3 tensors)

proxy_a_raw.weight f4 [17671, 1]
0	0xbe20df11	-0.15710093
1	0x3e6f3d72	0.23363283
2	0xbec1ceac	-0.3785299
3	0x3ec3fd33	0.38279113
4	0xbe642ce9	-0.22282757
5	0x3e42df1a	0.19030419
6	0x3e201e95	0.15636666
7	0x3dc4dfc3	0.09612992
8	0x3ef8a6ef	0.4856486
9	0x3eb23532	0.3480621
10	0x3f13113e	0.57448184
11	0x3e6ec7de	0.23318431
12	0x3e163b33	0.1467102
13	0x3f316c09	0.69305474
14	0x3ddc36bc	0.10752627
15	0x3ebd2bf4	0.36947596
16	0x3e2bdf8d	0.16784497
17	0x3e760cf7	0.24028383
18	0x3cdc56e8	0.026896909
19	0x3e424b87	0.18974124
20	0x3e76e292	0.24109867
21	0xbe10b703	-0.14132313
22	0x3e0f417d	0.13989826
23	0x3e84255f	0.25809762
24	0xbda3a731	-0.079908736
25	0xbd454dd6	-0.048169933
26	0x3e9069e6	0.28205794
27	0x3e9122b6	0.28346795
28	0x3e7d5e82	0.24743083
29	0x3e6259e7	0.22104608
30	0x3e74b957	0.23898827
31	0x3ed36992	0.4129148
32	0x3e7ffbab	0.24998347
33	0x3ebcec04	0.36898816
34	0x3eba4e06	0.36387652
35	0xbdcf355c	-0.10117599
36	0xbd4236d4	-0.04741557
37	0x3ee56391	0.44802526
38	0x3ed502fd	0.41603842
39	0xbe6b1fce	-0.22961351
40	0x3e9f4cdc	0.31113327
41	0x3e97e532	0.2966705
42	0x3eb07690	0.34465456
43	0xbdf4178c	-0.11918554
44	0x3ec2ceb0	0.38048315
45	0x3e80c576	0.2515065
46	0x3e172360	0.14759588
47	0x3e3fbf3b	0.18725292
48	0x3ea69b7c	0.325405
49	0x3dac434d	0.08411274
50	0x3ec082c3	0.37599763
51	0x3e3bac41	0.18327428
52	0x3e9fc87e	0.3120765
53	0x3e59a444	0.21254069
54	0x3e87fe3c	0.26561153
55	0xbdf4f4a0	-0.11960721
56	0x3e9752e0	0.29555416
57	0x3e5a13b0	0.21296573
58	0xbdab5ed9	-0.083677
59	0x3e5d9f60	0.21642828
60	0x3f44f9eb	0.76943845
61	0xbd962d90	-0.07332909
62	0x3e58b222	0.21161702
63	0x3e906eee	0.28209633
64	0xbe754579	-0.23952283
65	0x3eab1982	0.33417898
66	0x3e666fa3	0.22503524
67	0x3ead99de	0.33906454
68	0xbe8e8474	-0.2783543
69	0x3f1d4928	0.6143975
70	0x3e8ce855	0.27521005
71	0x3ebe9c6f	0.37228724
72	0x3f0f7798	0.5604186
73	0x3e9c10b5	0.30481496
74	0x3f152c96	0.5827116
75	0x3e896c0f	0.26840255
76	0x3e2bf6e5	0.16793402
77	0x3e0ae06f	0.13562177
78	0x3e8791e5	0.26478496
79	0x3de418ad	0.11137519
80	0x3f43f408	0.7654424
81	0x3ea8f47a	0.3299902
82	0x3ea8679d	0.3289155
83	0x3e320a5d	0.17386766
84	0x3e509f64	0.20373303
85	0x3e3fc996	0.18729243
86	0x3ea149e3	0.31501684
87	0x3e9bb79e	0.30413526
88	0x3f371d78	0.7152934
89	0x3e193a2e	0.149636
90	0xbd3c3ba5	-0.04595532
91	0x3f2b8341	0.6699715
92	0x3e383cb4	0.17991906
93	0xbe8d6d74	-0.2762257
94	0x3e7baa90	0.24576783
95	0x3e9f081a	0.31060869
96	0x3e79aeba	0.24383059
97	0x3ec186a5	0.37798038
98	0x3e90f6db	0.28313336
99	0x3e769a1b	0.24082224
100	0x3e98f5d9	0.29875067
101	0x3e4f4dda	0.20244542
102	0x3e8f838b	0.28030047
103	0x3e8009f6	0.250076
104	0x3ecf71a5	0.4051639
105	0x3eb15751	0.3463693
106	0x3ed2d05d	0.41174594
107	0xbe8be13c	-0.27320278
108	0x3f273bd5	0.6532567
109	0x3f01bebb	0.50681657
110	0x3f119a73	0.56876296
111	0x3e1e25e2	0.15444139
112	0x3ea664f8	0.32498908
113	0xbe894d05	-0.26816574
114	0xbd2515fc	-0.04030417
115	0x3ef3029d	0.4746293
116	0x3e791d3b	0.24327557
117	0x3e8a326b	0.2699159
118	0xbe3ebbba	-0.186263
119	0x3e5ba716	0.21450457
120	0x3ed3b66d	0.41350117
121	0x3e792aa8	0.24332678
122	0xbe764432	-0.24049452
123	0x3dcb6205	0.09930805
124	0x3e826445	0.25467125
125	0x3eaf293a	0.3421114
126	0x3e51f4fa	0.20503607
127	0x3d1894b6	0.037251197
128	0x3ebedddb	0.37278637
129	0xbdd40000	-0.103515625
130	0xbe25b62c	-0.16182774
131	0x3ee9b347	0.4564459
132	0x3f492c87	0.7858357
133	0x3e79a641	0.24379827
134	0x3e071f8d	0.1319563
135	0xbe5d6696	-0.21621165
136	0x3e734980	0.23758507
137	0x3ef45d10	0.4772725
138	0x3d8b2133	0.067934416
139	0x3e9458e5	0.2897407
140	0xbd998c5b	-0.07497474
141	0xbede3846	-0.43402308
142	0xbe60ea8f	-0.21964477
143	0x3dc6f9d6	0.09715621
144	0x3e53a0cc	0.20666808
145	0x3eb21ae6	0.34786147
146	0x3e304c99	0.1721672
147	0x3e8f27ed	0.27960148
148	0x3e20a09e	0.1568627
149	0x3e823d15	0.25437227
150	0x3d75062d	0.059820343
151	0xbe385084	-0.17999464
152	0x3e201ee6	0.15636787
153	0x3e7c000d	0.24609394
154	0x3e137a98	0.14402235
155	0x3e43586a	0.19076696
156	0x3ed1c2cd	0.40968934
157	0xbe6d67d9	-0.23184146
158	0x3e7bc553	0.24586992
159	0x3e883fd1	0.26611188
160	0x3f02fadb	0.51164025
161	0x3e6621e9	0.22473873
162	0x3f0a2969	0.53969437
163	0x3e35c9a4	0.17752701
164	0xbeb62b84	-0.35580075
165	0x3eb2307c	0.34802616
166	0x3e66efc1	0.22552396
167	0x3e938707	0.28813955
168	0x3f4414a3	0.7659399
169	0x3e57eeb6	0.21087155
170	0x3e0bc075	0.13647635
171	0x3ecdb0d4	0.40173972
172	0xbe418019	-0.18896522
173	0x3e659ecc	0.22423857
174	0xbe23d321	-0.15998508
175	0x3e0cf3b4	0.1376484
176	0x3e76d12d	0.24103232
177	0xbd88728d	-0.06662474
178	0x3f2af47e	0.66779315
179	0xbe03c3b3	-0.12867622
180	0x3e31f0e9	0.17377056
181	0x3d98268d	0.07429228
182	0x3ea45beb	0.32101378
183	0x3e52311c	0.20526546
184	0x3e24e8c4	0.16104418
185	0x3e5124ad	0.20424147
186	0x3e173788	0.14767277
187	0x3e3b4358	0.18287408
188	0x3e9878c3	0.29779634
189	0x3e4c1a19	0.1993183
190	0x3e71f071	0.23626877
191	0x3cfda68c	0.030963205
192	0x3e97afb0	0.29626226
193	0x3e7e525d	0.24836107
194	0x3ea6f6c4	0.32610142
195	0x3e8d7df5	0.2763516
196	0x3ec3a96c	0.38215196
197	0x3eae8223	0.3408366
198	0xbd89f453	-0.06736054
199	0xbe08fa7d	-0.13376804
200	0xbe8f484d	-0.2798485
201	0xbe64b00d	-0.22332783
202	0xbe19e2f4	-0.15027982
203	0xbc13e851	-0.0090275565
204	0x3e773b80	0.24143791
205	0x3e82198b	0.25410113
206	0x3e8dac61	0.27670577
207	0xbd956245	-0.07294134
208	0xbe426805	-0.18984993
209	0x3e297b17	0.16550861
210	0xbdeecda3	-0.11660316
211	0x3f7921b6	0.97317064
212	0xbd99e633	-0.0751461
213	0x3ecd13e3	0.40054235
214	0xbe809874	-0.25116313
215	0x3ee34a65	0.44392696
216	0xbd757c42	-0.059932955
217	0x3e196fda	0.14984074
218	0x3e97734d	0.29580155
219	0x3e9139b1	0.28364328
220	0x3eae52e5	0.34047619
221	0x3f1e6bdd	0.61883336
222	0x3ec3669e	0.38164228
223	0xbe884299	-0.2661331
224	0x3e0c401c	0.13696331
225	0x3e4d7878	0.20065486
226	0x3e74ee67	0.23919068
227	0x3f328cb0	0.6974592
228	0x3eafd297	0.34340355
229	0x3e9e0bac	0.3086828
230	0x3f097955	0.53700763
231	0x3ef52ead	0.47887173
232	0x3e98f753	0.29876193
233	0x3ebb3997	0.36567375
234	0x3e92d131	0.28675225
235	0xbe187530	-0.14888453
236	0x3ebec8e2	0.37262636
237	0x3e1fbd77	0.15599619
238	0x3ed1ddda	0.40989572
239	0x3e3d8647	0.18508254
240	0xbdc9cb54	-0.09853235
241	0x3e44e6d1	0.19228674
242	0xbe61cc6f	-0.22050641
243	0xbde35f29	-0.11102135
244	0x3ed09d5b	0.40745053
245	0xbdc93718	-0.098249614
246	0x3e113f97	0.14184414
247	0x3f4459e4	0.7669966
248	0x3e8bc9c3	0.2730237
249	0x3dd277dd	0.10276768
250	0x3ef9a48c	0.48758352
251	0xbe82778d	-0.25481835
252	0x3f470b47	0.7775158
253	0x3e1e4521	0.15456058
254	0x3ec4bd1a	0.38425523
255	0x3e828130	0.25489187

proxy_b_raw.weight f4 [17671, 1]
0	0xbe6ab4f7	-0.22920595
1	0xbeb22c3f	-0.34799382
2	0xbe8c5718	-0.27410197
3	0xbecc2552	-0.39872223
4	0xbe3f6afb	-0.18693154
5	0xbe74929f	-0.23884057
6	0xbe4ae093	-0.19812231
7	0xbe1f97b5	-0.15585215
8	0xbecbe6ff	-0.39824674
9	0xbeb8f77f	-0.36126325
10	0xbf0a2e5f	-0.53977007
11	0xbe72280b	-0.23648088
12	0xbe57a07d	-0.21057315
13	0xbf1e5126	-0.6184257
14	0xbe5ff0aa	-0.2186915
15	0xbed62a9f	-0.41829392
16	0xbe806088	-0.25073647
17	0xbe9252c0	-0.28578758
18	0xbe7f9a00	-0.2496109
19	0xbea6588b	-0.32489428
20	0xbeb4618f	-0.3523068
21	0xbdb0d1f1	-0.08633793
22	0xbeab9448	-0.33511567
23	0xbea2bf8a	-0.31786758
24	0xbe9e9913	-0.3097616
25	0xbe53bf86	-0.20678529
26	0xbea5be44	-0.32371724
27	0xbe9e308d	-0.30896416
28	0xbea86a31	-0.32893518
29	0xbe8e310d	-0.27771798
30	0xbe690c04	-0.2275849
31	0xbeafb671	-0.3431888
32	0xbe84e0c2	-0.25952727
33	0xbed1cd67	-0.40977022
34	0xbe827b71	-0.25484803
35	0xbe9fe50a	-0.3122943
36	0xbe39a1a0	-0.18128061
37	0xbeb600e7	-0.35547563
38	0xbe959d8e	-0.29221767
39	0xbe8fb596	-0.28068227
40	0xbe9a9426	-0.30191153
41	0xbe921c55	-0.2853724
42	0xbeb20bb6	-0.3477456
43	0xbe7b8f0e	-0.2456629
44	0xbe916c5f	-0.28402993
45	0xbe78fcc6	-0.24315175
46	0xbe43dfdf	-0.19128369
47	0xbe7e2329	-0.248181
48	0xbe600c31	-0.2187965
49	0xbe7e79ee	-0.248512
50	0xbea7a8a7	-0.3274586
51	0xbe7e5350	-0.24836469
52	0xbe8fac36	-0.28061074
53	0xbe72170e	-0.23641607
54	0xbebae5d8	-0.36503482
55	0xbebd8da8	-0.37022138
56	0xbe741587	-0.23836337
57	0xbe85b868	-0.26117253
58	0xbe938659	-0.28813437
59	0xbe544760	-0.20730352
60	0xbf2e478a	-0.6807791
61	0xbe866548	-0.26249146
62	0xbe91b6ee	-0.28459877
63	0xbe626f82	-0.2211285
64	0xbe808775	-0.25103346
65	0xbe967b2d	-0.2939085
66	0xbe9ff8a6	-0.3124439
67	0xbe8e3e13	-0.27781734
68	0xbe8c48c0	-0.27399254
69	0xbf1235c0	-0.57113266
70	0xbe9bc321	-0.3042231
71	0xbea7b33f	-0.3275394
72	0xbf09ce78	-0.5383067
73	0xbe9ca003	-0.3059083
74	0xbefbbf1c	-0.49169242
75	0xbe8a8397	-0.2705352
76	0xbe905044	-0.28186238
77	0xbe27b226	-0.16376552
78	0xbea03a85	-0.31294647
79	0xbe8fd003	-0.28088388
80	0xbf2cb69a	-0.6746613
81	0xbeba59de	-0.36396688
82	0xbe87de46	-0.2653677
83	0xbe9a0f8b	-0.30089983
84	0xbe8dfd11	-0.27732137
85	0xbe73876a	-0.23782125
86	0xbe91f87a	-0.28509885
87	0xbeb2fbf1	-0.3495784
88	0xbf1e197a	-0.61757624
89	0xbe693c02	-0.22776797
90	0xbe29e375	-0.16590674
91	0xbf2196a3	-0.6312048
92	0xbe2d433b	-0.16920178
93	0xbe0c1ec3	-0.1368361
94	0xbe893754	-0.26800025
95	0xbec082e6	-0.37599868
96	0xbe8bb7a3	-0.2728854
97	0xbea712ac	-0.32631433
98	0xbe9c1512	-0.30484825
99	0xbec975d6	-0.39347714
100	0xbe9c0d46	-0.30478877
101	0xbe55089d	-0.20804067
102	0xbe9d0444	-0.30667317
103	0xbead4b15	-0.33846346
104	0xbe8f1d4f	-0.27952048
105	0xbea87745	-0.32903495
106	0xbec1c261	-0.37843612
107	0xbea07cd0	-0.31345224
108	0xbf20ce2f	-0.6281461
109	0xbecd6a17	-0.40120003
110	0xbf05aeaf	-0.5221967
111	0xbede6cba	-0.43442327
112	0xbe57ed22	-0.21086553
113	0xbe7aea42	-0.24503425
114	0xbe507d7b	-0.20360367
115	0xbf01c3cd	-0.50689393
116	0xbe74e216	-0.2391437
117	0xbe8c2bcc	-0.27377164
118	0xbead3e7f	-0.33836743
119	0xbe7c8bcd	-0.24662705
120	0xbf18246d	-0.5943058
121	0xbe394405	-0.18092354
122	0xbe6ee26d	-0.23328562
123	0xbe95cef5	-0.29259458
124	0xbe9059d9	-0.28193548
125	0xbeb3bbbe	-0.35104173
126	0xbde01c0c	-0.109428495
127	0xbe8983f7	-0.26858494
128	0xbee77506	-0.4520647
129	0xbe5ff5dc	-0.21871132
130	0xbe6e8748	-0.23293793
131	0xbec370fe	-0.38172144
132	0xbf2f70f5	-0.68531734
133	0xbe4b3a63	-0.19846492
134	0xbe9e0077	-0.3085973
135	0xbe9411f1	-0.28919938
136	0xbe999006	-0.29992694
137	0xbedae952	-0.42756134
138	0xbe48c587	-0.196066
139	0xbe782226	-0.24231777
140	0xbea1a5d9	-0.31571844
141	0xbe7a2e8a	-0.24431816
142	0xbecba206	-0.39772052
143	0xbead72ae	-0.33876556
144	0xbed31d4f	-0.41233298
145	0xbec60bfa	-0.38681012
146	0xbe4eaf16	-0.20183977
147	0xbe92206b	-0.28540358
148	0xbe49d258	-0.19709146
149	0xbeb4f584	-0.35343564
150	0xbe4c17b0	-0.19930911
151	0xbe826247	-0.25465605
152	0xbe302d97	-0.17204891
153	0xbe2e9ef3	-0.17052822
154	0xbe5fdba0	-0.21861124
155	0xbea402e5	-0.32033458
156	0xbeac339e	-0.3363313
157	0xbee3b376	-0.44472855
158	0xbe42f826	-0.19039974
159	0xbe92e1a1	-0.28687766
160	0xbebbb049	-0.36657932
161	0xbe8abe35	-0.2709824
162	0xbf143a37	-0.5790133
163	0xbe96b74c	-0.2943672
164	0xbe9a4b9b	-0.30135807
165	0xbe5ac504	-0.21364218
166	0xbe61d67b	-0.22054474
167	0xbe8d7b10	-0.27632952
168	0xbf2ceae0	-0.6754589
169	0xbe90a318	-0.2824943
170	0xbe3e9c34	-0.18614274
171	0xbebc809a	-0.36816865
172	0xbea739f9	-0.32661417
173	0xbe835e12	-0.25657707
174	0xbe8f3660	-0.27971172
175	0xbeadffec	-0.33984315
176	0xbe868815	-0.26275697
177	0xbe85bb51	-0.26119474
178	0xbec03a51	-0.37544492
179	0xbe9bc83b	-0.304262
180	0xbe5ed15b	-0.2175955
181	0xbe3eda7d	-0.18638034
182	0xbe545168	-0.20734179
183	0xbea8a4a6	-0.32938117
184	0xbe98d61c	-0.29850852
185	0xbe965d60	-0.29368114
186	0xbe928d5c	-0.28623474
187	0xbe87f0f2	-0.26551014
188	0xbeaf1c92	-0.34201485
189	0xbe82d7e9	-0.2555535
190	0xbec97ce0	-0.39353085
191	0xbe73c49e	-0.23805472
192	0xbe6613d3	-0.224685
193	0xbe8ef4e1	-0.27921203
194	0xbee662e1	-0.44997314
195	0xbe8a49eb	-0.2700952
196	0xbe99665d	-0.2996091
197	0xbecd783c	-0.40130794
198	0xbec69e39	-0.3879259
199	0xbe842521	-0.25809577
200	0xbeb4907f	-0.35266492
201	0xbe634fc0	-0.22198391
202	0xbe748ee9	-0.23882641
203	0xbea01f5c	-0.31273925
204	0xbe77a811	-0.24185206
205	0xbe87aa06	-0.26496905
206	0xbe81340d	-0.25235024
207	0xbe6a2f15	-0.22869523
208	0xbe9c11d0	-0.3048234
209	0xbe8db2f6	-0.276756
210	0xbed13aaa	-0.4086507
211	0xbf586380	-0.84526825
212	0xbe8a2f30	-0.26989126
213	0xbed3cafa	-0.41365796
214	0xbe504106	-0.20337304
215	0xbec83505	-0.3910295
216	0xbe6568fd	-0.22403331
217	0xbe6147c6	-0.22000036
218	0xbe87441d	-0.26419154
219	0xbe9167b7	-0.2839944
220	0xbeb68350	-0.35647058
221	0xbf1b63ed	-0.6069935
222	0xbea89ddf	-0.32932946
223	0xbe4684ed	-0.19386645
224	0xbe86bc0c	-0.26315343
225	0xbe8d8abe	-0.27644914
226	0xbe0eaea2	-0.13933805
227	0xbf2e510e	-0.6809243
228	0xbe8e95fd	-0.27848807
229	0xbe93318e	-0.28748745
230	0xbf043244	-0.516392
231	0xbea9a042	-0.3313008
232	0xbea9daca	-0.33174735
233	0xbea36f3c	-0.31920803
234	0xbec8eece	-0.39244694
235	0xbea7df5a	-0.3278759
236	0xbe967927	-0.29389307
237	0xbe80fb04	-0.2519151
238	0xbe9d9057	-0.30774185
239	0xbe5e4086	-0.21704301
240	0xbeb41eae	-0.35179657
241	0xbe87478a	-0.26421767
242	0xbee741b3	-0.45167312
243	0xbe31ef31	-0.173764
244	0xbe771f79	-0.241331
245	0xbe67b907	-0.22629176
246	0xbe86e38e	-0.26345485
247	0xbf343d2c	-0.7040584
248	0xbea87727	-0.32903406
249	0xbee9e9e9	-0.45686272
250	0xbef7a1b7	-0.48365566
251	0xbe7b68f4	-0.24551755
252	0xbf340a41	-0.70328146
253	0xbe8895e8	-0.2667687
254	0xbe9138d1	-0.2836366
255	0xbe99d90b	-0.30048403

proxy_theta_raw.weight f4 [2493, 1]
0	0x3fe9d52b	1.8268179
1	0x3f856b98	1.042346
2	0x3fa044c6	1.2520988
3	0x3facd7b9	1.3503333
4	0x3f7e5609	0.9935003
5	0x3fcdd4ca	1.6080563
6	0x3ffbee78	1.968215
7	0x3fdba491	1.7159597
8	0x3fcda93b	1.606727
9	0x3fe3e0bc	1.7802958
10	0x3fa2e233	1.272528
11	0x3fe433a8	1.7828264
12	0x3fcc6efc	1.597137
13	0x3f702428	0.9380517
14	0x3f828867	1.0197877
15	0x3fc1cb72	1.5140212
16	0x3f15c281	0.58499914
17	0x3efe1a0b	0.49629244
18	0x3f8aa30e	1.083101
19	0x3f21346e	0.62970626
20	0x3ed2ca99	0.41170195
21	0x3f28a3b1	0.65874773
22	0x3f0c472b	0.54796094
23	0x3f016bfd	0.505554
24	0x3f3e4188	0.7431874
25	0x3f35433b	0.7080571
26	0x3f08eaa5	0.5348304
27	0x3f6f1347	0.9338879
28	0x3f37074c	0.7149551
29	0x3f209989	0.62734276
30	0x3efa537e	0.48891824
31	0x3f587294	0.8454983
32	0x3f84a8ed	1.0364052
33	0x3ee182e9	0.4404519
34	0x3fe3440d	1.7755142
35	0x3fa84f85	1.3149267
36	0x3fc52045	1.5400473
37	0x3fb8da04	1.4441533
38	0x3f211ac6	0.6293148
39	0x4008167e	2.1263728
40	0x3f74bb10	0.95597935
41	0x3f69aa20	0.91275215
42	0x3f5ba19e	0.85793483
43	0x3ffadcb1	1.95986
44	0x3fe24e6a	1.768018
45	0x3fdaa07e	1.7080228
46	0x3fe097ff	1.7546386
47	0x400650f0	2.09869
48	0x3fde8682	1.7384799
49	0x3fcc54f7	1.5963429
50	0x3f41bc8e	0.75678337
51	0x3fc4e12e	1.5381219
52	0x3fd01269	1.6255618
53	0x3fdad74a	1.7096951
54	0x3fca11d2	1.5786688
55	0x3fca099d	1.5784184
56	0x3fda2d4c	1.7045074
57	0x3fd23c2f	1.6424617
58	0x3fd10231	1.6328794
59	0x3fdd2fa4	1.7280164
60	0x3fc4a32f	1.53623
61	0x3fd49122	1.6606791
62	0x3fda9069	1.707532
63	0x3feafe6c	1.8358893
64	0x3fec6598	1.8468504
65	0x3fe041bb	1.7520059
66	0x3fe57477	1.7926167
67	0x3fe30e0e	1.7738664
68	0x3fb6cff7	1.4282216
69	0x3fc3fe48	1.5311975
70	0x3fd20a50	1.6409397
71	0x3fdbd20d	1.7173477
72	0x3fd59c8b	1.6688398
73	0x3ffd1d47	1.977456
74	0x3fbff076	1.4995258
75	0x3fc50d79	1.5394737
76	0x3fc4d041	1.5376054
77	0x3fd6b482	1.6773837
78	0x3fe589fb	1.7932733
79	0x3ffe89f0	1.9885845
80	0x3fef472a	1.8693593
81	0x3ff25ff5	1.8935534
82	0x3fd5f84f	1.6716403
83	0x3fc59e80	1.5438995
84	0x3fcaa7b9	1.5832435
85	0x3fdbb15e	1.7163503
86	0x3fd0f9eb	1.6326269
87	0x3f96aa21	1.1770669
88	0x3ff1033b	1.8829111
89	0x3fd707a9	1.6799213
90	0x3fedcbf1	1.8577863
91	0x3fe18eff	1.7621764
92	0x3fe28965	1.769818
93	0x3fd9bccb	1.701074
94	0x3fdf3af8	1.7439871
95	0x3fec59cf	1.8464907
96	0x3fdede92	1.7411673
97	0x3fc684ec	1.5509315
98	0x3fee546f	1.8619517
99	0x3f9ca1ca	1.2236874
100	0x3fe653bf	1.7994307
101	0x3ff06436	1.8780582
102	0x3fdb4108	1.7129221
103	0x3ff64038	1.9238348
104	0x3ff8a0ef	1.9424113
105	0x3feaf5de	1.8356283
106	0x3fc8963b	1.5670847
107	0x3fcbe2e4	1.5928617
108	0x3fe14f77	1.7602376
109	0x3fdfa8be	1.7473371
110	0x3ff7233f	1.9307631
111	0x3ff2d7ee	1.8972147
112	0x3fd5e726	1.6711166
113	0x3ff24f30	1.8930416
114	0x3fd0eefb	1.6322931
115	0x3fcd9d2d	1.6063591
116	0x3fd41cc9	1.6571285
117	0x3fd22ae6	1.6419342
118	0x3fda1945	1.7038962
119	0x3fd97a7e	1.6990507
120	0x3feaea9e	1.835285
121	0x3fc2b8a7	1.5212601
122	0x3fde54bd	1.736961
123	0x3fe00b87	1.7503518
124	0x3fda76b7	1.7067479
125	0x3fcd4600	1.6036987
126	0x3fd5f99a	1.6716797
127	0x3fcf42b4	1.6192231
128	0x3fc090a9	1.5044147
129	0x3fd6d69d	1.6784245
130	0x3fd1d638	1.6393499
131	0x3fbf4a5e	1.494457
132	0x3fc7ec78	1.561904
133	0x3fd19270	1.6372814
134	0x3fdb5d77	1.7137898
135	0x3fc42d2c	1.5326285
136	0x3fd77fe5	1.6835905
137	0x3f6cc0d0	0.9248171
138	0x3f700f0a	0.9377295
139	0x3f7f6e2d	0.9977749
140	0x3f545a36	0.8295015
141	0x3fc12a1f	1.5090979
142	0x3f41dbc7	0.7572598
143	0x3f166e7e	0.5876235
144	0x3f766e7d	0.9626234
145	0x3f3fa302	0.74858105
146	0x3f538cc8	0.8263669
147	0x3f2eaa54	0.6822865
148	0x3f3b23d9	0.73101574
149	0x3f5e81e7	0.86916965
150	0x3f871ca6	1.0555618
151	0x3f5ea367	0.8696808
152	0x3f7d78b1	0.99012285
153	0x3f7c0800	0.9844971
154	0x3f7e6e86	0.99387395
155	0x3f8d609e	1.104511
156	0x3f8d211f	1.1025733
157	0x3f94418f	1.1582507
158	0x3f85c178	1.0449667
159	0x3f72f591	0.94905955
160	0x3f8e45ec	1.1115088
161	0x3f7b2dc0	0.98116684
162	0x3f7a9bd2	0.9789401
163	0x3f74783c	0.95495963
164	0x3f9146f5	1.1349779
165	0x3f67ad42	0.90498745
166	0x3f8da8dd	1.1067158
167	0x3f6040f2	0.875991
168	0x3f7c266b	0.9849612
169	0x3f8da407	1.1065682
170	0x3f3ec1cc	0.7451446
171	0x3f813824	1.0095258
172	0x3f9635c3	1.1735157
173	0x3f78b38f	0.97148985
174	0x3f8e6438	1.1124334
175	0x3f669305	0.90068084
176	0x3f84d89e	1.0378606
177	0x3f979c2b	1.1844534
178	0x3f887b65	1.0662657
179	0x3f51dbf2	0.81976235
180	0x3f1b8137	0.6074404
181	0x3f2833f1	0.65704256
182	0x3f5e9d7c	0.8695905
183	0x3f025c5d	0.50922185
184	0x3eda8e15	0.42686525
185	0x3f0d7e23	0.55270594
186	0x3ef5a9f3	0.47981223
187	0x3f6f8f91	0.9357844
188	0x3f1f78e4	0.6229384
189	0x3f5edbb9	0.8705402
190	0x3f6e5011	0.9309092
191	0x3f64580b	0.8919684
192	0x3f257ac5	0.64640456
193	0x3f8062d8	1.0030165
194	0x3f32441e	0.6963519
195	0x3f1291fe	0.57254016
196	0x3f8592f3	1.043547
197	0x3f76f70c	0.96470714
198	0x3f0ae522	0.5425588
199	0x3f19d78e	0.60094535
200	0x3f1f9b72	0.62346566
201	0x3f0e9903	0.5570223
202	0x3f0ae93f	0.54262155
203	0x3ff3d297	1.9048642
204	0x3f12ba22	0.57315266
205	0x3f045e1f	0.5170612
206	0x3f1c9563	0.61165446
207	0x3f39958e	0.7249383
208	0x3edb1fae	0.42797607
209	0x3f1f499a	0.6222168
210	0x3f89fd08	1.0780344
211	0x3f4e1d3f	0.80513376
212	0x3eddc085	0.43310943
213	0x3f285f2e	0.6577023
214	0x3fa0feb4	1.2577729
215	0x3f3e4473	0.74323195
216	0x3f0228d8	0.5084357
217	0x3f322dc3	0.69601077
218	0x3f5eb3ab	0.869929
219	0x3f920f18	1.1410856
220	0x3ef94ea2	0.48692805
221	0x3f48b185	0.78395873
222	0x3f5888be	0.8458365
223	0x3f1382e7	0.57621616
224	0x3effa14f	0.49927756
225	0x3f027015	0.50952274
226	0x3f0f3383	0.55937976
227	0x3f0374ea	0.5135027
228	0x3f195a0a	0.59903014
229	0x3f020b35	0.5079835
230	0x3f1421fe	0.5786437
231	0x3f0d709e	0.55249965
232	0x3f21b936	0.63173234
233	0x3f88b291	1.0679494
234	0x3f8c836b	1.0977606
235	0x3f0aa43c	0.5415685
236	0x3f1c6505	0.61091644
237	0x3f5f7134	0.8728211
238	0x3f875d69	1.0575382
239	0x3f496028	0.7866235
240	0x3f3759f5	0.7162164
241	0x3f868e56	1.0512187
242	0x3f3607b0	0.7110548
243	0x3eefaa92	0.46809822
244	0x3ef4f3f7	0.4784238
245	0x3f2bdf87	0.6713795
246	0x3f43629b	0.76322335
247	0x3f5f34e8	0.87190104
248	0x3f44d306	0.76884496
249	0x3eed77b2	0.46380383
250	0x3f86952b	1.0514272
251	0x3f49e93b	0.78871506
252	0x3f89dd1d	1.0770603
253	0x3f4935cb	0.78597707
254	0x3f399457	0.72491974
255	0x3f83bd93	1.0292228
