GIRT/checkpoint/girt2pl-assist0910-random-split/checkpoint-epoch-1.pt (torch, 153924 bytes, 3 tensors)

proxy_a_raw.weight f4 [17671, 1]
000000 2f 9d b1 bc 2b 29 2a 3d 61 3b 5d bd d3 ea 35 bb
       -0.021681396 0.041543167 -0.054011706 -0.0027758374
000010 45 6b da bc c8 72 0f 3d d1 10 dd 3c 2f dc 3c 3c
       -0.026662478 0.035021573 0.026985558 0.011527105
000020 a2 96 dd 3d fe e3 90 3d cb 52 4f 3e a1 08 b7 3c
       0.108197466 0.07074736 0.20246427 0.022342982
000030 80 a9 03 3d 82 f2 1b 3e d7 a9 db bc 8c 3d 42 3d
       0.03214407 0.15229228 -0.026814384 0.047421977
000040 8f 17 20 3d 53 f1 ea 3c 7c 48 b0 3b 28 13 d6 3c
       0.039084967 0.028679525 0.0053797346 0.026132181
000050 32 04 36 3d 81 1e c0 bc bd 04 b3 3c 97 33 1e 3d
       0.044437595 -0.023452045 0.021852845 0.03862342
000060 cd 8a 73 bc 2c 05 1b bc a3 60 56 3d 6b 15 45 3d
       -0.014864636 -0.009461682 0.052338254 0.04811613
000070 7d 5d fc 3c a2 28 0f 3d da 29 dd 3c a1 56 48 3d
       0.030806297 0.03495086 0.026997495 0.04891074
000080 25 4b b6 3d 8f 3d 42 3d 58 03 c7 3d e1 6e e0 bc
       0.089010514 0.047421988 0.09717435 -0.027396621
000090 9f ca c6 bc 4a 16 2b 3e 1d 14 83 3d 8b ee f4 bc
       -0.02426654 0.16707721 0.06400321 -0.029898902
0000a0 d7 ae 57 3d 3c 84 50 3d 0d 90 2e 3d 08 23 fe bc
       0.052656975 0.05090736 0.042617846 -0.031022564
0000b0 c6 b1 d4 3c 83 a7 52 3c 84 cd b5 3c b3 2f 32 3d
       0.025963675 0.012857321 0.022192724 0.04350252
0000c0 ac 6b 67 3d 57 54 39 ba 84 e8 76 3d 54 65 0e 3d
       0.05649917 -0.00070697576 0.060280338 0.034764603
0000d0 7c ad 97 3d c4 e7 fa 3c 28 8c 2d 3d 13 09 95 bc
       0.074061364 0.030628093 0.04236999 -0.018192803
0000e0 a5 93 10 3d f9 ba f6 3c 59 b0 77 bc 55 7c 07 3d
       0.035297055 0.030118452 -0.015117728 0.033077557
0000f0 ff 2f 1a 3e 9f c8 ab bc 44 f6 2e 3d 7c 9b 9f 3c
       0.15057372 -0.020969687 0.042715326 0.01948332
000100 97 87 84 bd a4 68 c5 3d 7a 8a 24 3d 56 c1 19 3d
       -0.06471174 0.09639099 0.040171124 0.037537895
000110 ed a0 65 bd b5 92 d3 3d d5 d0 23 3d 09 60 2f 3d
       -0.056061674 0.103307165 0.03999408 0.042816196
000120 da 9a c9 3d b4 4b e5 3c e5 0a e2 3d 9e b8 77 3d
       0.09843989 0.0279902 0.11037234 0.0604788
000130 dc 69 7e 3c 4b 42 b0 bb d5 47 f2 3c 31 bb 0c 3c
       0.0155281685 -0.0053789965 0.029575268 0.008589552
000140 b4 45 0c 3e 4a e0 1e 3e 3c 1f 57 3d 35 ad e2 3c
       0.13698465 0.15515247 0.05252002 0.027670482
000150 4f e1 df 3c 50 a1 20 3d 1e bb 88 3d cd 3b 28 3d
       0.027329115 0.03921634 0.06676315 0.041072655
000160 1f 5c 20 3e 48 3c 6e 3c b1 11 2f bc 1c 25 ab 3d
       0.15660141 0.014540739 -0.01068537 0.083566874
000170 a8 c9 3b 3d c2 5a 28 bd 53 56 8e bb 1d b3 99 3d
       0.04584661 -0.04110218 -0.0043437867 0.07504866
000180 06 71 66 3c f3 cd e6 3c ea 43 a8 3c f3 a3 0e 3d
       0.014065033 0.028174376 0.020540196 0.034824323
000190 88 36 1e 3d 93 64 f8 3c 27 e5 fb 3c 86 fe 8e 3d
       0.038626224 0.030321395 0.030748917 0.0698214
0001a0 39 09 02 3e 77 cb a1 3d 0c 8d 89 3d 06 48 d9 bc
       0.1269883 0.07900136 0.06716356 -0.026523601
0001b0 69 2a ab 3d 43 c1 cb 3d e3 8c c6 3d ed 51 27 3d
       0.083576985 0.09948971 0.09694841 0.040849615
0001c0 48 57 94 3d e8 51 90 bd 42 fc 81 bc 77 fb 72 3d
       0.0724321 -0.070468724 -0.015867356 0.059321847
0001d0 b2 60 3d 3d e3 48 7a 3d 26 45 ff bc e8 fd c9 3c
       0.046234794 0.061104666 -0.031160902 0.024657205
0001e0 72 5e 80 3d 22 bc 91 3c 33 72 9e bc 4f 89 77 3b
       0.06268014 0.017789904 -0.019341564 0.0037771051
0001f0 7e e3 ca 3c ca f7 5c 3d 5e de 2e 3d 68 bf 75 3b
       0.02476668 0.053947248 0.042692535 0.003749812
000200 4a 14 19 3d 2a 65 cf bb 27 21 b5 bc ee 45 94 3d
       0.037372865 -0.0063291984 -0.022110535 0.072399005
000210 d3 12 71 3e 9c 4d 17 3d 3b 91 cf 3c 35 cf fc bc
       0.23542337 0.03693925 0.025337806 -0.030860523
000220 15 de df 3c 7b a3 bb 3d 25 cd 57 3c 93 60 5e 3c
       0.027327577 0.09162041 0.013171469 0.01357283
000230 3d b2 06 bd 13 d4 2a bd d9 8f a6 bc 89 65 8e 3b
       -0.032884825 -0.041706156 -0.020332264 0.0043456
000240 9a ee 79 bc 0d 50 16 3e 2a a4 73 3c 5e b0 b2 3c
       -0.015254641 0.14678974 0.014870683 0.021812614
000250 5a c0 d9 3c f9 04 5a 3d 0c 16 c1 3b f7 f9 3f bd
       0.026580978 0.0532274 0.005892521 -0.046869244
000260 b3 c9 9b 3c 2a 78 3b 3c 46 66 80 3c 06 07 23 3c
       0.019017076 0.011442224 0.015673768 0.009950405
000270 d4 32 67 3d 7a 72 0d bd 5f c8 1e 3d 44 f5 85 3d
       0.056444958 -0.034533 0.038765308 0.06540921
000280 fb fd 07 3e 2a bd 85 3c d5 cc 7d 3d 57 e2 9b 3c
       0.1328048 0.016325552 0.06196292 0.019028826
000290 b6 f1 11 bd 4f 05 ed 3c eb 67 1e 3d e3 d1 8b 3d
       -0.035630904 0.028933195 0.038673323 0.06827142
0002a0 ba 77 0d 3e 6b b7 08 3d cb 76 9d 3b 71 a7 63 3d
       0.13815203 0.033378046 0.004805421 0.055579606
0002b0 81 29 d8 bc 41 b3 fd 3c 1c 6e 8d bc 35 62 dc 3b
       -0.026386978 0.030969264 -0.017264418 0.0067255744
0002c0 24 94 23 3d 63 54 88 bc 31 6d b1 3d ad a1 01 bd
       0.0399362 -0.016641801 0.08663405 -0.031648327
0002d0 cd d5 98 3c 59 06 8a 3c 70 be 49 3d 47 ce a8 3d
       0.018656636 0.01684873 0.04925388 0.08242469
0002e0 33 e1 c7 3b ea 23 d4 3c 70 9f 91 3c 28 6c e5 3c
       0.006099844 0.025896031 0.017776221 0.028005674
0002f0 4e 1b 01 3e 68 a9 dd 3c d2 2e 50 3d 82 8f 03 bd
       0.12608072 0.027058318 0.0508259 -0.03211928
000300 bd 9d f9 3c 53 dc 89 3d 21 ee bb 3d 9a ba 7b 3d
       0.030470723 0.06731477 0.09176279 0.061457254
000310 95 b3 1f 3d af 7e 29 3d 86 78 e8 bc d6 81 7e bc
       0.038989622 0.04138058 -0.028377783 -0.015533885
000320 ed 3a 19 bd 12 3b 94 bc cb 39 ae bc 3f 5e b7 39
       -0.03740971 -0.018094573 -0.021267792 0.000349747
000330 6f fe 8d 3c a2 1c 08 3d 7f 75 68 3d 14 de a7 bc
       0.017333237 0.03323043 0.056752678 -0.020491637
000340 a2 d7 30 bd 7c 55 2c 3d 53 2d 16 3c f1 39 03 3e
       -0.043174393 0.04207371 0.00916608 0.12815072
000350 49 b1 24 bd d4 95 37 3d 8f f6 39 bd 54 ab 38 3d
       -0.040208135 0.04482062 -0.045401152 0.045085266
000360 01 7f 93 bc a1 cb 13 3d 6e 70 3c 3d 4b aa bd 3c
       -0.018004896 0.036082868 0.04600566 0.023152491
000370 20 63 97 3d c4 1b 94 3d 04 cc e7 3d d6 93 51 bd
       0.073919535 0.072318584 0.1131821 -0.051166378
000380 79 3e e1 bb f0 20 cb 3c ad 45 35 3d 06 8d 91 3d
       -0.0068739024 0.02479598 0.0442559 0.07106976
000390 0f 13 4c 3d 78 62 d6 3c 29 da d2 3d 4b 6c 6b 3d
       0.049822863 0.02617 0.10295517 0.057476323
0003a0 de 02 75 3d ed db 9d 3d 55 19 07 3d e4 37 b3 bc
       0.059817187 0.07707963 0.032983143 -0.021877237
0003b0 46 7a 17 3d 44 59 9e 3c 96 91 a2 3d fe 5b 11 3d
       0.036981843 0.019329675 0.079379246 0.03548812
0003c0 8c 94 7f bc 24 a3 e4 3c ac f0 2d bd 20 dc c8 bc
       -0.015599381 0.027909823 -0.04246585 -0.024519026
0003d0 31 7d 2d 3d 43 e0 02 bd 0d 2e a9 3c af 76 cc 3d
       0.04235572 -0.031952154 0.020651842 0.099835746
0003e0 bc bb c6 3c 31 16 b5 bc 57 5e 64 3d 64 fb 2e bd
       0.02425944 -0.022105308 0.055754032 -0.042720214
0003f0 0b bb f5 3d af 2e 30 3c cd 43 0c 3d 4d 1a 17 3d
       0.11998566 0.010753318 0.034244347 0.036890317

proxy_b_raw.weight f4 [17671, 1]
000000 e1 a0 f0 bd 71 e0 10 be 3f 5b 1b be dc f9 f8 bd
       -0.11749435 -0.14148118 -0.15171526 -0.12157032
000010 46 e5 e3 bd a8 6e 1d be f2 e9 03 be cc dd 09 be
       -0.11127715 -0.15374243 -0.12882212 -0.13463515
000020 1f a5 5f be c9 9c 1e be 52 e0 aa be a2 f0 09 be
       -0.21840332 -0.15489496 -0.33374268 -0.134707
000030 c1 2e df bd aa d8 81 be 68 2b 0a be bc 11 17 be
       -0.108975895 -0.25360614 -0.1349312 -0.14752859
000040 5b 05 2d be 7e de 0d be fc 30 36 be a6 db 05 be
       -0.16896574 -0.13854405 -0.17792124 -0.1307207
000050 2f 21 2e be 8d ec dd bd 3c 9d 02 be 18 23 0c be
       -0.17004846 -0.10836134 -0.12755293 -0.13685262
000060 d6 1e ff bd 09 aa 1b be 87 0d 0f be 2c 1a 3b be
       -0.12457053 -0.15201582 -0.13970004 -0.18271703
000070 38 5e 18 be 6f ee 34 be 3c ac e9 bd 8d 6c 0e be
       -0.14879692 -0.1766908 -0.11409804 -0.13908596
000080 dc 44 57 be d7 11 17 be fb c5 40 be 96 5a 12 be
       -0.21022362 -0.14752899 -0.18825524 -0.14292368
000090 71 f8 ed bd 1b 5e 95 be 9f e5 2a be 43 1a 04 be
       -0.11619652 -0.2917336 -0.16689156 -0.12900643
0000a0 11 e0 30 be 50 98 f0 bd 1b 02 0e be b1 25 f8 bd
       -0.17272975 -0.11747801 -0.1386799 -0.12116564
0000b0 72 d6 23 be b6 62 ee bd 2b b3 e0 bd 73 b5 0b be
       -0.15999773 -0.11639921 -0.109716736 -0.13643436
0000c0 9f f1 fd bd e2 f0 27 be 02 b5 49 be 4d 77 11 be
       -0.12399601 -0.16400483 -0.19697955 -0.14205666
0000d0 d9 98 3e be 0d ba 0f be 42 68 0b be 5d e5 06 be
       -0.18612994 -0.14035816 -0.1361399 -0.13173433
0000e0 7c 73 23 be 87 18 11 be d7 93 f8 bd 22 59 e4 bd
       -0.15962023 -0.14169513 -0.12137573 -0.11149813
0000f0 3d 01 81 be fd 7a 03 be 4e e4 46 be d0 6f 0a be
       -0.25196257 -0.12839885 -0.19423029 -0.13519216
000100 3c 52 32 be 96 8d 4c be 51 ff 2a be 84 7b 0c be
       -0.17414182 -0.19975886 -0.16698958 -0.13718992
000110 6d 49 31 be cb c5 50 be 72 dc 21 be d9 e6 08 be
       -0.17313166 -0.20387952 -0.1580675 -0.13369311
000120 79 dd 4e be 9e de f5 bd ab c4 71 be 10 dc 3c be
       -0.20201673 -0.120053515 -0.23610179 -0.18443322
000130 6b 77 25 be 9d f6 da bd 22 19 10 be a2 3a fa bd
       -0.16158836 -0.10691569 -0.14072087 -0.122182146
000140 c6 ea 73 be 05 d2 9c be 70 f5 2f be cd a8 40 be
       -0.23820028 -0.30628982 -0.1718347 -0.18814392
000150 0d a1 26 be 3a 2a 1f be d8 a4 4e be 3e e3 2a be
       -0.16272373 -0.15543452 -0.2018007 -0.16688249
000160 c6 24 84 be 77 34 15 be 52 46 00 be 1f 5a 3c be
       -0.25809306 -0.14570795 -0.12526825 -0.18393753
000170 cd 5f 10 be b0 0a 08 be 70 62 1e be 64 8a 26 be
       -0.14099045 -0.13285327 -0.15467238 -0.1626373
000180 e1 2f 11 be 0a 5a f3 bd b4 24 2b be a1 2f 10 be
       -0.1417842 -0.11882408 -0.1671322 -0.14080669
000190 48 25 12 be 4a c9 0e be c8 5a 1f be 1a dc 4c be
       -0.14272034 -0.13943973 -0.15561974 -0.20005837
0001a0 d3 a2 4d be 08 19 55 be 7d 6a 27 be 4d 67 34 be
       -0.20081644 -0.2081033 -0.16349216 -0.17617531
0001b0 cb 60 3c be 7a c9 42 be 62 32 4a be b1 c9 08 be
       -0.18396299 -0.1902217 -0.19745782 -0.13358189
0001c0 0e 06 09 be b1 f6 20 be 0c b1 fe bd c8 5b 23 be
       -0.13381216 -0.15719105 -0.12436113 -0.1595298
0001d0 d9 f1 11 be c2 57 44 be ad 05 12 be fe 4e f9 bd
       -0.14252414 -0.19174102 -0.14259978 -0.1217327
0001e0 47 6e 29 be 1b 9d e6 bd a0 da ef bd fe f3 16 be
       -0.16545974 -0.11260434 -0.11711621 -0.14741513
0001f0 3e 20 ec bd ff 95 0f be 9f 1f f2 bd 18 10 09 be
       -0.11529587 -0.14022063 -0.118224375 -0.13385046
000200 c5 b7 0c be 64 1a fb bd fa 7b f9 bd 44 e3 19 be
       -0.13741978 -0.12260893 -0.1218185 -0.15028101
000210 3d 37 ad be b7 ad fe bd bf 30 68 be f8 e7 18 be
       -0.33831206 -0.12435477 -0.22674845 -0.14932239
000220 8c 63 0b be c5 d1 52 be 4f c7 e8 bd c1 6f 15 be
       -0.13612193 -0.20587833 -0.1136614 -0.14593412
000230 09 4c 08 be 45 90 fe bd a1 dd 0e be 10 d5 32 be
       -0.13310255 -0.12429861 -0.13951732 -0.1746409
000240 7e 04 07 be 88 68 91 be 48 70 0a be 45 0c f6 bd
       -0.13185307 -0.28400064 -0.13519394 -0.12014059
000250 aa a2 fd bd 37 26 58 be bd 8e ef bd dc c7 25 be
       -0.12384541 -0.21108328 -0.11697147 -0.16189522
000260 4e 48 f5 bd 9e 50 ec bd 9e 05 03 be 08 30 0b be
       -0.11976682 -0.11538814 -0.12795112 -0.13592541
000270 cc 8c 11 be d2 b4 06 be 1f e6 f2 bd 62 8c 47 be
       -0.14213866 -0.13154915 -0.11860298 -0.19487146
000280 08 f7 77 be b4 b2 fc bd 57 0f 26 be 62 fd fd bd
       -0.24215329 -0.123387724 -0.16216789 -0.124018446
000290 a7 96 15 be 95 d2 02 be fa 52 2e be a3 57 27 be
       -0.1460825 -0.12775643 -0.1702384 -0.16342025
0002a0 9a 2d 75 be a0 71 17 be 35 e0 ef bd 04 71 25 be
       -0.23943177 -0.14789438 -0.11712686 -0.16156393
0002b0 03 3e 0b be b6 cc 18 be 6a 4c e2 bd aa e5 13 be
       -0.13597874 -0.14921841 -0.11049731 -0.14443079
0002c0 a6 5e 22 be ba 62 1e be 66 de 31 be 5c 54 02 be
       -0.15856418 -0.15467349 -0.17369995 -0.12727493
0002d0 e9 f4 1e be e9 f2 f6 bd 00 d1 fa bd 45 d6 56 be
       -0.15523113 -0.1205805 -0.12246895 -0.20980175
0002e0 87 01 14 be 0c 1f 3c be 81 b6 f1 bd 55 8e 0c be
       -0.14453708 -0.18371218 -0.11802388 -0.1372617
0002f0 01 ba 8c be e6 5f 10 be db cb 0a be c4 ff 0c be
       -0.2748566 -0.14099082 -0.13554327 -0.13769442
000300 8d d5 0a be 7a 12 43 be 8e 8f 87 be 1b 84 2e be
       -0.13558026 -0.19050017 -0.2647671 -0.17042582
000310 eb 02 fc bd 8a 25 0d be 53 23 16 be 49 c3 fb bd
       -0.12305244 -0.13783851 -0.14661913 -0.12293107
000320 e0 0a 05 be be 22 07 be 87 1e 0a be 6e 0e f5 bd
       -0.1299243 -0.13196847 -0.13488208 -0.11965643
000330 27 20 08 be b4 77 17 be 44 8d 24 be 31 10 03 be
       -0.13293515 -0.14791757 -0.16069514 -0.12799145
000340 f3 78 1f be b0 58 13 be 35 3b 0e be 12 99 6a be
       -0.15573482 -0.143893 -0.13889773 -0.22909954
000350 1e e4 1d be 68 f2 06 be 65 c2 17 be a3 61 0a be
       -0.15419051 -0.13178408 -0.1482025 -0.13513808
000360 17 b3 f8 bd 78 67 0b be 42 21 2a be 7a ac fb bd
       -0.12143534 -0.13613689 -0.1661425 -0.12288757
000370 70 54 4c be b8 bf 30 be 32 67 63 be fe c5 20 be
       -0.19954085 -0.17260635 -0.22207335 -0.15700528
000380 9d cc 07 be 15 18 12 be 28 29 0b be ff 76 2f be
       -0.13261648 -0.14266999 -0.13589919 -0.17135237
000390 8c eb 08 be 2f c2 eb bd ca 76 50 be b5 c2 06 be
       -0.13371104 -0.11511647 -0.20357814 -0.13160212
0003a0 77 a1 4c be e6 82 4b be 64 3c 12 be 7f 95 04 be
       -0.19983469 -0.19874153 -0.1428085 -0.12947653
0003b0 49 fe 0a be 71 26 ee bd 0e 27 48 be 81 47 0b be
       -0.13573565 -0.11628426 -0.19546148 -0.13601495
0003c0 ed 93 02 be 35 c5 09 be a1 98 08 be 3e 12 09 be
       -0.12751742 -0.13454135 -0.13339473 -0.13385865
0003d0 fe 3f fe bd 21 dc ff bd a8 81 06 be ba 3e 4d be
       -0.12414549 -0.12493158 -0.13135397 -0.2004346
0003e0 ad 14 03 be 87 ff 13 be ef 4f 1a be 3e 05 32 be
       -0.12800856 -0.14452945 -0.15069555 -0.17384812
0003f0 08 28 62 be 35 06 04 be 83 57 00 be 7e c7 20 be
       -0.22085583 -0.12892993 -0.12533383 -0.157011

proxy_theta_raw.weight f4 [2493, 1]
000000 54 94 96 3e 37 57 4e 3e 6f b3 72 3e e9 5b 6b 3e
       0.2941004 0.20150457 0.23701261 0.2298428
000010 9e 97 59 3e 6a 0a 82 3e 96 58 9c 3e 59 79 8c 3e
       0.21249244 0.2539857 0.30536336 0.2743633
000020 d7 b3 75 3e d6 63 90 3e 8e e3 75 3e dc 99 8f 3e
       0.23994385 0.2820117 0.24012586 0.28047073
000030 5c bf 85 3e 38 23 49 3e 0c c6 5b 3e 8b 03 83 3e
       0.26122558 0.19642341 0.21462268 0.2558864
000040 7e 09 17 3e 9e 98 11 3e c4 77 59 3e 2d 9d 1a 3e
       0.14749715 0.14218375 0.21237093 0.1509902
000050 a4 87 09 3e 39 4b 21 3e 0a 03 10 3e 65 6f 16 3e
       0.13430649 0.15751351 0.1406366 0.14690931
000060 34 87 21 3e 5f 53 29 3e 86 ca 10 3e eb 03 3e 3e
       0.15774232 0.1653571 0.14139757 0.18556182
000070 e7 ff 27 3e 30 2b 13 3e 71 1a 0e 3e d6 e9 4d 3e
       0.16406213 0.14371943 0.13877274 0.20108733
000080 5a 43 51 3e b8 2a 08 3e 1d 79 9b 3e e0 ad 79 3e
       0.20435849 0.13297546 0.3036584 0.24382734
000090 fd ec 81 3e a6 97 7c 3e 77 e2 20 3e c2 55 a3 3e
       0.2537612 0.24667224 0.1571139 0.31901366
0000a0 c6 0a 48 3e 45 c7 4b 3e 72 11 48 3e 53 4c 9d 3e
       0.1953536 0.19900234 0.19537905 0.30722293
0000b0 d7 17 92 3e 45 36 8a 3e 80 ef 92 3e 1b 42 a5 3e
       0.28533813 0.2699453 0.2869835 0.32276997
0000c0 d6 f4 9a 3e 7d d8 8f 3e cc 05 42 3e 8e e6 92 3e
       0.3026492 0.28094855 0.18947524 0.28691524
0000d0 6b 06 97 3e ab 21 98 3e 46 e3 89 3e 5c 88 91 3e
       0.29497084 0.29713187 0.26931208 0.28424346
0000e0 a0 5d 97 3e fe 6a 94 3e 23 87 9c 3e fe a3 a5 3e
       0.29563618 0.2898788 0.3057185 0.3235168
0000f0 4d 61 8e 3e 7c 03 9f 3e 95 05 96 3e c9 fd a9 3e
       0.2780861 0.31057346 0.29301134 0.33201435
000100 f2 20 a4 3e ee 25 9b 3e e9 4d a3 3e 20 f7 95 3e
       0.32056385 0.30302376 0.31895378 0.29290104
000110 87 27 8c 3e 7f e9 8b 3e c0 c4 9a 3e 9b da 97 3e
       0.27373907 0.2732658 0.30228233 0.2965897
000120 69 55 9c 3e f5 e3 a4 3e 0a 12 96 3e 13 9c 8e 3e
       0.30533913 0.32205167 0.29310638 0.2785345
000130 e3 1e 91 3e 5d 14 a1 3e 23 e7 9e 3e db 5f b2 3e
       0.28343877 0.31460848 0.31035718 0.34838757
000140 32 d1 a5 3e 48 c9 9d 3e e6 36 94 3e 4e cc 96 3e
       0.32386166 0.30817628 0.28948134 0.29452747
000150 77 dd 96 3e 90 6b 9b 3e c5 69 99 3e b4 57 73 3e
       0.2946584 0.303555 0.29963508 0.23763925
000160 e8 4b a6 3e bf dd 9c 3e bd 86 a3 3e 13 9e 9b 3e
       0.32479787 0.3063793 0.31938735 0.3039404
000170 df 43 97 3e f0 42 9e 3e 7c 7b ab 3e 96 4e aa 3e
       0.2954397 0.30910444 0.3349265 0.3326308
000180 51 08 9f 3e 63 65 92 3e a2 8f a7 3e 64 9b 78 3e
       0.31061032 0.28592977 0.3272677 0.24278027
000190 4b e6 98 3e 1f 9b a0 3e 71 05 9a 3e d7 9c b2 3e
       0.298632 0.31368348 0.30082276 0.34885284
0001a0 69 5e ac 3e 42 f0 a3 3e 92 cf 90 3e 2f 9e 9a 3e
       0.3366578 0.3201924 0.28283364 0.3019881
0001b0 5c 72 9d 3e 9b ad ab 3e 3d df aa 3e 6c 83 af 3e
       0.30751312 0.33530888 0.33373442 0.34279954
0001c0 c3 72 95 3e 2a 18 a3 3e 90 64 97 3e 06 b9 8e 3e
       0.2918912 0.31854373 0.2956891 0.27875537
0001d0 0d 0a 99 3e b1 e7 98 3e 7d b8 98 3e e5 2f 95 3e
       0.2989048 0.29864267 0.29828253 0.29138103
0001e0 b1 9e a2 3e 81 c1 89 3e d3 94 9b 3e d3 5a 9e 3e
       0.31761697 0.26905444 0.3038698 0.30928668
0001f0 6c 05 98 3e 42 da 99 3e ff 94 94 3e 3b f3 95 3e
       0.29691637 0.3004933 0.29019925 0.29287133
000200 4c dc 85 3e 9e 3c 92 3e cb 3d 90 3e ec e3 90 3e
       0.26144636 0.28561872 0.28172144 0.2829889
000210 8b a2 8d 3e b3 93 8e 3e 55 2f 98 3e 5d 42 8f 3e
       0.27663073 0.2784706 0.2972361 0.2798032
000220 dd 35 97 3e 93 58 44 3e c5 c9 5b 3e a1 50 59 3e
       0.29533282 0.19174413 0.21463688 0.21222164
000230 cf 78 3c 3e ad 71 8a 3e cb 97 37 3e 1c 8e 1d 3e
       0.1840546 0.27039853 0.17928998 0.15386242
000240 c4 2c 4d 3e 59 89 40 3e c9 89 47 3e f8 20 39 3e
       0.20036608 0.18802394 0.19486155 0.18078983
000250 a2 5e 36 3e 68 1c 3c 3e 89 9b 48 3e ea 62 55 3e
       0.17809537 0.18370211 0.19590582 0.20838514
000260 4c b1 46 3e 6b ea 45 3e 8d 2e 46 3e 56 6b 52 3e
       0.19403571 0.19327705 0.19353695 0.20548758
000270 7b 01 55 3e b3 06 52 3e ae 4d 4f 3e a9 fe 4b 3e
       0.20801346 0.20510368 0.20244476 0.19921364
000280 2b c7 56 3e 26 6c 52 3e 87 04 54 3e eb 96 45 3e
       0.20974414 0.20549068 0.20704852 0.19295852
000290 9d 9d 4a 3e 47 3b 3f 3e e0 42 56 3e 69 ba 34 3e
       0.19786687 0.18674956 0.20923948 0.17649235
0002a0 d8 1f 46 3e ea 7e 4f 3e d3 9e 34 3e a5 d7 45 3e
       0.19348085 0.20263258 0.17638712 0.19320543
0002b0 df 42 52 3e a0 ff 53 3e fa d8 5c 3e 8b 21 48 3e
       0.20533322 0.20702982 0.21567145 0.19544046
0002c0 30 cd 51 3e 0c 44 58 3e de 36 54 3e 54 f0 30 3e
       0.20488429 0.21119708 0.20724055 0.17279178
0002d0 8d 2d 1c 3e 88 b8 1d 3e 4f a8 2c 3e d7 a3 14 3e
       0.15251751 0.15402424 0.1686108 0.14515625
0002e0 39 b8 0a 3e 26 64 16 3e 3a 9c 04 3e 05 4d 4a 3e
       0.13546838 0.14686641 0.1295022 0.19755943
0002f0 99 32 36 3e 6d c9 4b 3e 66 ac 50 3e b8 48 36 3e
       0.17792739 0.19901057 0.20378265 0.17801178
000300 a5 22 25 3e c8 f2 53 3e e6 50 41 3e 02 c8 1c 3e
       0.16126497 0.20698082 0.18878517 0.15310672
000310 b3 98 5c 3e 30 13 53 3e 4b 27 11 3e d1 b6 21 3e
       0.21542625 0.20612788 0.14175145 0.15792395
000320 40 ff 2c 3e 6a 9d 24 3e 76 26 23 3e 8c c3 8f 3e
       0.16894245 0.16075674 0.1593264 0.28078878
000330 e1 59 19 3e 79 49 0b 3e e4 d4 0f 3e da f4 21 3e
       0.14975692 0.13602246 0.14046055 0.1581606
000340 62 5e 0b 3e 24 b3 31 3e e9 62 4a 3e c5 4d 2f 3e
       0.13610223 0.17353493 0.19764294 0.1711951
000350 9e a4 12 3e 69 0a 24 3e 3c 41 70 3e 13 9e 3d 3e
       0.14320609 0.16019596 0.23462385 0.18517332
000360 e9 f7 17 3e a4 aa 3a 3e 8b 14 43 3e 45 f2 69 3e
       0.14840664 0.18229157 0.19050805 0.22846325
000370 75 32 14 3e 10 cc 3f 3e 99 12 41 3e 7e 7a 12 3e
       0.14472373 0.18730187 0.1885475 0.1430454
000380 9f bc 0c 3e 0f cf 0d 3e 1d 4f 11 3e 06 32 09 3e
       0.13743828 0.13848518 0.14190336 0.13397989
000390 72 a9 13 3e 56 75 10 3e ef bf 15 3e 87 24 16 3e
       0.14420107 0.1410726 0.14623998 0.14662372
0003a0 76 77 15 3e c6 85 4a 3e c6 3c 62 3e 68 67 10 3e
       0.14596352 0.19777593 0.22093496 0.14101946
0003b0 e1 b9 29 3e 8b a8 50 3e 29 35 5e 3e 41 c6 2d 3e
       0.16574813 0.20376794 0.21699966 0.16970159
0003c0 b7 59 2b 3e b8 db 53 3e e5 2f 38 3e e4 91 14 3e
       0.16733442 0.20689285 0.1798702 0.14508778
0003d0 98 b0 18 3e da 60 1f 3e 86 fd 25 3e da e6 3d 3e
       0.14911115 0.1556429 0.16209993 0.18545094
0003e0 e1 57 2f 3e 91 ed 16 3e 02 92 5e 3e fe d1 38 3e
       0.17123367 0.14739062 0.21735385 0.18048856
0003f0 0f 5d 3a 3e 85 02 2d 3e 83 8b 29 3e 53 6d 55 3e
       0.18199562 0.16895492 0.16557126 0.20842485
