GIRT/checkpoint/girt2pl-assist0910-random-split/model_state.pt (torch, 153861 bytes, 3 tensors)

proxy_a_raw.weight f4 [17671, 1]
00000000: 020c 5bbe ea50 563e b34a f0be b6ba 203f
00000010: 0bc3 94be 01bb 653e 8305 183e 4d3d a93d
00000020: 6405 003f ffee 8e3e 1536 f93e c669 993e
00000030: c6d2 db3d cb8a 193f d675 8a3e 10a9 b03e
00000040: 0c39 3f3e 8b18 823e 500d 42bc 2e91 553e
00000050: eb2d 873e 21b2 1cbe 0c55 f03d 93ca 833e
00000060: 26b4 aabd ec20 43bd f596 7e3e 4c4c a33e
00000070: 42cc 843e 65db 813e 45de 823e 03f8 d83e
00000080: 60cf 543e 0c83 b03e 5779 8e3e f67e b8bd
00000090: 51eb 38bc 1163 ba3e 47b3 e53e 7868 9dbe
000000a0: 0c5d b43e d904 8b3e f811 d93e abe0 c7bd
000000b0: 5a20 fc3e 18f6 973e 7f3d 303e f22e 213e
000000c0: bbce 7e3e ecd7 013e 8dc3 d53e 4b21 323e
000000d0: 247b a53e 36d7 6d3e 85e2 7d3e a649 46be
000000e0: cc9c aa3e f8e5 6d3e 5d9d cbbd 8ff4 463e
000000f0: b72d 2c3f ecf2 a6bd 568e 733e 26df a53e
00000100: 7ea3 74be 92d2 a73e 4b76 873e e7d3 c83e
00000110: ba6d 9ebe d0da 163f 61a7 a93e 45c2 da3e
00000120: 14cf 073f e523 ad3e f03f 193f f735 a13e
00000130: 1ba0 373e 1e41 393e 7a02 973e fccb 033e
00000140: a62c 2f3f e2a7 8d3e 0b57 c33e c46d 383e
00000150: 41da 803e 3449 5c3e 43a3 ab3e 5cc3 b03e
00000160: be6d 0f3f dd20 233e b004 7abd e10a 313f
00000170: 0561 0e3e d68f b3be beb3 be3e 726b 713e
00000180: 5b45 a53e e348 ee3e 44b1 c93e e564 913e
00000190: d306 b13e 2819 5c3e 914f ab3e 7eec 803e
000001a0: 0a93 913e d51e c33e f5b7 e03e 0d24 c9be
000001b0: 97cf 2a3f b292 0a3f dc9b 0d3f 3719 593d
000001c0: 000e 653e 8038 9cbe 5207 54bd 1289 0d3f
000001d0: a1a2 803e d951 a93e 5cd7 4cbe bbfb 6d3e
000001e0: 683e e33e bc5c a43e 31c4 abbe 6379 e63d
000001f0: f646 9d3e 91a5 ab3e 6210 193e 7d3f 0e3b
00000200: ed09 ec3e 5541 03be 2641 58be 8232 043f
00000210: 78bf 213f 6a14 573e 1758 023e 2b10 8cbe
00000220: 961a 943e 524d fa3e 15b8 333d ac31 b93e
00000230: 8e78 c1bc 498c 16bf 8d34 90be d9a6 da3d
00000240: 0032 d03e 7b80 8e3e 420e 5f3e ced0 b13e
00000250: afe5 043e 1d24 8e3e 4918 5e3d f118 28be
00000260: dd78 1e3e 6092 a23e e82f 303e 59a4 753e
00000270: 19ce ce3e 9c16 82be baf0 7e3e 397b 8c3e
00000280: 1e66 e23e 5539 903e c71c 1d3f 9286 663e
00000290: 7580 f5be 6932 e93e 5b6a 943e cd60 813e
000002a0: 91a8 323f 47af 5e3e 3517 1f3e d84f ce3e
000002b0: b9c4 75be 1ff8 903e dd9f 4bbe 6718 343e
000002c0: 1357 723e 424e e3bd ba4b 2d3f 8d52 dbbd
000002d0: a348 3b3e 4e9b 0f3a 3719 843e f656 2a3e
000002e0: b9fa 553e 382b 7d3e 5cea 323e 5e06 443e
000002f0: 3456 773e 09a2 673e 85ca 243e f228 023e
00000300: 2684 b53e c2bf 6f3e 3ca1 953e 3a1c 903e
00000310: bcc1 df3e 4a18 ac3e ce46 f5bc d240 31be
00000320: 59a9 a5be 1760 a1be ab3a 41be f416 3ebd
00000330: 9137 a53e d4c0 973e 5f1b 843e 2573 9cbd
00000340: 5923 51be d47c 203e 59f9 72be 82ba 753f
00000350: 9865 04bd b7b4 e43e 7703 93be f17d 013f
00000360: 4ff5 1abd 8ab7 b93d 7274 b03e c7ed bb3e
00000370: e07a c13e 3d47 2b3f c5c6 bd3e 84d9 9dbe
00000380: 0f46 583e a7bd 693e 072a 453e 4d20 4a3f
00000390: b0b8 983e 25b1 b43e 53e1 f63e 252f 053f
000003a0: 5ade b53e 6abb d03e ac46 bc3e 4219 45be
000003b0: e8a8 dd3e 8623 393e ba96 e53e ce3a 313e
000003c0: 0583 e6bd c393 433e 9af0 56be 3717 e9bd
000003d0: e665 f53e bef4 9bbd c72b 2c3e 3114 4b3f
000003e0: 4c31 983e c144 833e c1f3 f83e b47a 9fbe
000003f0: 1fa8 413f 99e6 3a3e 68f0 d33e 1ead 933e
-0.213913 0.20929304 -0.4693199 0.627849 -0.29055056 0.22434618 0.14845853 0.08263645
0.50008225 0.27916715 0.48674074 0.2996351 0.10733561 0.59977406 0.27043027 0.34503984
0.18674105 0.2540935 -0.011843994 0.20856163 0.2640222 -0.15302326 0.117349714 0.2574049
-0.08335142 -0.04763882 0.24862273 0.31894147 0.25937086 0.25362697 0.25560203 0.42376718
0.20782232 0.3447498 0.2782695 -0.09008591 -0.011286573 0.36403707 0.4486334 -0.30743766
0.3522724 0.27152136 0.42396522 -0.09759649 0.49243432 0.29679942 0.17210959 0.15740564
0.24883549 0.12680024 0.41750756 0.17395513 0.3232051 0.23226628 0.24793442 -0.19364032
0.33322752 0.23232257 -0.09942124 0.19429229 0.67257255 -0.081518024 0.23784766 0.3239681
-0.23890492 0.3277784 0.26457438 0.3922417 -0.3094309 0.5892763 0.33135512 0.4272634
0.5305035 0.33816448 0.59863186 0.31486484 0.17932169 0.18091246 0.29494077 0.12870783
0.68427503 0.27667147 0.38152346 0.18010622 0.25166515 0.215123 0.33522996 0.34524047
0.5602683 0.15930505 -0.061039627 0.69157225 0.13904198 -0.35070676 0.37246507 0.23576143
0.32279477 0.46539983 0.39393055 0.2839729 0.3457552 0.21493971 0.33459142 0.2518043
0.28432494 0.3810946 0.43890348 -0.39285317 0.66723007 0.5413009 0.5531595 0.053002562
0.22368622 -0.30511856 -0.051764794 0.5528728 0.25124076 0.33070257 -0.20004028 0.23240559
0.4438355 0.32102 -0.3354812 0.112536214 0.307182 0.33524755 0.14947656 0.0021705322
0.46101323 -0.12817891 -0.21118602 0.5163957 0.63182783 0.21003881 0.12728916 -0.27356085
0.28926533 0.48887116 0.043876726 0.3617071 -0.023617055 -0.5880781 -0.28165093 0.10676355
0.40663147 0.27832398 0.21782783 0.34729618 0.12978242 0.27761927 0.05422238 -0.16415764
0.15475793 0.317523 0.17205775 0.23988475 0.40391615 -0.25407875 0.24896517 0.2743776
0.44218534 0.2816874 0.61372036 0.22512272 -0.47949567 0.45546272 0.28987393 0.25269166
0.6978846 0.2174655 0.15536197 0.4029529 -0.24000825 0.283143 -0.19885202 0.17587434
0.23666029 -0.11098911 0.67693675 -0.10709105 0.18289427 0.00054781593 0.25800487 0.16634735
0.20896424 0.24723518 0.17472214 0.19143054 0.24153978 0.22620405 0.1609288 0.12710932
0.35452384 0.23412994 0.29224575 0.28146535 0.43702495 0.3361228 -0.029940989 -0.17309883
-0.32355765 -0.31518623 -0.18870036 -0.04640861 0.32268956 0.29639304 0.25802132 -0.076391496
-0.2042364 0.15672618 -0.23727931 0.95987713 -0.03232345 0.44669124 -0.2871358 0.50582796
-0.0378316 0.090682104 0.3446384 0.36704847 0.3778906 0.66905576 0.37065712 -0.30830014
0.21120475 0.22826253 0.19254313 0.7895554 0.29828405 0.352914 0.48218784 0.5202506
0.35521203 0.40767986 0.36772668 -0.19247916 0.43292928 0.18079957 0.44841558 0.17307588
-0.11255459 0.19099335 -0.2099022 -0.11381381 0.47929305 -0.0761504 0.16813575 0.79327685
0.2972511 0.25638393 0.4862347 -0.31148303 0.7564716 0.18252029 0.41394353 0.28843015

proxy_b_raw.weight f4 [17671, 1]
00000000: e668 91be a780 bebe 8b38 4fbe a897 edbe
00000010: 44da 43be 9778 89be f074 1abe 6aaf a5bd
00000020: 433e c3be b7e9 9dbe 3abc e6be 77cc 83be
00000030: 9dc9 6ebe 4229 01bf 3404 5abe 847b c9be
00000040: d2c7 8ebe c1bf 9abe 27c2 86be 99e4 b5be
00000050: 0c56 dabe 569b db3c 74f9 c1be 6999 99be
00000060: b7b6 c1be f27d 32be 2fff 9ebe 25ac 95be
00000070: 8977 abbe d18a 98be 793a 5ebe 44b7 aabe
00000080: 4dbd 3bbe 301f c5be 43ad ccbd 779a b0be
00000090: 97c3 0cbe 1979 87be 4dc4 86be fe39 a6be
000000a0: acbd 95be d953 96be 3cb2 e2be 984a 4abe
000000b0: ddbe 90be 9c10 53be be0a 5bbe 90b9 5cbe
000000c0: eddf dbbd efa2 84be d04f a9be 70f4 6abe
000000d0: 5a0f 95be 03b2 70be b855 d9be 1070 adbe
000000e0: 6eb1 2abe 007c 79be 017d bebe 79dd 4dbe
000000f0: 75d3 0ebf 04b3 50be f9f2 97be e364 32be
00000100: 74b2 60be ad57 8fbe f720 bbbe eabd 96be
00000110: 9686 5bbe 9ff2 fbbe 8a9f b2be 2166 b6be
00000120: 51ba dabe 7b0f 9dbe e134 e7be c93b 98be
00000130: 155e 86be 3cd2 1dbe 05be 94be 109a a6be
00000140: d0f8 10bf 619b 9cbe 2712 75be d1fa 9bbe
00000150: cedd a4be 953f 82be b536 90be d3a1 c5be
00000160: ae37 dbbe 62a8 75be 1551 34be 740d 1dbf
00000170: aa02 f1bd ae4c 31bd 7b5a 91be 128d c1be
00000180: 9bc3 8dbe e196 b3be efc8 babe 5585 f2be
00000190: cb29 a1be 4657 20be 2be0 b0be ed56 c3be
000001a0: ddd3 30be 7220 9ebe 394e ccbe 4bba 96be
000001b0: 7bb7 18bf 658b d1be 4c11 e9be 1604 f0be
000001c0: 685a c1bd fd40 61be 53ab 2cbe 8bfe 04bf
000001d0: a3dc 74be a222 9ebe 2d5a a6be 3c83 65be
000001e0: 31d4 12bf 3fa3 1ebe ffc1 8fbe 656c 99be
000001f0: caed abbe bf13 cabe 5606 a13c 148d 90be
00000200: f1fe 00bf 9ac7 84be ee5b 8dbe f269 dcbe
00000210: 5761 06bf 7775 a0bd ba51 92be eb4c acbe
00000220: dad5 b4be 2c7c d2be 069e 49be 211f 59be
00000230: 5289 b7be 3d1e 96be cfb4 ebbe 0ebc b5be
00000240: edd3 fabe 2741 a7be 191e 5abe 27db a3be
00000250: b243 31be 1f19 babe dc91 57be 3a2f 5ebe
00000260: b55e 05be 22e0 0dbe 967d 75be 435d c1be
00000270: f0da 93be 5e94 f6be 2d7b 1ebe ba90 8abe
00000280: 4217 6ebe eb5c 92be 9592 1abf 75ff b7be
00000290: cbfe b1be 6840 57be 9c96 71be 33b9 63be
000002a0: b25d 14bf 823e 9dbe 0402 f3bd 5040 b1be
000002b0: acc8 bdbe f41d 8ebe 895a b8be 953c cdbe
000002c0: 7479 4ebe 3767 8dbe 18c3 9cbe 5f87 a0be
000002d0: 1489 5bbe ab02 03be 2501 66bd c3bb a8be
000002e0: 6bb7 afbe 1581 9ebe 5390 9cbe 9b0c 90be
000002f0: a8d1 83be 3339 88be 478c ddbe c5b2 87be
00000300: eba8 6dbe 5ae8 88be 635a d1be 767b 87be
00000310: 0b23 9fbe 9ee2 adbe 3b10 f1be d1d5 81be
00000320: 902b bdbe dc4b 87be 268b 8ebe d5cb b3be
00000330: 2f3c 83be 9a2b 93be c13b 44be bbb2 84be
00000340: 64c4 a2be d6be 9ebe 4d12 d7be c1c3 43bf
00000350: 680a 95be 383e f6be fc19 2ebe 7cb7 debe
00000360: c8c7 6cbe 1e49 16be 6d60 92be 7886 a9be
00000370: 755d bebe b0df 18bf 4305 9ebe 37f7 03be
00000380: 795a a6be 908e 9bbe 7a0a 803c a3b0 33bf
00000390: 22cc 79be 185a 90be 6354 d9be 497c acbe
000003a0: 1dc0 bcbe 5527 a5be 753b dabe b0ed bebe
000003b0: 9b76 73be 6037 9ebe dbf8 95be 6a96 4dbe
000003c0: 7153 c5be abc8 8dbe f6df 04bf 8342 0bbe
000003d0: ff63 74be 0581 52be 6273 aabe 7688 2bbf
000003e0: 2978 b0be 087e 0dbf 62a5 c2be 2021 3ebe
000003f0: 3356 28bf d88d 9abe 2001 80be ecff a7be
-0.28400344 -0.3720753 -0.20236413 -0.46404767 -0.1912623 -0.26849815 -0.1508367 -0.08090098
-0.3813344 -0.30842373 -0.4506548 -0.25741932 -0.23319097 -0.5045358 -0.21290666 -0.39352047
-0.27886826 -0.30224422 -0.2632 -0.3552597 -0.42643774 0.026807468 -0.3788563 -0.29999855
-0.37834713 -0.17430857 -0.31054065 -0.29232898 -0.33489636 -0.2979341 -0.21701993 -0.33342946
-0.18333931 -0.38500357 -0.099939846 -0.34492847 -0.13746487 -0.26459578 -0.2632164 -0.3246612
-0.2924627 -0.29360846 -0.44276607 -0.19755018 -0.28270617 -0.20611805 -0.21390817 -0.21555161
-0.1073607 -0.25905558 -0.33068705 -0.22944808 -0.29113275 -0.23505406 -0.4244821 -0.3387456
-0.16669247 -0.24363708 -0.37204745 -0.20104016 -0.5579141 -0.20380789 -0.2967756 -0.17421298
-0.21943074 -0.2799658 -0.36548588 -0.29441768 -0.21438059 -0.49208543 -0.34887344 -0.35624793
-0.42720273 -0.30675873 -0.4515753 -0.29733112 -0.26243654 -0.1541223 -0.29051223 -0.32539415
-0.5662966 -0.30587295 -0.23932706 -0.30464795 -0.32200474 -0.25439134 -0.28166738 -0.38600025
-0.42815918 -0.23990014 -0.17609055 -0.6134865 -0.11768086 -0.043286018 -0.28389344 -0.3780294
-0.27688298 -0.3507605 -0.36481425 -0.4736735 -0.31477198 -0.15658292 -0.34546027 -0.38152257
-0.1726832 -0.3088413 -0.3990343 -0.29439005 -0.5965497 -0.40926662 -0.4552101 -0.46878117
-0.09441072 -0.21997447 -0.1686223 -0.519509 -0.23912291 -0.30885798 -0.32490674 -0.22413343
-0.5735503 -0.15491961 -0.28077695 -0.2996551 -0.33579856 -0.3946819 0.019656342 -0.28232634
-0.5038901 -0.25933534 -0.276092 -0.4304958 -0.5249228 -0.07834905 -0.28577977 -0.33652434
-0.35319406 -0.4111036 -0.19689187 -0.21203281 -0.35846955 -0.29319945 -0.46036384 -0.35495037
-0.48989812 -0.32666895 -0.21300544 -0.32003137 -0.1731098 -0.3634729 -0.21051735 -0.21697703
-0.13024409 -0.13855031 -0.23973688 -0.37766466 -0.28877974 -0.4816007 -0.15476675 -0.27063543
-0.2325106 -0.28586516 -0.60379916 -0.35937086 -0.34764704 -0.21020663 -0.23592609 -0.22238617
-0.5795547 -0.30711752 -0.11865619 -0.3461938 -0.37067163 -0.27757227 -0.36006573 -0.40085283
-0.20163518 -0.2761781 -0.30617595 -0.3135328 -0.2143901 -0.12793986 -0.056153435 -0.3295575
-0.34319624 -0.30957857 -0.3057886 -0.28134617 -0.25745893 -0.2660614 -0.43271086 -0.26503578
-0.23208968 -0.2673977 -0.40889272 -0.2646138 -0.31081423 -0.33961958 -0.47082695 -0.2535844
-0.36947298 -0.26425064 -0.27840537 -0.3511645 -0.25631854 -0.28744203 -0.1916342 -0.2591761
-0.3179046 -0.3100497 -0.4200615 -0.7647057 -0.29109502 -0.48094344 -0.170021 -0.43499362
-0.23123085 -0.1467633 -0.28589192 -0.33110404 -0.37180677 -0.5971632 -0.3086339 -0.12887274
-0.324909 -0.30382204 0.015629996 -0.701914 -0.24394277 -0.28193736 -0.42447194 -0.33688572
-0.3686532 -0.3225657 -0.42623487 -0.37290716 -0.23775713 -0.30901623 -0.29291424 -0.2007691
-0.38540223 -0.2769216 -0.5190424 -0.13599591 -0.2386627 -0.2055703 -0.33291155 -0.670051
-0.34466675 -0.55270433 -0.38016802 -0.18567324 -0.6575653 -0.30186343 -0.25000858 -0.3281244

proxy_theta_raw.weight f4 [2493, 1]
00000000: ba4b 0940 57fa a43f eca7 bb3f a092 c93f
00000010: 6ae2 983f 7385 fd3f 879c 1340 d697 0440
00000020: 9ee3 fb3f c3b4 0640 950b be3f 8db4 0840
00000030: 8902 f03f 4323 873f 82fb 943f a7cb e73f
00000040: 89ca 353f 6fea 173f 32fd a03f 2b3e 3b3f
00000050: 2228 d33e 8a73 453f 07da 253f 9da2 173f
00000060: a380 673f da49 543f 132c 213f 464e 913f
00000070: 6eab 513f cbdf 483f c973 153f 667f 773f
00000080: ddbf 9a3f 6a93 093f 4030 0140 a238 be3f
00000090: ff16 ea3f 305a dc3f 8d90 3e3f 5a21 2440
000000a0: e0d4 923f 0cb9 8d3f fd95 843f be10 1540
000000b0: e066 0640 6a6f 0440 98c1 fd3f 0d0c 2440
000000c0: ae74 f83f daa2 f33f d6e5 633f c87c d43f
000000d0: 4d64 ec3f f0bb fa3f 85e8 ee3f d52b e23f
000000e0: 849a f73f 8972 ef3f f4a9 e83f be84 ef3f
000000f0: 0e10 e33f b6bd e83f c8ba f23f 956d 0040
00000100: a25b 0040 e93b fe3f dfe9 f63f ac61 0140
00000110: f69c d23f 107d e03f 5e27 f33f 59df fd3f
00000120: 475b ec3f 46be 0a40 8a93 cd3f d403 e43f
00000130: 7be1 dc3f cca3 e73f 3e4f fb3f a096 0840
00000140: ff82 fb3f 8fa3 0740 0e81 f63f 0a50 e53f
00000150: 6246 e03f 0402 fb3f df26 e93f f27e a73f
00000160: 2055 0440 441e f23f b46d 0340 871a fd3f
00000170: 9ea6 0040 d440 f53f ed10 e63f f5dc 0240
00000180: cbe6 f73f 6528 dc3f 3e28 0440 2c05 b13f
00000190: 1a23 0040 6a31 0640 d5a8 f43f 9c1d fe3f
000001a0: a321 0840 c614 ff3f 30da e33f 4733 dc3f
000001b0: e705 f83f 59f0 e43f e26b 0840 8000 f43f
000001c0: 0a98 f13f c8d8 0840 4962 ee3f 7584 ea3f
000001d0: 0f5c f23f 1a5c ea3f 0380 f93f 6245 f93f
000001e0: 61ac fd3f 5560 e33f 8e36 fd3f 5017 fb3f
000001f0: 8cba f53f f945 e73f a99c f73f 49ea e93f
00000200: 4803 e03f a840 fa3f c7b5 f83f 53ea dc3f
00000210: 46d6 e13f b355 ec3f 7120 f63f b5d7 d63f
00000220: 8c49 fb3f c737 8c3f 1b3a 8b3f ff78 9b3f
00000230: d6fe 8b3f c059 d03f 616a 703f 3d44 3f3f
00000240: 45e7 a43f 84a7 673f c6a4 883f 3a8e 453f
00000250: 4668 783f d461 8b3f c134 a33f d19d 883f
00000260: a94c 9a3f c8b3 9d3f 0335 9f3f bdf9 b23f
00000270: 34c8 b23f fcb6 b63f 2beb a23f 888d 9a3f
00000280: 7228 ab3f 3fb9 9c3f e8ae 9a3f a03b 963f
00000290: 163f b63f 4564 903f 6c56 ad3f 6d93 913f
000002a0: 9001 9c3f 6670 b03f 3186 763f 5f51 9f3f
000002b0: 7599 bd3f 7956 973f 3604 ac3f 92ec 8d3f
000002c0: aa4b a03f d391 be3f 6828 a63f 4f33 7b3f
000002d0: 1a35 313f ce02 473f 0a9e 853f 17e0 173f
000002e0: 6b71 e93e 6669 243f 1f3e 183f f088 8e3f
000002f0: 3955 3a3f a0d5 883f 7a68 963f e5f8 923f
00000300: 0a52 423f c505 9b3f ff6a 573f bd2c 253f
00000310: 1154 a33f b02d 983f 9319 353f 186c 2f3f
00000320: 2d4d 4c3f 08f4 2c3f 22be 1f3f 1f5d 1640
00000330: 30a6 2d3f b79e 1e3f 2764 3f3f bad3 5c3f
00000340: 30d6 f93e 091a 2e3f f7c1 b63f 2df2 833f
00000350: cfba 0a3f af17 4c3f 4923 bd3f 103c 6b3f
00000360: b278 1a3f 6cb7 513f 4107 8b3f 8b2b a13f
00000370: 081b 133f 36cc 823f c4c5 883f 1d95 313f
00000380: 62ce 1e3f b5c9 183f 1d6c 2f3f a8f8 213f
00000390: e9ea 3d3f 7d8d 163f 679e 383f 119f 2b3f
000003a0: d3ab 493f 3df1 aa3f 1d29 9f3f 35b4 253f
000003b0: 9269 393f e47d 7f3f 6af6 a43f 6f93 723f
000003c0: fbc3 5d3f c940 a03f 71ac 5d3f 9816 0c3f
000003d0: 016f 143f 5ab6 4e3f 1e3c 803f d78b 773f
000003e0: d365 783f d362 113f e86b 9e3f be23 813f
000003f0: 796f be3f 0bd7 7e3f 7b8d 5f3f 833a 953f
2.145247 1.2888898 1.4660621 1.5747871 1.1944096 1.980635 2.3064287 2.0717673
1.9678838 2.1047828 1.4847285 2.13602 1.8750774 1.0557636 1.1639254 1.8109025
0.7101217 0.5934209 1.2577269 0.73141736 0.41241556 0.77129424 0.6478581 0.59232503
0.9043066 0.8292519 0.62957877 1.1352012 0.81902206 0.7846648 0.583798 0.9667877
1.2089802 0.5374056 2.01857 1.4861033 1.8288268 1.7215023 0.74439317 2.5645356
1.1471214 1.1072097 1.0358273 2.3291469 2.100029 2.0693002 1.9824705 2.5632355
1.9410608 1.9034073 0.89022577 1.660058 1.8468109 1.9588604 1.8664709 1.7669626
1.934403 1.8706828 1.8176866 1.8712385 1.7739275 1.8182895 1.8963251 2.0066884
2.0055928 1.9862033 1.9290122 2.0215864 1.6454151 1.7538166 1.8996389 1.9833785
1.8465356 2.1678634 1.606065 1.7813668 1.7256311 1.8096862 1.9633558 2.1341934
1.9649352 2.1193578 1.9258134 1.7915051 1.7521479 1.960999 1.8214988 1.3085616
2.0676956 1.8915486 2.0535707 1.977372 2.0101695 1.9160409 1.7973915 2.0447361
1.9367307 1.7199827 2.0649562 1.3829703 2.0021424 2.096766 1.9114023 1.9852786
2.127053 1.9928215 1.780096 1.7203149 1.9376801 1.7885848 2.1315846 1.9062653
1.8874524 2.1382313 1.8623744 1.8321673 1.8934344 1.8309357 1.9492191 1.9474299
1.9818231 1.7763773 1.9782274 1.961649 1.9197555 1.8068229 1.9344684 1.8274623
1.7501001 1.9550982 1.9430474 1.725901 1.7643516 1.8463653 1.922865 1.6784579
1.963182 1.0954522 1.0877107 1.21463 1.0937145 1.627739 0.9391232 0.747135
1.2883078 0.90489984 1.0675285 0.77170146 0.9703411 1.088923 1.2750474 1.0673162
1.2054645 1.232049 1.2438053 1.3982464 1.3967347 1.4274592 1.2728018 1.2074442
1.3371718 1.2244033 1.2084627 1.1736946 1.4238002 1.12806 1.3541999 1.1373116
1.2187977 1.3784301 0.9629851 1.2446707 1.4812456 1.1823264 1.3438785 1.108782
1.2523091 1.4888252 1.2981081 0.98125166 0.6922165 0.77738655 1.0438855 0.5932631
0.45594344 0.64223325 0.5946979 1.113554 0.7278629 1.0690193 1.1750634 1.1482207
0.7590643 1.2111136 0.8414764 0.6452139 1.276003 1.1888943 0.7074215 0.6852431
0.7980526 0.6755986 0.62399495 2.3494337 0.67831707 0.6196093 0.74762195 0.8626057
0.48796225 0.68008476 1.4277943 1.0308281 0.541913 0.7972364 1.4776393 0.91888523
0.60340416 0.81920505 1.0861589 1.2591413 0.5746312 1.021857 1.0685353 0.69368154
0.62033665 0.5968278 0.6852434 0.63270044 0.7418657 0.58809644 0.721167 0.6703959
0.7877781 1.335487 1.2434422 0.647281 0.7242671 0.9980147 1.28877 0.94756216
0.8662717 1.2519771 0.8659125 0.54721975 0.5798188 0.80746996 1.0018346 0.96697754
0.9703037 0.5679142 1.237668 1.0089033 1.4877769 0.9954688 0.8732526 1.1658481
